TFT_final/best_tft.pth (torch, 759822 bytes, 393 tensors)

static_emb.embedding.0.weight f4 [2, 40]
1.9269153 1.4872841 0.9007172 -2.105521 0.6784184 -1.2345449 -0.043067478 -1.604667
-0.7521353 1.648723 -0.39247864 -1.4036071 -0.7278813 -0.5594302 -0.7688389 0.7624454
1.6423169 -0.15959747 -0.49739754 0.43958926 -0.75813115 1.0783176 0.80080056 1.6806206
1.2791244 1.2964228 0.6104665 1.3347378 -0.23162432 0.04175949 -0.2515753 0.8598585
-1.3846737 -0.87123615 -0.22336592 1.7173615 0.31888032 -0.42451897 0.30572093 -0.7745925
-1.8268584 0.80186534 -1.2282321 -0.84788305 -1.5298246 2.0205226 -1.3364265 -0.4404245
-1.4939367 -1.344404 0.43106243 0.38152006 -0.3745507 0.93678147 -1.0512693 -0.6967841
-1.3180473 -0.08176272 -0.12751655 0.8297474 0.14764781 1.7194875 -1.0194706 1.2499049
1.8989438 0.58660316 2.5654712 0.7460531 0.11960877 0.1791663 -0.7407561 1.3591737
-0.5624268 0.46307087 0.3043211 0.17179757 0.4996226 -0.5159964 -1.9007548 -0.9131624
00000000: 29a5 f63f 535f be3f 6795 663f dbc0 06c0
00000010: d4ac 2d3f 9105 9ebf 8667 30bd ba65 cdbf
00000020: f08b 40bf 5b09 d33f f6f2 c8be 66a9 b3bf
00000030: 6e56 3abf d136 0fbf a0d2 44bf 9f2f 433f
00000040: 7137 d23f 856d 23be e4aa febe d811 e13e
00000050: e214 42bf 5006 8a3f 4401 4d3f 931e d73f
00000060: 59ba a33f 2ff1 a53f 8847 1c3f b0d8 aa3f
00000070: ed2e 6dbe 000c 2b3d 7ace 80be b01f 5c3f
00000080: fd3c b1bf 5509 5fbf 09ba 64be 80d2 db3f
00000090: 4844 a33e 8d5a d9be 7487 9c3e b24b 46bf
000000a0: 7fd6 e9bf 0c47 4d3f b636 9dbf dd0e 59bf
000000b0: 4bd1 c3bf 3e50 0140 0610 abbf 527f e1be
000000c0: 5139 bfbf 6e15 acbf 37b4 dc3e 9956 c33e
000000d0: 1cc5 bfbe e9d0 6f3f fe8f 86bf 7160 32bf
000000e0: c6b5 a8bf 3773 a7bd b393 02be 536a 543f
000000f0: fd30 173e 2b18 dc3f 037e 82bf e2fc 9f3f
00000100: 9710 f33f a02b 163f ae30 2440 56fd 3e3f
00000110: 71f5 f43d 5f77 373e 31a2 3dbf 67f9 ad3f
00000120: 34fb 0fbf a017 ed3e facf 9b3e b4eb 2f3e
00000130: 89ce ff3e 5718 04bf ef4b f3bf 03c5 69bf

static_emb.embedding.1.weight f4 [2, 40]
0.010868144 -0.33874235 -1.3406795 -0.58537054 0.5361881 0.5246226 1.1412016 0.051643595
0.743952 -0.4815844 -1.049466 0.6038988 -1.722295 -0.82776886 1.334703 0.48353928
-2.5095444 0.48800105 0.78458685 0.028647186 0.6407553 0.5832474 1.0669267 -0.45015338
-0.18526748 0.75275886 0.4047578 0.17846599 0.2649095 1.2731683 -0.0013108636 -0.30360377
-1.4570291 -0.10233524 -0.59915304 0.4770564 0.7261772 0.09115186 -0.3890652 0.5279165
-0.029884342 0.48150143 -0.2821498 0.47088894 1.4465259 0.3487056 0.7131799 0.4435357
1.4568619 0.7812596 -1.6036992 -1.3746563 0.004394573 1.5474488 0.84043247 0.46183932
1.3954897 0.27887923 -2.2004912 1.3962448 0.036378253 0.8681677 -0.39680818 0.48511565
-1.3654906 0.7729731 1.9377015 1.3019497 0.122034185 0.29765415 -0.26251635 0.46965986
0.5896874 0.6158666 -0.7112492 1.2085365 -2.7485719 -0.4255382 -1.0931756 1.1552325
00000000: 4d10 323c a36f adbe 639b abbf d8da 15bf
00000010: a043 093f ab4d 063f e512 923f 3c88 533d
00000020: a373 3e3f 3b92 f6be e754 86bf 1d99 1a3f
00000030: 2a74 dcbf a9e8 53bf 8cd7 aa3f 7692 f73e
00000040: 609c 20c0 46db f93e afda 483f 81ad ea3c
00000050: 8a08 243f b44f 153f 0e91 883f 817a e6be
00000060: c2b6 3dbe ceb4 403f 6a3c cf3e cabf 363e
00000070: 38a2 873e 2ef7 a23f 49d1 abba f471 9bbe
00000080: ee7f babf 2395 d1bd 1862 19bf bd40 f43e
00000090: c0e6 393f d4ad ba3d 8e33 c7be 8925 073f
000000a0: 02d0 f4bc 5b87 f63e f075 90be 5b18 f13e
000000b0: c327 b93f 8a89 b23e f592 363f 1c17 e33e
000000c0: 737a ba3f a100 483f 0446 cdbf bdf4 afbf
000000d0: 5a00 903b cd12 c63f 9526 573f 3476 ec3e
000000e0: 689f b23f 42c9 8e3e d9d4 0cc0 26b8 b23f
000000f0: 5d01 153d 3d40 5e3f 712a cbbe 1461 f83e
00000100: 65c8 aebf 91e1 453f 9a06 f83f 4aa6 a63f
00000110: 0fed f93d 2066 983e 8b68 86be 4277 f03e
00000120: c1f5 163f 6fa9 1d3f 6d14 36bf 53b1 9a3f
00000130: 9ae8 2fc0 25e0 d9be 2eed 8bbf a9de 933f

static_emb.embedding.2.weight f4 [2, 40]
-1.9005532 0.22857653 0.024859404 -0.34595025 0.2868328 -0.7308424 0.17482026 -1.0939293
-1.6021603 1.3528969 1.2888277 0.052295472 -1.5468504 0.75670606 0.7755195 2.0265355
0.035817612 0.12058873 -0.8056637 -0.20757683 -0.93194777 -1.5909662 -1.1359757 -0.5225976
-0.5187733 -1.5012764 -1.9266542 0.12785123 1.0229133 -0.55579513 0.70427275 0.709876
1.7743884 -0.921551 0.9624499 -0.33701515 -1.1753336 0.35805708 0.4787679 1.3537
0.22979103 2.42408 -0.68372977 -0.7231142 0.16810016 1.0844063 1.186783 0.58867526
-1.124275 -1.1596777 -0.7574231 -0.80798006 0.14010303 0.5527488 -0.018604636 -2.0689723
-0.60437924 1.0436112 -2.0313044 1.764864 0.06774902 -0.68772954 0.9690393 1.8535025
-0.17178911 1.6419878 0.52707535 -0.7315787 -0.20638557 0.057966813 0.1940201 1.7188405
-0.54882824 -0.6246493 -1.8949237 -0.9230024 -0.25962982 -0.07648205 0.14305256 0.7091708
00000000: 5445 f3bf f70f 6a3e f3a5 cb3c 6420 b1be
00000010: c0db 923e 7d18 3bbf 1504 333e e005 8cbf
00000020: 9713 cdbf ba2b ad3f 4ef8 a43f c733 563d
00000030: 32ff c5bf 7db7 413f 7288 463f c2b2 0140
00000040: 7db5 123d 39f7 f63d fa3f 4ebf 058f 54be
00000050: 2194 6ebf c8a4 cbbf a767 91bf f5c8 05bf
00000060: 54ce 04bf d329 c0bf 9b9c f6bf 6feb 023e
00000070: d3ee 823f 9748 0ebf 384b 343f 6fba 353f
00000080: 291f e33f c4ea 6bbf 1e63 763f 408d acbe
00000090: 5571 96bf 4253 b73e 1121 f53e 0b46 ad3f
000000a0: 574e 6b3e 2024 1b40 ea08 2fbf 031e 39bf
000000b0: 7322 2c3e d3cd 8a3f 81e8 973f 6cb3 163f
000000c0: 3ee8 8fbf 5270 94bf 7be6 41bf c8d7 4ebf
000000d0: 2b77 0f3e f280 0d3f c068 98bc 0b6a 04c0
000000e0: 99b8 1abf 0d95 853f e400 02c0 10e7 e13f
000000f0: 00c0 8a3d 0b0f 30bf f612 783f 923f ed3f
00000100: 7ce9 2fbe a82c d23f 69ee 063f be48 3bbf
00000110: bd56 53be 9c6e 6d3d 35ad 463e f702 dc3f
00000120: 0280 0cbf 04e9 1fbf dc8c f2bf e349 6cbf
00000130: 33ee 84be 9fa2 9cbd 5f7c 123e 388c 353f

future_emb.embedding.0.weight f4 [32, 40]
-0.9291303 0.27619088 -0.5388753 0.46258232 -0.8718891 -0.02711836 -0.35324576 1.4638569
1.2554343 -0.7149558 0.8539193 0.5129912 0.539731 0.565505 0.5057917 0.22245365
-0.6854816 0.563559 -1.5071751 -1.610666 -1.4790466 0.43227428 -0.1250254 0.7821184
-1.5987676 -0.10912995 0.7151995 0.039139222 1.3058602 0.24659275 -1.9775909 0.017896043
-1.3793021 0.62580276 -2.5849502 -0.023999555 -0.122192875 -0.74699545 1.7093087 0.057922695
0.942575 1.8652899 0.4319185 1.6880554 -0.19070251 0.750018 -0.111874744 0.6647037
0.13027188 -1.0994979 -0.9460182 -0.16673765 -0.5076713 0.39575118 0.09361796 -0.15921228
0.8936429 0.9121117 0.4971909 1.1956981 -0.05573224 1.5073994 1.0868404 0.11826998
0.046567157 0.53919846 0.3931767 -0.62068325 0.5306348 0.9026889 -1.8342335 -0.9650045
-0.552537 -2.6134655 -0.81431764 -0.80550987 -0.15434083 -0.106586546 0.5021608 -1.0481546
1.0953194 0.08057199 1.2502584 -2.0831454 -0.4949891 1.2962366 0.7045696 -0.32129863
0.49687237 1.824707 -2.2870302 -1.3878239 2.2528918 0.2208308 -0.5467808 0.7374173
1.7007236 -0.3286054 0.8216946 -1.0928286 -0.104805075 -0.3262929 0.3547143 0.09083572
0.3645717 1.5997585 0.53813463 0.23778072 0.32698858 -0.32416695 -0.9518336 -0.85423476
-1.2996466 0.48538697 0.37146607 -1.653123 -0.306456 -0.7635147 0.07630892 0.9335857
1.3111432 1.3311803 0.19343436 0.48520184 -1.5273757 -0.67357093 -0.83779794 1.904567
-0.59738696 0.22451785 1.8062049 1.4456279 -0.23876497 1.0640628 1.1082783 0.4278543
-0.4924888 -0.8113763 -1.1878119 1.3364575 -0.59694594 0.9597699 -0.72470367 -0.2788867
0.25154632 -0.24542134 -0.3679614 0.56182295 1.452859 -0.67205936 -0.22868665 0.15584281
-0.89422923 -2.3134267 -0.67244637 0.7234779 1.4954801 -0.18240415 -1.4081328 0.9062978
1.310833 0.4940129 -1.1924883 -1.613088 -0.33636966 -0.13414389 -0.0044175833 -1.1734439
1.9916171 -1.2024943 0.9618937 1.9726765 0.5598458 -0.74649006 -0.8289851 0.73721737
0.85557455 -2.5909722 -0.7290568 -0.68688077 0.23497833 -0.43482992 1.4496518 -0.6298133
-1.2932205 -2.0954459 1.0608048 -0.23382291 0.052003395 -0.44854575 -1.3875688 0.11407086
-0.97852284 1.0893533 0.9914527 1.9400903 0.39664385 0.24176094 1.278198 0.4979977
-0.5280452 -3.2005599 1.17119 -0.60282296 0.5226875 1.2457925 1.2902743 0.19306424
-2.9297717 0.48223826 -2.1425858 -1.1138798 -0.30965257 0.5716115 -0.9525459 2.6164799
2.2794378 0.27677974 0.65831065 1.4829735 -1.540742 -0.6881509 -1.2854868 1.6707339
1.7880851 0.6366635 -0.26246402 0.5290105 0.7352462 2.1540186 -1.4483529 -2.667605
-2.7819316 -1.2484343 -1.2377548 -1.8076532 4.210965 2.602392 1.163497 -0.25298607
1.7042602 0.5496836 -0.74152386 -0.62950146 -0.57789487 -0.8808964 -1.6742572 -0.6004303
-0.7158842 0.16625959 -0.10026207 -1.5397615 -0.90953034 0.92687696 0.8277376 0.1899273
00000000: 7cdb 6dbf e468 8d3e bbf3 09bf 97d7 ec3e
00000010: 2034 5fbf 5327 debc a1dc b4be aa5f bb3f
00000020: 12b2 a03f 5807 37bf 759a 5a3f 6453 033f
00000030: d02b 0a3f f0c4 103f 917b 013f e4ca 633e
00000040: b97b 2fbf 6745 103f 1deb c0bf 4e2a cebf
00000050: 6651 bdbf 0e53 dd3e a906 00be e938 483f
00000060: 6ba4 ccbf 867f dfbd 5017 373f 7350 203d
00000070: 6d26 a73f cf82 7c3e b321 fdbf b99a 923c
00000080: f98c b0bf 9c34 203f d36f 25c0 b79a c4bc
00000090: 4240 fabd 183b 3fbf a1ca da3f 5940 6d3d
000000a0: 984c 713f d2c1 ee3f 6c24 dd3e 3312 d83f
000000b0: 8547 43be 2e01 403f 961e e5bd 062a 2a3f
000000c0: fe65 053e 59bc 8cbf 402e 72bf 46bd 2abe
000000d0: bff6 01bf e69f ca3e c6ba bf3d 8b08 23be
000000e0: c8c5 643f 2780 693f ce8f fe3e a30c 993f
000000f0: 7d47 64bd 77f2 c03f 961d 8b3f 8837 f23d
00000100: 34bd 3e3d e908 0a3f 754e c93e 19e5 1ebf
00000110: afd7 073f 9f16 673f 2ac8 eabf 890a 77bf
00000120: 1173 0dbf 0543 27c0 1f77 50bf e535 4ebf
00000130: 860b 1ebe 0c4a dabd 9c8d 003f ee29 86bf
00000140: 6d33 8c3f ed02 a53d 7808 a03f 4152 05c0
00000150: 366f fdbe 15eb a53f ac5e 343f 4181 a4be
00000160: 0e66 fe3e 0090 e93f b45e 12c0 37a4 b1bf
00000170: 612f 1040 7821 623e d4f9 0bbf 61c7 3c3f
00000180: 50b1 d93f f83e a8be 945a 523f cfe1 8bbf
00000190: 0ba4 d6bd dd0f a7be 1d9d b53e 1408 ba3d
000001a0: 24a9 ba3e e3c4 cc3f 31c3 093f ca7c 733e
000001b0: 0c6b a73e 36f9 a5be 5eab 73bf 21af 5abf
000001c0: d25a a6bf a484 f83e cd30 be3e 8999 d3bf
000001d0: cde7 9cbe b375 43bf da47 9c3d 79ff 6e3f
000001e0: 8ad3 a73f 1e64 aa3f a813 463e 606c f83e
000001f0: 0c81 c3bf 256f 2cbf ed79 56bf dac8 f33f
00000200: 5aee 18bf 02e8 653e b931 e73f 560a b93f
00000210: ce7e 74be 3633 883f 10dc 8d3f b80f db3e
00000220: 7e27 fcbe 5bb6 4fbf 380a 98bf 0a11 ab3f
00000230: 73d1 18bf 7bb3 753f 2e86 39bf 3dca 8ebe
00000240: aeca 803e bb4f 7bbe 7065 bcbe a1d3 0f3f
00000250: 49f7 b93f 150c 2cbf d52c 6abe 4295 1f3e
00000260: 35ec 64bf 2f0f 14c0 7225 2cbf d935 393f
00000270: e46b bf3f 27c8 3abe b23d b4bf 2203 683f
00000280: 60c9 a73f 42ef fc3e 75a3 98bf ab79 cebf
00000290: a538 acbe 045d 09be 60c1 90bb 6933 96bf
000002a0: 4fed fe3f 55eb 99bf aa3e 763f aa80 fc3f
000002b0: 0e52 0f3f f919 3fbf 5e38 54bf 47ba 3c3f
000002c0: ef06 5b3f 7dd2 25c0 77a3 3abf 6bd7 2fbf
000002d0: 299e 703e 07a2 debe 318e b93f 723b 21bf
000002e0: 4088 a5bf c91b 06c0 74c8 873f 466f 6fbe
000002f0: 8301 553d caa7 e5be db9b b1bf fc9d e93d
00000300: 7980 7abf ee6f 8b3f d8cf 7d3f e154 f83f
00000310: e714 cb3e 2e90 773e fe9b a33f 8ef9 fe3e
00000320: f82d 07bf f9d5 4cc0 8ee9 953f 9b52 1abf
00000330: d9ce 053f 2176 9f3f b527 a53f a2b2 453e
00000340: 6181 3bc0 efe7 f63e 2020 09c0 9d93 8ebf
00000350: c88a 9ebe 2255 123f 0cda 73bf 6874 2740
00000360: 4fe2 1140 13b6 8d3e 0c87 283f 13d2 bd3f
00000370: 0937 c5bf a82a 30bf d58a a4bf 9cda d53f
00000380: f9df e43f 61fc 223f af61 86be 3b6d 073f
00000390: 1839 3c3f 71db 0940 a163 b9bf 0aba 2ac0
000003a0: 2b0b 32c0 b2cc 9fbf c06e 9ebf 2e61 e7bf
000003b0: 3ac0 8640 978d 2640 78ed 943f 6487 81be
000003c0: 3325 da3f 10b8 0c3f 82d4 3dbf 0227 21bf
000003d0: ebf0 13bf 6d82 61bf 0f4e d6bf cdb5 19bf
000003e0: 3044 37bf f43f 2a3e 3356 cdbd e816 c5bf
000003f0: fbd6 68bf cf47 6d3f 9de6 533f 4d7c 423e

future_emb.embedding.1.weight f4 [7, 40]
-0.8633961 -0.21797945 1.4244249 0.47255522 0.34025565 -1.17709 -0.042172715 0.6894482
-0.6925567 0.5442568 -1.2973758 -2.0614855 1.4562609 0.79888487 -0.18218215 1.9056722
-0.9090256 -1.2793916 -0.75131726 -0.528024 0.5100068 1.2242855 -1.1233068 -1.7946922
-0.7620353 -0.79096204 -1.424561 0.1710294 0.5234945 2.841476 0.099558555 -0.24289529
-1.7529652 -0.28560427 2.1020443 -0.76698714 -0.41168314 -0.40779018 -0.4739997 -0.23582497
-1.2724429 -1.9700129 -0.88611877 1.1835485 -0.112669565 0.51895845 -0.36699468 -0.48076892
-0.6252833 0.35482657 -1.8358178 -1.1010832 -0.3470426 -0.7351454 1.5496906 -0.95457083
1.6255187 -1.5499672 0.6729187 0.8975442 0.5340325 0.9306137 0.84141046 -0.77413476
-0.930454 0.99974513 -0.10883313 -0.26393726 -0.7302507 -0.25389963 0.47180632 1.2413787
-1.8441584 1.7034005 -1.3847191 1.1825737 1.6171223 2.5168426 0.30483258 -1.5184385
-0.8127506 0.5390369 -0.3733593 -0.06547663 -0.38656032 0.5429265 0.13482963 1.1726127
-0.4292427 -1.1584039 -0.48705116 -1.2355058 1.2861946 1.829069 0.11189236 0.8128667
1.1754891 -0.7929173 -0.20700237 1.6057258 -0.9011827 0.02140162 0.53448206 -0.11492876
-0.6069486 1.0913945 -2.2543466 0.19220664 -0.48698243 -0.58197016 -1.2299244 1.3696964
-1.0451447 -0.41099384 -0.1410944 -0.11989093 0.57757235 0.24711637 1.0785265 0.6885291
-1.3546733 -1.3332788 0.16737391 0.40919802 0.7507601 1.77433 -0.8785138 1.4391907
-0.6614677 1.230137 -0.74713707 -1.4125469 -1.4818751 0.13804725 1.2500013 0.47278598
-0.18144454 -0.6502621 -1.7213246 2.0380385 0.037965376 0.8797361 -1.7261277 -0.6883205
-0.033101317 0.63419354 -1.0584189 0.7397557 -1.6048851 1.9117513 -0.31628793 -0.46248117
-0.8350307 -1.7774727 -0.8574998 -2.4028018 0.106614664 0.47204128 0.14324903 0.9729569
0.9054766 -0.73840547 0.86917007 -0.923684 -0.13602932 1.3968409 0.25071117 0.4701035
0.30924708 -1.271453 1.4297454 2.1292136 -1.8234155 -0.16148615 0.0813655 1.2859391
0.27992144 0.33853483 1.0230981 -0.9086476 -1.7006128 0.8647164 1.3987759 1.0186875
-1.4888773 -0.97403294 -0.15342575 -0.08604602 0.88395715 -1.2930161 -2.843272 -0.0055938824
-0.65134066 0.34864154 1.3261218 0.5973672 0.45060167 0.58797115 0.60078096 0.22951138
0.4665025 -0.6251463 0.26813194 0.44942892 0.566533 -1.482022 -1.7333567 0.8295149
-1.1812465 -1.0869732 0.61795753 0.88738906 -0.74885267 0.25522533 -1.254017 -0.20763499
-1.0761981 0.8917865 -0.09825808 -1.9587761 -0.47835386 -1.297379 0.57259107 -1.454322
-0.11979913 1.103501 0.033916183 -2.6029494 1.6288836 -0.89096063 1.0005656 2.7004685
2.2143226 -0.27411377 -1.2660396 0.30391484 -0.6997572 0.8059428 -2.8604934 -0.1665035
0.43511397 0.7292507 -0.4149115 0.7243303 0.037452415 -0.11675241 1.6463366 -2.8211157
-0.38047698 -0.43031397 -0.26184872 0.9899324 0.58130324 -0.26196155 -0.13355269 -0.5148491
00000000: 8707 5dbf 0136 5fbe 8e53 b63f c2f2 f13e
00000010: fd35 ae3e e3aa 96bf 4cbd 2cbd ad7f 303f
00000020: 654b 31bf 6a54 0b3f 6910 a6bf 61ef 03c0
00000030: c266 ba3f b883 4c3f f58d 3abe 11ed f33f
00000040: e7b5 68bf 1bc3 a3bf 5456 40bf 952c 07bf
00000050: ce8f 023f 63b5 9c3f 84c8 8fbf 79b8 e5bf
00000060: bf14 43bf 7d7c 4abf 0458 b6bf 5522 2f3e
00000070: bc03 063f beda 3540 5be5 cb3d 8bb9 78be
00000080: 2a61 e0bf b93a 92be e587 0640 4559 44bf
00000090: 22c8 d2be e0c9 d0be 17b0 f2be 1a7c 71be
000000a0: 69df a2bf 6229 fcbf aed8 62bf 847e 973f
000000b0: 4dbf e6bd 76da 043f bae6 bbbe 5827 f6be
000000c0: 9112 20bf d4ab b53e 14fc eabf 4bf0 8cbf
000000d0: 91af b1be 7d32 3cbf 435c c63f c15e 74bf
000000e0: ff10 d03f 5365 c6bf 6644 2c3f 75c5 653f
000000f0: 5bb6 083f b33c 6e3f ad66 573f b22d 46bf
00000100: 3c32 6ebf 4cef 7f3f e7e3 debd c922 87be
00000110: b6f1 3abf 22ff 81be 9990 f13e 7fe5 9e3f
00000120: 620d ecbf 0709 da3f 7a3e b1bf 935e 973f
00000130: ddfd ce3f f313 2140 0413 9c3e 315c c2bf
00000140: 6c10 50bf 53fe 093f f328 bfbe 9d18 86bd
00000150: 3ceb c5be 3bfd 0a3f c710 0a3e 2c18 963f
00000160: b3c5 dbbe 9446 94bf c55e f9be 0e25 9ebf
00000170: 06a2 a43f ef1e ea3f d227 e53d 0818 503f
00000180: 6d76 963f a1fc 4abf 6ef8 53be 6c88 cd3f
00000190: e9b3 66bf 7352 af3c d1d3 083f c55f ebbd
000001a0: fc60 1bbf d1b2 8b3f 3747 10c0 d1d1 443e
000001b0: c355 f9be fffb 14bf 2a6e 9dbf 3652 af3f
000001c0: 4dc7 85bf c96d d2be 0d7b 10be 6089 f5bd
000001d0: c8db 133f 130c 7d3e 280d 8a3f 7143 303f
000001e0: ef65 adbf e1a8 aabf 1164 2b3e 6782 d13e
000001f0: d031 403f 3f1d e33f 48e6 60bf 6737 b83f
00000200: f255 29bf 2175 9d3f 6044 3fbf 56ce b4bf
00000210: 15ae bdbf 425c 0d3e 0b00 a03f 0111 f23e
00000220: 99cc 39be 9477 26bf 5d54 dcbf 396f 0240
00000230: 9581 1b3d 6336 613f c1f1 dcbf c635 30bf
00000240: 3f95 07bd 825a 223f 457a 87bf a160 3d3f
00000250: e06c cdbf 44b4 f43f 7ef0 a1be 55ca ecbe
00000260: 92c4 55bf 3a84 e3bf 1b85 5bbf 81c7 19c0
00000270: ca58 da3d 65af f13e e0af 123e b413 793f
00000280: 51cd 673f 2408 3dbf ee81 5e3f 8e76 6cbf
00000290: 454b 0bbe afcb b23f 375d 803e 68b1 f03e
000002a0: a255 9e3e f9be a2bf e601 b73f 0945 0840
000002b0: ae65 e9bf a05c 25be f5a2 a63d a799 a43f
000002c0: dd51 8f3e 7054 ad3e e1f4 823f 219d 68bf
000002d0: aead d9bf 0e5e 5d3f 170b b33f 5a64 823f
000002e0: 8893 bebf 395a 79bf a41b 1dbe e538 b0bd
000002f0: 044b 623f 8d81 a5bf 2bf8 35c0 e34c b7bb
00000300: 43be 26bf 2581 b23e 5cbe a93f 0fed 183f
00000310: 43b5 e63e 4785 163f c8cc 193f 0805 6b3e
00000320: 6ad9 ee3e 9709 20bf 9748 893e 8c1b e63e
00000330: 4f08 113f e6b2 bdbf a2de ddbf 175b 543f
00000340: 1633 97bf f021 8bbf 7732 1e3f ee2b 633f
00000350: cfb4 3fbf e5ac 823e a183 a0bf 449e 54be
00000360: dcc0 89bf 1f4c 643f 883b c9bd 2db9 fabf
00000370: ccea f4be 8410 a6bf 5495 123f 3927 babf
00000380: 3f59 f5bd 853f 8d3f b2eb 0a3d b996 26c0
00000390: 427f d03f ff15 64bf 8912 803f 7ad4 2c40
000003a0: 76b7 0d40 a458 8cbe 960d a2bf ba9a 9b3e
000003b0: 4a23 33bf 4452 4e3f 5312 37c0 e57f 2abe
000003c0: 42c7 de3e 2db0 3a3f 486f d4be b66d 393f
000003d0: b467 193d e31b efbd 28bb d23f 298d 34c0
000003e0: e1cd c2be 1d52 dcbe 0911 86be 366c 7d3f
000003f0: 4ad0 143f d31f 86be 09c2 08be 27cd 03bf

future_emb.embedding.2.weight f4 [24, 40]
0.32169232 -0.7615704 -0.23729245 2.3760767 0.34298718 0.7243841 -0.20373273 -1.0877172
-1.595864 0.56997496 -0.2985624 1.787046 0.67443585 -1.344121 -0.9561237 0.31200054
-0.71924305 0.4455206 -0.14022596 0.1957085 1.2517405 -1.123722 0.14386274 -0.29272863
1.036682 -0.752806 -1.5620099 1.4406692 -0.38314223 -1.1738745 -1.6178937 0.12756519
0.9211232 0.56175464 1.4722155 1.2541147 -0.5753847 0.99338967 -0.805846 0.98933285
2.3423135 1.0746524 -0.8951901 0.65634483 -0.74948716 1.4048232 -1.1490875 -1.016467
-1.0320675 -2.0376372 2.117044 -0.8910086 2.2578015 -1.078415 -1.2796158 -2.5784514
-0.08624381 -0.14855991 -0.42388573 -0.2980593 3.2722535 -2.1903129 -1.8297232 -0.45795116
0.75883514 -0.62838036 1.3836752 1.2345487 1.1396292 -1.160509 -1.2966266 -0.45759803
0.01748903 1.5631014 -1.9283817 -0.8202978 0.11250185 -0.7017145 0.44348586 0.03439366
1.9335616 0.5886409 0.8117827 0.08643838 0.5723637 -0.07834973 1.0376809 -0.7138225
-1.0373851 -0.9091234 1.3837992 0.55827475 1.8167497 -0.68969077 0.15900618 0.74669933
0.54231304 0.29965758 -0.02954958 -0.8878384 1.3274411 -0.9162331 -0.60642797 -0.02864858
0.14940183 0.32285807 -0.30463406 0.9481752 -1.4624531 -0.41388133 -2.0180202 0.6462663
2.0161452 2.149055 0.9869294 0.051136628 0.259911 -0.46381527 -0.02460199 -0.91208106
1.7799783 1.9696077 -1.4035708 1.5060967 -0.6438384 1.3397069 -0.06866784 -1.5653397
-0.08825217 -2.4293513 0.724452 0.020373914 3.8628297 -0.68715256 -0.490545 -1.7790586
1.7082039 1.6322417 -0.67988324 -0.53497046 3.1771302 0.11678459 -1.2215312 -0.7895818
-1.7362391 -1.916217 0.44487482 0.3671622 -1.048213 0.026025822 -0.94628936 -0.5455897
1.2279375 0.13853171 -1.0076749 0.7771636 1.1811202 -0.7753815 0.86850965 -2.475555
0.5590677 0.45116588 0.2126701 0.01873548 -1.8808506 -1.0898973 -2.5606272 -1.5207556
-0.655493 0.3424295 1.542047 1.2126714 1.5863299 -0.6545582 1.0319288 -2.4344425
-1.3952426 1.1709268 -0.25312307 0.14710806 0.6581834 0.8329245 -2.1662793 -1.7840035
1.7921845 0.6550512 -1.373077 2.3495326 -0.3382987 1.1724753 -0.9247478 -0.46042943
1.6521026 1.0306661 -0.76478875 -1.2039306 -0.9940484 -0.81102633 -0.5930228 0.24935387
0.6058381 1.6162629 -0.8040175 1.7629818 0.14785482 -0.38168383 -0.56931466 -0.16846837
-0.26629966 -1.0226904 1.0538415 0.45726857 -0.37471604 1.8855368 -1.254068 0.059079032
1.9208081 2.3371024 -0.8250488 -0.30697152 2.5172107 -0.57070684 -2.6474776 -1.7375807
0.01956595 -1.7700789 0.40892482 0.7561705 -1.3255016 -0.66945285 0.063910544 -2.5396013
-0.19285904 0.58900976 -0.5784488 0.05044632 -1.656815 -1.3552129 0.38993207 -1.5798502
1.9785057 -1.0232375 -0.13339022 0.8370597 0.02994609 -1.0292058 -0.026722094 -0.08540424
-0.83094573 -0.6673953 0.43592054 -0.533936 -0.93792146 0.7282225 0.5435708 -1.0702713
00000000: dbb4 a43e 47f6 42bf cbfc 72be a411 1840
00000010: 049c af3e 3d71 393f 509f 50be 513a 8bbf
00000020: 4645 ccbf e1e9 113f 2cdd 98be ecbd e43f
00000030: d4a7 2c3f 280c acbf 86c4 74bf 89be 9f3e
00000040: 5020 38bf 471b e43e 6597 0fbe cf67 483e
00000050: 0839 a03f 1fd6 8fbf c150 133e 87e0 95be
00000060: ffb1 843f e5b7 40bf f1ef c7bf d967 b83f
00000070: 382b c4be 8541 96bf 2417 cfbf 73a0 023e
00000080: bbce 6b3f 27cf 0f3f 8f71 bc3f d586 a03f
00000090: 694c 13bf c94e 7e3f ec4b 4ebf eb44 7d3f
000000a0: 77e8 1540 368e 893f 2e2b 65bf 3706 283f
000000b0: 64de 3fbf 3fd1 b33f 4d15 93bf 971b 82bf
000000c0: ca1a 84bf a668 02c0 a67d 0740 2419 64bf
000000d0: d27f 1040 8109 8abf 73ca a3bf 5905 25c0
000000e0: 98a0 b0bd 1720 18be 8d07 d9be 3b9b 98be
000000f0: 9a6c 5140 162e 0cc0 5f34 eabf 9378 eabe
00000100: 0543 423f 89dd 20bf 451c b13f b105 9e3f
00000110: 5fdf 913f 8f8b 94bf dcf7 a5bf 4a4a eabe
00000120: 2745 8f3c b513 c83f 36d5 f6bf 09ff 51bf
00000130: 5f67 e63d 90a3 33bf 9410 e33e 5ee0 0c3d
00000140: f27e f73f 2cb1 163f fed0 4f3f 9b06 b13d
00000150: 6d86 123f d375 a0bd bad2 843f 12bd 36bf
00000160: 09c9 84bf 50bc 68bf 5520 b13f 18eb 0e3f
00000170: 418b e83f 938f 30bf 84d2 223e b027 3f3f
00000180: 07d5 0a3f b86c 993e f611 f2bc 6149 63bf
00000190: 97e9 a93f 418e 6abf dd3e 1bbf 6db0 eabc
000001a0: cbfc 183e a74d a53e fff8 9bbe 9cbb 723f
000001b0: aa31 bbbf 41e8 d3be 3e27 01c0 b571 253f
000001c0: 8608 0140 1e8a 0940 68a7 7c3f a474 513d
000001d0: 0e13 853e 3279 edbe 1d8a c9bc 257e 69bf
000001e0: 54d6 e33f 1b1c fc3f 35a8 b3bf c7c7 c03f
000001f0: 98d2 24bf 847b ab3f b9a1 8cbd 0d5d c8bf
00000200: 8ebd b4bd 7e7a 1bc0 b075 393f 32e7 a63c
00000210: 9a38 7740 3be9 2fbf b728 fbbe 31b8 e3bf
00000220: 6da6 da3f 4ced d03f d40c 2ebf d3f3 08bf
00000230: 1a56 4b40 c22c ef3d 225b 9cbf 0822 4abf
00000240: 153d debf 9946 f5bf a2c6 e33e affc bb3e
00000250: d82b 86bf 1b34 d53c 0540 72bf c4ab 0bbf
00000260: 0e2d 9d3f 42db 0d3e 7efb 80bf 32f4 463f
00000270: f22e 973f 677f 46bf a656 5e3f 7e6f 1ec0
00000280: 101f 0f3f 37ff e63e 31c6 593e 267b 993c
00000290: b6bf f0bf c181 8bbf 51e1 23c0 1fa8 c2bf
000002a0: 64ce 27bf eb52 af3e cc61 c53f d138 9b3f
000002b0: dc0c cb3f 2091 27bf 3e16 843f e8cd 1bc0
000002c0: 4f97 b2bf eee0 953f 5999 81be 7fa3 163e
000002d0: b57e 283f 8a3a 553f 52a4 0ac0 3a5a e4bf
000002e0: 4d66 e53f 6fb1 273f fdc0 afbf be5e 1640
000002f0: 7d35 adbe ac13 963f 46bc 6cbf 68bd ebbe
00000300: 1978 d33f deec 833f 32c9 43bf 661a 9abf
00000310: f579 7ebf 6c9f 4fbf 58d0 17bf 9f56 7f3e
00000320: 3518 1b3f b4e1 ce3f 17d4 4dbf 63a9 e13f
00000330: 4167 173e 106c c3be 9bbe 11bf f982 2cbe
00000340: 6e58 88be 85e7 82bf 47e4 863f 1b1f ea3e
00000350: c8da bfbe 4559 f13f 4d85 a0bf dbfc 713d
00000360: 0add f53f 1693 1540 6636 53bf 5f2b 9dbe
00000370: fb19 2140 d819 12bf 4670 29c0 0b69 debf
00000380: c548 a03c f291 e2bf 985e d13e 6494 413f
00000390: 09aa a9bf 4361 2bbf 88e3 823d d488 22c0
000003a0: d77c 45be 58c9 163f 3815 14bf cda0 4e3d
000003b0: 8412 d4bf 9e77 adbf 2da5 c73e 8838 cabf
000003c0: ad3f fd3f 72f9 82bf 7297 08be 8b49 563f
000003d0: 8151 f53c 04bd 83bf 4be8 dabc 6be8 aebd
000003e0: dcb8 54bf 6bda 2abf fa30 df3e 08b0 08bf
000003f0: 9f1b 70bf ca6c 3a3f 7527 0b3f a6fe 88bf

future_emb.embedding.3.weight f4 [2, 40]
-0.8474348 -0.68907386 0.94157124 0.26825705 -0.06464611 -0.36964738 0.4102019 0.003064851
0.5193707 -1.2443265 -0.4919008 -0.32901818 0.1260627 0.6149403 1.4962587 0.7355844
0.9629408 0.1498045 0.91136503 0.80551845 -2.3130474 1.6323912 -1.836241 -0.13753013
-0.5554627 -0.105624564 -1.1675535 0.6654387 1.4845715 0.70607436 -0.7622774 1.0356647
0.9669036 -0.39340472 -0.27708334 0.20289578 -0.037405606 0.42546195 -0.34323403 0.37318087
-1.9620857 1.3338823 1.1891613 -0.49994385 -0.5428793 1.1510875 -0.77679735 -0.66553164
-0.20009531 1.056554 0.23173772 -0.8710954 -0.02181249 0.41305813 1.3329462 -0.42702705
0.2741309 -1.3396149 1.2267932 -0.44304192 -2.4600635 0.23196249 0.85522693 0.1426056
-1.9990021 0.665557 1.6611687 -1.1320364 -0.43837225 -0.48004204 -1.5732623 -0.7124748
-1.4671049 -0.9471074 0.7929851 -0.9076641 1.5181247 0.01825795 -2.2697175 -1.5172894
00000000: 7df1 58bf 2567 30bf d00a 713f fd58 893e
00000010: 2e65 84bd 6c42 bdbe fc05 d23e abdb 483b
00000020: 7af5 043f 1746 9fbf 6cda fbbe 1275 a8be
00000030: 9516 013e ba6c 1d3f 6885 bf3f 424f 3c3f
00000040: 4a83 763f 5a66 193e 384f 693f 7536 4e3f
00000050: f808 14c0 32f2 d03f f209 ebbf b3d4 0cbe
00000060: ce32 0ebf b151 d8bd 6572 95bf 315a 2a3f
00000070: 7006 be3f 4ac1 343f 9d24 43bf a990 843f
00000080: ff86 773f 586c c9be dedd 8dbe e9c3 4f3e
00000090: 9f36 19bd 26d6 d93e 5fbc afbe 9011 bf3e
000000a0: a025 fbbf a8bc aa3f 7036 983f a4f8 ffbe
000000b0: 23fa 0abf d656 933f 31dc 46bf 4860 2abf
000000c0: c9e5 4cbe 293d 873f a74c 6d3e 1c00 5fbf
000000d0: 1bb0 b2bc 5b7c d33e fb9d aa3f 4aa3 dabe
000000e0: e35a 8c3e 8078 abbf 8f07 9d3f 64d6 e2be
000000f0: ae71 1dc0 9387 6d3e 27f0 5a3f 3407 123e
00000100: 4ddf ffbf f261 2a3f 2da1 d43f 92e6 90bf
00000110: 5472 e0be 12c8 f5be a960 c9bf c064 36bf
00000120: 18ca bbbf a175 72bf 1201 4b3f ad5c 68bf
00000130: e951 c23f b291 953c 0d43 11c0 8a36 c2bf

category_emb.embedding.0.weight f4 [32, 40]
0.84838104 -0.09390979 -0.13151048 -0.035332635 0.004686278 0.15220018 -1.4525552 1.2706263
1.0898314 -0.48068136 -0.6300471 1.1917531 -1.0328684 0.38320526 -2.7745428 -0.2016361
-0.5534239 0.3374937 0.9784513 1.1227375 0.5851325 1.3817518 -0.81578493 1.2409128
1.7995572 1.6228372 0.2419513 0.7359425 1.3792391 -0.19271123 -0.5931531 0.38337463
0.3240465 0.5894997 0.78883797 -0.9375291 -0.14468862 -0.974236 0.62296176 -0.34589967
-0.279124 -1.2181907 0.8142493 0.13684481 0.5842541 1.2434297 0.94124323 -0.98495954
-1.149552 0.32875633 -0.364099 -0.006240038 0.48575807 2.1807656 -0.7587508 -1.2859688
-0.16746554 0.8905136 -1.4290404 -0.9501249 1.407084 -1.4045719 0.31244746 -2.9690976
0.98254627 1.1022325 -0.27429375 -2.3046732 1.4146987 0.8414668 1.0053505 0.20573045
-3.0005865 -0.91411996 2.2313373 1.0020384 1.2712929 -1.8935755 1.5998544 0.81918895
3.733785 -0.77367145 -1.7634088 1.1916484 0.63172096 4.2712526 -0.47220328 0.9873389
-1.914575 -1.4005462 0.29880595 0.84133357 0.20385924 -1.2293553 0.034664486 3.158618
-0.7422729 0.32534388 1.0090342 3.1950078 -0.21332186 0.3821163 -0.04963866 2.7069492
-0.2992664 0.4104809 0.51411474 0.08807363 1.1220357 1.2229311 1.2770426 -0.01570985
-1.4936899 0.8750881 0.85799366 -0.6407951 0.5302965 -0.8230023 0.06653251 -1.1204365
-0.2751504 -0.1931679 -1.5391794 0.52247685 -0.63616776 -1.5122745 0.32224324 -2.1166286
-0.5637592 -1.206144 -0.025123822 0.21074253 0.34728712 -0.19206017 1.0986384 -1.1039078
0.30692562 1.5399313 -0.08517926 0.15407225 1.5730911 -1.4056408 -0.7755945 1.3755705
-0.6533972 0.23892874 0.366132 1.395989 -1.153872 -0.41016296 -0.8661059 1.4483281
3.1589072 1.4453018 0.36183918 -0.71848536 -1.3495696 0.37150893 -1.0860673 0.68531716
-1.4512775 -1.8728591 -1.2466849 -0.6113016 -0.3488792 -0.87994677 2.121853 -1.0562309
-1.274888 0.79028684 -2.0333133 0.50087845 0.1858947 0.5414429 -0.31812388 0.20601615
-2.0725207 -0.8701432 1.2530919 -0.78766817 1.5499138 -0.2809877 0.2947159 1.0641114
-0.51763225 -0.6476631 2.0550194 -0.6224987 0.30059496 -1.2538785 -0.6928467 -1.4404199
-0.02100094 -0.3300805 1.8112161 -1.3618093 -0.8649549 1.2512498 -0.32340425 -0.41501865
0.41265887 0.93426305 -1.8474996 -1.4426566 -3.922317 0.9613402 1.0054368 -1.9956158
-3.8010666 -3.150074 -2.683576 2.9475744 -1.2277572 -0.11866327 -0.9666583 1.7548784
-1.0903068 -1.9224066 1.8098137 1.9612876 1.5033413 -1.7989645 0.8285583 2.576503
-4.1730404 -1.7755202 1.670388 -0.5354729 1.5546795 2.3173985 0.77877355 -3.1333184
0.7823941 -0.37333983 -0.050251484 -2.8842435 1.679779 -2.559809 -0.18514778 -2.7437036
-0.21367031 1.3745943 0.059522573 2.2232144 -0.7584108 1.0548584 -1.6362749 -1.3488804
-1.7340679 -1.9579968 0.19850087 -0.057626884 1.4855802 0.75155324 1.105363 0.4426619
00000000: 802f 593f c753 c0bd afaa 06be f4b8 10bd
00000010: 598f 993b 5dda 1b3e 54ed b9bf e2a3 a23f
00000020: 987f 8b3f de1b f6be c44a 21bf 5e8b 983f
00000030: 0835 84bf 7b33 c43e 1c92 31c0 b279 4ebe
00000040: 30ad 0dbf f9cb ac3e c97b 7a3f ddb5 8f3f
00000050: 3ecb 153f 3edd b03f 48d7 50bf 3bd6 9e3f
00000060: e457 e63f 21b9 cf3f 15c2 773e ba66 3c3f
00000070: e88a b03f 1856 45be e2d8 17bf ae49 c43e
00000080: 6ce9 a53e 74e9 163f 49f1 493f e801 70bf
00000090: 4129 14be 8867 79bf 6c7a 1f3f c319 b1be
000000a0: 57e9 8ebe aced 9bbf a472 503f 0c21 0c3e
000000b0: ad91 153f b428 9f3f 51f5 703f 4f26 7cbf
000000c0: 8524 93bf c052 a83e 2f6b babe 3c79 ccbb
000000d0: 48b5 f83e aa91 0b40 7e3d 42bf a09a a4bf
000000e0: 167c 2bbe b3f8 633f ccea b6bf 633b 73bf
000000f0: 541b b43f 03c9 b3bf 1df9 9f3e b205 3ec0
00000100: 2788 7b3f f415 8d3f 3b70 8cbe c47f 13c0
00000110: d914 b53f 5e6a 573f 53af 803f 01ab 523e
00000120: 9c09 40c0 c403 6abf 3bce 0e40 cb42 803f
00000130: bab9 a23f af60 f2bf 07c8 cc3f 5eb6 513f
00000140: 55f6 6e40 550f 46bf 61b7 e1bf ef87 983f
00000150: 77b8 213f 1aae 8840 a1c4 f1be 3ec2 7c3f
00000160: cb10 f5bf 1945 b3bf 18fd 983e a361 573f
00000170: 7ac0 503e 845b 9dbf 59fc 0d3d cc26 4a40
00000180: 9905 3ebf 7993 a63e 0828 813f 027b 4c40
00000190: 0c71 5abe bfa4 c33e e851 4bbd a83e 2d40
000001a0: 7239 99be 8d2a d23e 069d 033f f35f b43d
000001b0: de9e 8f3f 0289 9c3f 2276 a33f f1b1 80bc
000001c0: 3b31 bfbf c605 603f 79a5 5b3f 260b 24bf
000001d0: 83c1 073f 47b0 52bf 3242 883d 776a 8fbf
000001e0: 83e0 8cbe cecd 45be d503 c5bf 0bc1 053f
000001f0: e4db 22bf 3692 c1bf 11fd a43e d876 07c0
00000200: 8652 10bf ed62 9abf 79d0 cdbc e4cc 573e
00000210: 9ecf b13e 6cab 44be 2fa0 8c3f da4c 8dbf
00000220: 5b25 9d3e 781c c53f 7772 aebd 1ec5 1d3e
00000230: 0d5b c93f 0aec b3bf 5c8d 46bf b212 b03f
00000240: 0a45 27bf bca9 743e a775 bb3e c4af b23f
00000250: 14b2 93bf e100 d2be 1eb9 5dbf d162 b93f
00000260: 892b 4a40 a6ff b83f fc42 b93e a8ee 37bf
00000270: b2be acbf 6b36 be3e 4104 8bbf f270 2f3f
00000280: 76c3 b9bf d9b9 efbf 5f93 9fbf 437e 1cbf
00000290: 4ba0 b2be 3144 61bf 71cc 0740 9332 87bf
000002a0: 882f a3bf 3d50 4a3f ce21 02c0 9239 003f
000002b0: 2e5b 3e3e 009c 0a3f 22e1 a2be e6f5 523e
000002c0: 2ea4 04c0 b4c1 5ebf 5165 a03f 9fa4 49bf
000002d0: 9363 c63f 9fdd 8fbe 01e5 963e cd34 883f
000002e0: 8c83 04bf 40cd 25bf 7085 0340 135c 1fbf
000002f0: 95e7 993e 177f a0bf 675e 31bf ae5f b8bf
00000300: 2a0a acbc 5000 a9be eed5 e73f c44f aebf
00000310: af6d 5dbf f428 a03f 3e95 a5be 537d d4be
00000320: 0648 d33e dd2b 6f3f de7a ecbf f9a8 b8bf
00000330: 3e07 7bc0 641a 763f 27b2 803f 5770 ffbf
00000340: ad44 73c0 d09a 49c0 b6bf 2bc0 0fa5 3c40
00000350: 2627 9dbf ba05 f3bd eb76 77bf db9f e03f
00000360: 2c8f 8bbf 6b11 f6bf faa7 e73f 790b fb3f
00000370: 7d6d c03f 7844 e6bf 661c 543f 6de5 2440
00000380: 8c89 85c0 3f44 e3bf 46cf d53f c114 09bf
00000390: bdff c63f 4250 1440 b45d 473f 4a88 48c0
000003a0: fb4a 483f 6626 bfbe 80d4 4dbd 7297 38c0
000003b0: 0003 d73f e9d3 23c0 6197 3dbe d798 2fc0
000003c0: 64cc 5abe b5f2 af3f f1cd 733d 2549 0e40
000003d0: 3627 42bf 9a05 873f 7571 d1bf 1da8 acbf
000003e0: f0f5 ddbf a49f fabf d043 4b3e 2b0a 6cbd
000003f0: 7e27 be3f cb65 403f 897c 8d3f 95a4 e23e

category_emb.embedding.1.weight f4 [7, 40]
-0.87485135 -0.97449666 0.113606565 1.5186018 0.661199 -0.9353312 1.5497669 -1.9848506
0.0073994594 0.9472647 -1.2935433 -0.39811194 1.736543 0.23439679 -1.0009812 0.4222209
0.3992242 -0.82875174 0.8092538 0.21247615 1.0824083 -0.26415464 -0.27561274 0.07849368
-0.3083055 -0.45952636 -1.5100932 1.4708505 -0.51372844 -1.4063307 -1.8783131 1.038361
-1.5777564 -0.105314896 -0.5219277 0.9224836 -0.9513726 0.7336358 1.0273441 1.622553
0.54867923 -0.8612443 0.74723583 0.23844752 -0.049424686 -1.0991344 -0.51676816 0.16424997
-0.20989357 -0.6650268 -2.4763246 1.2455477 0.77951515 -0.9910114 -1.0067313 2.7801943
-0.712336 -2.822481 2.136898 -0.07775722 2.8887622 -1.5110519 2.1475258 2.351675
0.18765292 -2.2761707 1.3053293 0.95752597 -0.12909424 0.77484757 0.88847464 -1.3502073
1.2802919 0.87678367 0.66045254 0.061880555 -0.062902816 -1.3014966 0.5594901 -2.8306608
2.4513278 1.4161686 1.4575392 -2.198391 1.3574581 0.57974446 0.3885192 1.0384891
2.3350735 -0.8112808 -3.4258065 0.12903303 -0.045321688 -0.20816305 -1.289098 1.1562158
-1.6123474 -2.226939 1.4550184 2.0425918 -0.1083105 2.318208 3.0169773 1.8989419
-1.7674466 -0.29179776 3.5109885 -2.407689 -0.44040856 2.263995 -0.8293279 -0.50589454
0.32862082 1.2260067 -4.5332966 1.8184742 0.020571042 0.1929666 0.37778512 0.39142853
-4.262053 -1.9909306 1.2287388 0.6374181 -1.5323567 1.1125562 1.3160647 -1.3603553
-0.6673811 1.7576226 1.1167557 1.2941881 0.35694557 0.24925475 0.71181107 0.9029986
0.648364 1.4697272 0.50169057 -0.2098802 0.7251754 0.8100728 -3.7100906 -0.33233082
-1.5260938 -0.03901945 -1.2171592 1.251194 -1.363289 -1.2837647 -1.6399639 1.9015485
-0.10621143 -0.8393672 1.8116637 -0.8361617 -1.2362812 1.6054174 -1.0666162 1.7586849
0.4516625 2.5419 0.03262253 -0.99169564 1.3257388 1.9779497 -2.2332892 -0.1605305
1.6513076 -1.7344089 0.39713752 0.7782666 -2.0954485 0.053690743 -0.055178773 -1.2233922
-0.009574467 -1.1579919 -0.12431938 0.57273656 -0.7076154 3.376934 -0.2697793 0.04216078
-0.96494305 -0.18720275 1.4044353 -2.001652 1.1222955 0.028035577 0.9252237 0.23601946
0.8110147 1.0408953 -0.5891099 0.07600917 0.35760838 2.4603667 0.9468169 -1.2175874
1.3172755 2.609621 0.5865853 0.4086849 -0.19432844 0.31188005 -1.0785306 -0.38110483
-2.242833 -0.17737852 0.48958528 1.1240606 0.3282927 -0.040910665 0.53114754 1.0564753
0.8532491 -1.2584146 0.22928229 1.1761417 -0.1921905 -2.5638018 0.9081611 1.7231717
0.27201757 -1.0353869 -0.009087379 0.1117445 1.7413555 -0.953828 2.0346277 -0.89283705
0.4642938 1.1870831 0.5518028 0.649319 -0.37744993 -0.99952525 1.1388396 -1.3513323
-1.0687099 0.26123035 0.54992753 -0.7908308 -1.7681018 0.7944959 -0.10346681 1.4034199
-0.981327 -0.1903485 -1.1274066 0.058023978 -0.066918015 0.07794704 1.3300053 0.04573177
00000000: 42f6 5fbf 9d78 79bf 8faa e83d 8b61 c23f
00000010: 5644 293f de71 6fbf c35e c63f 960f febf
00000020: 2a77 f23b f07f 723f d492 a5bf 54d5 cbbe
00000030: 0b47 de3f b605 703e 2720 80bf 562d d83e
00000040: 1d67 cc3e 1329 54bf 422b 4f3f 5993 593e
00000050: 5b8c 8a3f 473f 87be 1d1d 8dbe 4bc1 a03d
00000060: 38da 9dbe 0a47 ebbe bc4a c1bf d444 bc3f
00000070: b583 03bf a502 b4bf 906c f0bf 03e9 843f
00000080: ecf3 c9bf 56af d7bd 0e9d 05bf e327 6c3f
00000090: 288d 73bf 8ecf 3b3f 0380 833f d1af cf3f
000000a0: 3e76 0c3f 827a 5cbf d94a 3f3f 962b 743e
000000b0: 8a71 4abd 70b0 8cbf eb4a 04bf 2531 283e
000000c0: 57ee 56be 323f 2abf 1a7c 1ec0 1b6e 9f3f
000000d0: 4e8e 473f ecb2 7dbf 92dc 80bf b4ee 3140
000000e0: a75b 36bf 87a3 34c0 f0c2 0840 2d3f 9fbd
000000f0: 7be1 3840 266a c1bf 1071 0940 d881 1640
00000100: 1628 403e c8ac 11c0 0815 a73f 6c20 753f
00000110: 4831 04be 695c 463f 1373 633f 98d3 acbf
00000120: 9be0 a33f e574 603f 6b13 293f 7776 7d3d
00000130: 31d3 80bd 7197 a6bf be3a 0f3f 8c29 35c0
00000140: 8ee2 1c40 0345 b53f a590 ba3f 70b2 0cc0
00000150: 30c1 ad3f 226a 143f fdeb c63e 36ed 843f
00000160: d871 1540 19b0 4fbf 6a40 5bc0 3c21 043e
00000170: 3ca3 39bd b228 55be 2a01 a5bf e1fe 933f
00000180: 6661 cebf 2b86 0ec0 0b3e ba3f d3b9 0240
00000190: e5d1 ddbd 855d 1440 2816 4140 8710 f33f
000001a0: b13b e2bf 8466 95be 09b4 6040 9417 1ac0
000001b0: 3b7d e1be 4be5 1040 d54e 54bf 4e82 01bf
000001c0: fd40 a83e caed 9c3f c410 91c0 c3c3 e83f
000001d0: 9a84 a83c 0999 453e 0d6d c13e 5269 c83e
000001e0: bd62 88c0 d0d6 febf 5047 9d3f d52d 233f
000001f0: 4424 c4bf 3e68 8e3f cf74 a83f 1f20 aebf
00000200: 7dd9 2abf c7f9 e03f daf1 8e3f f5a7 a53f
00000210: 92c1 b63e a33c 7f3e 4039 363f eb2a 673f
00000220: 2ffb 253f 0520 bc3f cb6e 003f d6ea 56be
00000230: 18a5 393f ee60 4f3f 2072 6dc0 4427 aabe
00000240: 0b57 c3bf dcd2 1fbd dfcb 9bbf 2027 a03f
00000250: 4180 aebf 6752 a4bf 56ea d1bf f165 f33f
00000260: 6185 d9bd c5e0 56bf 99e4 e73f b10e 56bf
00000270: 763e 9ebf 517e cd3f e186 88bf 961c e13f
00000280: 4f40 e73e 7dae 2240 349f 053d c4df 7dbf
00000290: cfb1 a93f 752d fd3f 36ee 0ec0 1b62 24be
000002a0: 0c5e d33f 1c01 debf 9c55 cb3e 7b3c 473f
000002b0: d41b 06c0 d3ea 5b3d 2303 62bd 1e98 9cbf
000002c0: 3ade 1cbc 1439 94bf 299b febd dd9e 123f
000002d0: 4826 35bf b01f 5840 8320 8abe c8b0 2c3d
000002e0: 8206 77bf 14b2 3fbe 89c4 b33f 111b 00c0
000002f0: 61a7 8f3f deaa e53c 76db 6c3f 16af 713e
00000300: a99e 4f3f 0f3c 853f e8cf 16bf b2aa 9b3d
00000310: 7218 b73e a676 1d40 9862 723f e7d9 9bbf
00000320: 7c9c a83f 0804 2740 742a 163f 263f d13e
00000330: 09fe 46be beae 9f3e 4a0d 8abf 2c20 c3be
00000340: 938a 0fc0 b7a2 35be ecaa fa3e 38e1 8f3f
00000350: fb15 a83e f191 27bd 49f9 073f 953a 873f
00000360: 886e 5a3f bb13 a1bf fac8 6a3e d08b 963f
00000370: 96cd 44be 5415 24c0 3f7d 683f e490 dc3f
00000380: e345 8b3e 8f87 84bf 3be3 14bc 4dda e43d
00000390: bde4 de3f 122e 74bf 5737 0240 f890 64bf
000003a0: ebb7 ed3e 57f2 973f f342 0d3f c539 263f
000003b0: 1e41 c1be e3e0 7fbf 7fc5 913f 75f8 acbf
000003c0: 7ccb 88bf fcbf 853e 0dc8 0c3f e373 4abf
000003d0: 2951 e2bf 1564 4b3f 68e6 d3bd 43a3 b33f
000003e0: 3f38 7bbf b8ea 42be dc4e 90bf 8daa 6d3d
000003f0: 500c 89bd b3a2 9f3d 9d3d aa3f 3d51 3b3d

category_emb.embedding.2.weight f4 [24, 40]
-0.006905157 -0.05333198 -1.948 -1.0079432 -0.48190027 -1.4788429 2.5062768 0.73811597
0.12181733 -0.64058846 1.1056217 -0.89813423 -0.53709847 -0.42815503 -0.8962645 -2.9397233
1.6165935 -0.1686429 0.6755554 2.2179945 -0.23883711 -0.28143165 -0.9049552 1.0359966
1.1375446 -0.67193484 -1.4881823 0.5864004 0.7424913 -0.646566 0.13708605 -1.1464843
-1.3517241 0.55654836 -1.1215708 -1.3556244 -0.4502048 1.9997141 -1.5821743 -0.53799826
0.22722436 1.3544308 0.37809783 2.0200312 1.6885763 0.68996483 1.2838752 0.13608398
0.37604988 -0.33385065 -2.31967 0.06903229 0.24888225 -0.6226494 1.9677807 0.9930193
0.42256522 -0.78053665 0.050142374 -1.8996316 1.0403012 -1.2480885 -1.3455405 0.54844123
-1.3924813 -0.4355017 0.1689044 -1.9112476 0.30772957 -0.14107749 -1.1696649 -1.6975651
0.8869311 0.41154715 2.1644838 -1.0952592 0.081554644 -1.4717654 1.8673496 -0.21116948
1.7131199 0.443993 -0.5623015 0.6551769 0.1032028 1.3757294 -1.0482304 -1.3313683
0.011116877 0.58641165 1.0635985 1.0980895 0.9933516 -1.1794764 0.2972271 -1.7998812
1.8807074 0.6097372 0.6466898 0.59093165 -0.42010587 2.5708683 -1.6975071 -0.20605263
-1.4560162 -0.33759257 1.9790727 -2.028232 0.3081629 -0.95829797 1.5888036 -0.95926917
-2.4588933 2.316382 -2.6635127 -1.2526195 -1.0906943 -0.99125147 1.5325096 -1.2761048
0.22559537 -2.020651 -1.5979776 0.32142702 0.37353006 0.9042021 0.79761016 0.29849067
-0.32609934 -0.35674384 1.5030924 0.26665702 -0.13351338 -0.8088104 1.5288206 0.675542
0.004539076 1.5795727 -1.0687832 -0.79145324 -2.4701838 0.094456084 -1.5919023 0.8028112
1.6865212 -0.44046742 -0.15369119 -0.118492156 -0.05895575 -1.653055 1.9015234 -0.5849536
0.86592895 1.4697514 1.6264011 -0.31067476 -0.0504038 -1.1301231 0.50272286 -2.8380096
-1.3169262 -0.76238024 -0.68266535 0.2410238 -1.2418932 -2.229561 2.3706198 -0.8791553
0.17976695 1.324211 0.59070307 -0.27347425 1.4884453 -1.0232165 0.8527926 0.8531763
1.0705372 0.86635274 -1.2901034 -0.39022595 0.9520671 0.7579872 0.3191929 -0.43007618
1.5665989 0.13585481 0.62997675 0.7620562 -0.88680136 1.3234583 -3.0767388 -0.67317337
-0.42389485 -1.320889 2.128157 0.30702984 0.3597908 1.4585228 -0.12611452 1.6026282
0.79618573 1.7820815 -0.26359093 -0.9216074 -0.105214596 -0.8152682 1.1665802 -1.8457069
0.21785334 1.060476 -1.6031202 0.6452344 0.5878437 -1.12587 -0.19393128 2.132893
0.08818638 -0.7576228 -0.021478202 -0.03711597 1.6824895 -1.6612213 0.5306372 -1.3722726
-2.3154883 0.42567524 0.16280214 -0.30624646 -0.25051817 -0.80098534 0.33346885 0.4531717
0.0023164784 1.3373969 0.15830497 -1.5438545 2.1457794 0.524758 0.74209845 -1.456891
-1.5194664 -2.7014272 0.44981748 -0.541454 -2.8183146 0.08830072 0.6744704 0.071689926
0.90008295 0.9005387 1.5782117 -0.33578566 0.30587673 0.03493245 0.008893619 0.15014946
00000000: a844 e2bb a272 5abd 1058 f9bf 4804 81bf
00000010: a2bb f6be b94a bdbf d766 2040 2bf5 3c3f
00000020: 5d7b f93d 9bfd 23bf 0385 8d3f 20ec 65bf
00000030: 497f 09bf 2337 dbbe 9771 65bf 6d24 3cc0
00000040: 89ec ce3f b9b0 2cbe 33f1 2c3f 9ff3 0d40
00000050: b791 74be cf17 90be 25ab 67bf 899b 843f
00000060: 109b 913f ec03 2cbf c27c bebf 561e 163f
00000070: e913 3e3f 5985 25bf 4960 0c3e ffbf 92bf
00000080: 4c05 adbf f479 0e3f a28f 8fbf 1a85 adbf
00000090: 3e81 e6be a2f6 ff3f b084 cabf 41ba 09bf
000000a0: 81ad 683e fd5d ad3f 0a96 c13e 3148 0140
000000b0: 4523 d83f 89a1 303f 0656 a43f 9959 0b3e
000000c0: 9c89 c03e 79ee aabe 7975 14c0 cd60 8d3d
000000d0: fdda 7e3e f365 1fbf 3de0 fb3f 8336 7e3f
000000e0: 785a d83e 40d1 47bf 1762 4d3d 2127 f3bf
000000f0: 9728 853f 5dc1 9fbf ac3a acbf a566 0c3f
00000100: d43c b2bf 14fa debe 46f5 2c3e c3a3 f4bf
00000110: bb8e 9d3e 9e76 10be 94b7 95bf d049 d9bf
00000120: eb0d 633f 4fb6 d23e e786 0a40 7431 8cbf
00000130: 1f06 a73d cf62 bcbf 5005 ef3f d03c 58be
00000140: 8347 db3f 0d53 e33e fef2 0fbf acb9 273f
00000150: fd5b d33d e717 b03f 6a2c 86bf 476a aabf
00000160: 9023 363c 131f 163f ff23 883f 328e 8c3f
00000170: 4a4c 7e3f 15f9 96bf 272e 983e 8262 e6bf
00000180: 05bb f03f bd17 1c3f 768d 253f 4c47 173f
00000190: 1e18 d7be 1b89 2440 ea47 d9bf 76ff 52be
000001a0: bd5e babf efd8 acbe 4152 fd3f 8ece 01c0
000001b0: 87c7 9d3e 0453 75bf eb5d cb3f aa92 75bf
000001c0: 825e 1dc0 9a3f 1440 fe76 2ac0 d655 a0bf
000001d0: df9b 8bbf a8c2 7dbf 4629 c43f 6757 a3bf
000001e0: 7902 673e 5952 01c0 888a ccbf 1592 a43e
000001f0: 553f bf3e ca79 673f 2e30 4c3f c5d3 983e
00000200: 7ef6 a6be 21a7 b6be 5565 c03f 4587 883e
00000210: bbb7 08be 330e 4fbf 65b0 c33f 52f0 2c3f
00000220: 87bc 943b 702f ca3f e3cd 88bf ae9c 4abf
00000230: 7e17 1ec0 3172 c13d 74c3 cbbf 0985 4d3f
00000240: eddf d73f f284 e1be 3961 1dbe 04ac f2bd
00000250: 967b 71bd 4e97 d3bf 1e65 f33f 85bf 15bf
00000260: 85ad 5d3f d020 bc3f e92d d03f c310 9fbe
00000270: 3774 4ebd e0a7 90bf 72b2 003f f3a1 35c0
00000280: 0a91 a8bf 5a2b 43bf 28c3 2ebf f1ce 763e
00000290: 5bf6 9ebf 21b1 0ec0 3cb8 1740 5210 61bf
000002a0: d414 383e bf7f a93f 5138 173f d104 8cbe
000002b0: 6085 be3f c2f8 82bf 9e50 5a3f c369 5a3f
000002c0: 5d07 893f 4bc9 5d3f 1c22 a5bf b2cb c7be
000002d0: abba 733f 730b 423f 406d a33e f232 dcbe
000002e0: 5086 c83f 861d 0b3e 2846 213f 1d16 433f
000002f0: 6a05 63bf 1567 a93f 4ae9 44c0 1755 2cbf
00000300: bf08 d9be e412 a9bf b933 0840 0433 9d3e
00000310: 8036 b83e e0b0 ba3f 2a24 01be ec22 cd3f
00000320: d4d2 4b3f 3f1b e43f 64f5 86be 76ee 6bbf
00000330: c07a d7bd 6bb5 50bf 8052 953f 2040 ecbf
00000340: f214 5f3e adbd 873f 0b33 cdbf 152e 253f
00000350: ed7c 163f 821c 90bf ec95 46be 5281 0840
00000360: 109b b43d 91f3 41bf 0ef3 afbc ea06 18bd
00000370: d15b d73f e6a2 d4bf d7d7 073f a1a6 afbf
00000380: f630 14c0 1bf2 d93e 9bb5 263e 56cc 9cbe
00000390: eb43 80be 600d 4dbf 6ebc aa3e 1f06 e83e
000003a0: 0fd0 173b d22f ab3f b31a 223e 069d c5bf
000003b0: 7354 0940 8a56 063f 2afa 3d3f 677b babf
000003c0: e07d c2bf 2fe4 2cc0 7a4e e63e bb9c 0abf
000003d0: 445f 34c0 02d7 b43d 18aa 2c3f 2bd2 923d
000003e0: d66b 663f b489 663f d702 ca3f 19ec abbe
000003f0: e09b 9c3e 5415 0f3d 8bb6 113c c8c0 193e

category_emb.embedding.3.weight f4 [2, 40]
-1.1989572 -0.10800874 1.9167814 -1.2948657 0.579921 -0.07323779 -1.2755167 -0.35960916
1.5316135 -0.83956635 -1.866892 0.9122705 -0.064998366 1.1114281 1.3510594 -0.20795655
-1.041099 3.1341312 1.0025645 -0.52424943 1.3251891 0.77811563 -2.1097353 0.44050184
0.3237732 0.58070827 1.0922484 -0.32027206 -2.0182042 1.383391 -1.8219866 1.3804255
-0.5477483 -1.6568228 -0.53496385 1.4556966 0.79392886 0.9941389 1.6869762 1.4330027
0.119739845 0.73607016 0.63926095 0.1454353 -0.7586373 0.06427816 0.440678 0.67968357
0.62706953 0.84535253 -1.758084 0.19263852 0.2800113 0.72549087 -0.88025033 0.34942123
-0.7007008 -0.14327423 -0.38459072 0.57550436 -1.5946026 -0.946644 0.6858142 -0.49331722
-0.079866916 1.4740186 1.2052007 -1.1530846 -0.87092197 0.4957184 0.5486295 2.0244155
-0.40288886 -0.006451459 1.9628757 0.24727939 1.3228053 0.8959598 0.024609089 -1.6817592
00000000: 6e77 99bf b033 ddbd 1859 f53f 29be a5bf
00000010: b475 143f b2fd 95bd 2244 a3bf b11e b8be
00000020: e90b c43f d2ed 56bf 51f6 eebf 8f8a 693f
00000030: dd1d 85bd 4743 8e3f 84ef ac3f 90f2 54be
00000040: bb42 85bf 9b95 4840 0954 803f 3635 06bf
00000050: cc9f a93f 9632 473f e705 07c0 7589 e13e
00000060: 9ac5 a53e 4ca9 143f ccce 8b3f b3fa a3be
00000070: 422a 01c0 f512 b13f db36 e9bf c8b1 b03f
00000080: 3c39 0cbf c512 d4bf 64f3 08bf 4454 ba3f
00000090: ec3e 4b3f e37f 7e3f d6ee d73f a26c b73f
000000a0: 2a3a f53d 186f 3c3f 9ba6 233f feec 143e
000000b0: 0e36 42bf 45a4 833d 8ca0 e13e beff 2d3f
000000c0: a187 203f 0669 583f e608 e1bf 0843 453e
000000d0: a45d 8f3e c5b9 393f 1658 61bf 57e7 b23e
000000e0: 2161 33bf 7bb6 12be 13e9 c4be 4154 133f
000000f0: f01b ccbf 4357 72bf 8591 2f3f 1394 fcbe
00000100: 4491 a3bd a4ac bc3f 0444 9a3f 4798 93bf
00000110: bef4 5ebf cdce fd3e fc72 0c3f 0690 0140
00000120: 7347 cebe c366 d3bb 833f fb3f cf36 7d3e
00000130: af51 a93f 9f5d 653f 0099 c93c e343 d7bf

continuous_emb.embedding.0.weight f4 [40, 1]
0.15079948 -0.00640319 0.10159833 -0.48865756 -0.96220547 0.14054845 0.45005742 0.22160631
-0.064424165 0.58904994 0.19219126 0.54186016 -0.312525 0.12358897 -0.6960244 0.3159527
-0.35066724 -0.54267037 0.07195413 -0.065415874 0.31733635 0.0551704 -0.08808556 -1.0187149
0.09737429 0.1700064 0.34080195 -0.6546819 -0.76295906 0.86706483 -0.5246805 -0.40638474
0.0014552592 -0.46586815 0.34155557 0.4686779 0.6488773 -0.068050906 0.1113091 0.82469153
00000000: 2e6b 1a3e dad1 d1bb c912 d03d 5331 fabe
00000010: 1953 76bf efeb 0f3e ed6d e63e c4ec 623e
00000020: d1f0 83bd facb 163f c9cd 443e 59b7 0a3f
00000030: 4703 a0be 371c fd3d a82e 32bf 8dc4 a13e
00000040: a88a b3be 72ec 0abf b05c 933d c2f8 85bd
00000050: e979 a23e 5bfa 613d 3466 b4bd 4065 82bf
00000060: 2c6c c73d 2816 2e3e 987d ae3e 3c99 27bf
00000070: 4951 43bf f6f7 5d3f 7651 06bf a911 d0be
00000080: 65be be3a 4586 eebe 5fe0 ae3e 8df6 ef3e
00000090: d31c 263f 465e 8bbd 07f6 e33d fc1e 533f

continuous_emb.embedding.0.bias f4 [40]
-0.40253574 1.4989896 2.105546 -1.3033345 -0.63298744 0.736323 0.7187704 1.5056009
1.8985231 -1.2722048 -2.5547736 -0.19517271 -1.6956573 2.2529964 -0.42933267 -0.24421033
-1.6474423 1.3242885 -1.2153454 -1.0903124 -0.7484929 1.7710961 1.4022448 -0.8044028
-0.72576547 2.4310322 1.7422141 -1.7765656 -0.9573114 1.715079 -0.1959836 2.0581982
0.6982843 -0.3789638 0.938131 2.5713544 2.0828831 -0.0021078011 0.8750047 -0.17015238
00000000: 2a19 cebe e4de bf3f 44c1 0640 aad3 a6bf
00000010: 770b 22bf aa7f 3c3f 5601 383f 88b7 c03f
00000020: ce02 f33f 9bd7 a2bf 6981 23c0 5bdb 47be
00000030: 4c0b d9bf 1831 1040 7ed1 dbbe 4612 7abe
00000040: 64df d2bf 4982 a93f 7090 9bbf 5b8f 8bbf
00000050: 3b9d 3fbf 47b3 e23f c27c b33f 58ed 4dbf
00000060: c4cb 39bf 0896 1b40 df00 df3f 8066 e3bf
00000070: 5c12 75bf b587 db3f edaf 48be 85b9 0340
00000080: c3c2 323f 8b07 c2be 5a29 703f 1291 2440
00000090: f54d 0540 0923 0abb 4f00 603f 6d3c 2ebe

continuous_emb.embedding.1.weight f4 [40, 1]
0.15079948 -0.00640319 0.10159833 -0.48865756 -0.96220547 0.14054845 0.45005742 0.22160631
-0.064424165 0.58904994 0.19219126 0.54186016 -0.312525 0.12358897 -0.6960244 0.3159527
-0.35066724 -0.54267037 0.07195413 -0.065415874 0.31733635 0.0551704 -0.08808556 -1.0187149
0.09737429 0.1700064 0.34080195 -0.6546819 -0.76295906 0.86706483 -0.5246805 -0.40638474
0.0014552592 -0.46586815 0.34155557 0.4686779 0.6488773 -0.068050906 0.1113091 0.82469153
00000000: 2e6b 1a3e dad1 d1bb c912 d03d 5331 fabe
00000010: 1953 76bf efeb 0f3e ed6d e63e c4ec 623e
00000020: d1f0 83bd facb 163f c9cd 443e 59b7 0a3f
00000030: 4703 a0be 371c fd3d a82e 32bf 8dc4 a13e
00000040: a88a b3be 72ec 0abf b05c 933d c2f8 85bd
00000050: e979 a23e 5bfa 613d 3466 b4bd 4065 82bf
00000060: 2c6c c73d 2816 2e3e 987d ae3e 3c99 27bf
00000070: 4951 43bf f6f7 5d3f 7651 06bf a911 d0be
00000080: 65be be3a 4586 eebe 5fe0 ae3e 8df6 ef3e
00000090: d31c 263f 465e 8bbd 07f6 e33d fc1e 533f

continuous_emb.embedding.1.bias f4 [40]
-0.40253574 1.4989896 2.105546 -1.3033345 -0.63298744 0.736323 0.7187704 1.5056009
1.8985231 -1.2722048 -2.5547736 -0.19517271 -1.6956573 2.2529964 -0.42933267 -0.24421033
-1.6474423 1.3242885 -1.2153454 -1.0903124 -0.7484929 1.7710961 1.4022448 -0.8044028
-0.72576547 2.4310322 1.7422141 -1.7765656 -0.9573114 1.715079 -0.1959836 2.0581982
0.6982843 -0.3789638 0.938131 2.5713544 2.0828831 -0.0021078011 0.8750047 -0.17015238
00000000: 2a19 cebe e4de bf3f 44c1 0640 aad3 a6bf
00000010: 770b 22bf aa7f 3c3f 5601 383f 88b7 c03f
00000020: ce02 f33f 9bd7 a2bf 6981 23c0 5bdb 47be
00000030: 4c0b d9bf 1831 1040 7ed1 dbbe 4612 7abe
00000040: 64df d2bf 4982 a93f 7090 9bbf 5b8f 8bbf
00000050: 3b9d 3fbf 47b3 e23f c27c b33f 58ed 4dbf
00000060: c4cb 39bf 0896 1b40 df00 df3f 8066 e3bf
00000070: 5c12 75bf b587 db3f edaf 48be 85b9 0340
00000080: c3c2 323f 8b07 c2be 5a29 703f 1291 2440
00000090: f54d 0540 0923 0abb 4f00 603f 6d3c 2ebe

continuous_emb.embedding.2.weight f4 [40, 1]
0.15079948 -0.00640319 0.10159833 -0.48865756 -0.96220547 0.14054845 0.45005742 0.22160631
-0.064424165 0.58904994 0.19219126 0.54186016 -0.312525 0.12358897 -0.6960244 0.3159527
-0.35066724 -0.54267037 0.07195413 -0.065415874 0.31733635 0.0551704 -0.08808556 -1.0187149
0.09737429 0.1700064 0.34080195 -0.6546819 -0.76295906 0.86706483 -0.5246805 -0.40638474
0.0014552592 -0.46586815 0.34155557 0.4686779 0.6488773 -0.068050906 0.1113091 0.82469153
00000000: 2e6b 1a3e dad1 d1bb c912 d03d 5331 fabe
00000010: 1953 76bf efeb 0f3e ed6d e63e c4ec 623e
00000020: d1f0 83bd facb 163f c9cd 443e 59b7 0a3f
00000030: 4703 a0be 371c fd3d a82e 32bf 8dc4 a13e
00000040: a88a b3be 72ec 0abf b05c 933d c2f8 85bd
00000050: e979 a23e 5bfa 613d 3466 b4bd 4065 82bf
00000060: 2c6c c73d 2816 2e3e 987d ae3e 3c99 27bf
00000070: 4951 43bf f6f7 5d3f 7651 06bf a911 d0be
00000080: 65be be3a 4586 eebe 5fe0 ae3e 8df6 ef3e
00000090: d31c 263f 465e 8bbd 07f6 e33d fc1e 533f
