DeepAR_power/best_deepar.pth (torch, 18103 bytes, 22 tensors)

encoder.lstm.weight_ih_l0 f4 [40, 6]
00000000: fda5 f83d 5f99 113e f61c 47be 9d83 2e3e
00000010: 69d3 69be 9bbf 413d eda6 1dbe 1a2c 3e3e
00000020: b9ba 8e3e ba8f 6dbe f9ba 8c3e f06b 723d
00000030: 323d 6f3e 486b 2f3d 0c24 1c3e 60e1 36bd
00000040: 4aa0 793e c873 3f3d ba2b 17be b814 a53d
00000050: c831 15be 60e6 17bd 6585 03be 9acf 563e
00000060: 969c 7fbe 7948 15be 28e0 b6bd cfb3 42be
00000070: c080 f43c ece9 9fbe 9d38 923e 4689 89be
00000080: eafe 793e b88e 573d 344a d2bd 561a 483e
00000090: 60de 493d f5d0 823e 3099 0d3d 1e3f ccbd
000000a0: 4002 ae3d 0aa0 afbd ea47 083e 3b8e 903e
000000b0: 862f 3b3e 6290 0dbe a2ed 3a3e f0c1 673d
000000c0: 1c72 243e 455e 45be 5346 a0be 6c38 fabd
000000d0: 0e60 78be 31da 843e fc89 ba3d 2621 063e
000000e0: 58d2 cc3d 8042 b4bb 0a6c 7d3e 9813 66be
000000f0: 201c a33c ae04 5dbe 0cb3 c73d aa08 dfbd
00000100: 1c72 c63d dced 86bd 2349 863e 56ed 3fbe
00000110: bb1f 41be b722 41be a7a0 913e 2cd3 d73d
00000120: f3cb 9b3e 8d9e 85be e297 a0be c657 7dbe
00000130: 0cd4 59be b228 033e fce6 e73d a988 863e
00000140: 393a 27be 02c0 5cbe 72cf 2b3e 6de3 02be
00000150: 4a88 443e 20af 99bd 023d 393e 7b98 7bbe
00000160: 0f6a 23be d072 c53d 30ea 883d be1e a5bd
00000170: 7e04 413e 4a22 5c3e d9d2 6abe 2fe0 2cbe
00000180: e940 943e 6e88 dabd d698 e5bd 73a9 9cbe
00000190: c470 39be 0cc8 a13d 78f7 2abd ec0d 6bbe
000001a0: c00f f33b 8e31 5dbe dc5c 89be 6650 32be
000001b0: 52b4 8dbe cf2f 4ebe 65d8 a13e d8a4 743d
000001c0: 2893 c73d 7702 97be b8ac 54be a491 d7bd
000001d0: e88a 4a3d 8377 8ebe 2c86 0bbe f5db 41be
000001e0: 00ba 653a a4fc f0bd 6083 b3bc 9d6d 5bbe
000001f0: 3e44 5ebe 62ea 3cbe 02af ddbd 2f95 7fbe
00000200: 69c1 873e 3c88 80bd 3f4e 8b3e 94ca c93d
00000210: 8e1a 89be ca17 603e 7a31 b2bd 5241 f8bd
00000220: 4465 86be 93f6 a0be 8c4b b93d c678 8dbd
00000230: 9823 fc3d 5bdf 84be 4e69 703e 02b3 6dbe
00000240: 90a8 5fbd 7045 873d d62b 273e e3b5 823e
00000250: fd7d 933e 8461 80be 08fd a23d 3e48 0bbe
00000260: 18f1 0dbd be5f 72be d179 933e 73aa 6dbe
00000270: 8410 2d3e b89a e33d e073 d23d 1012 2fbe
00000280: c52a 933e 6451 8e3d 989f 263d c8ae 8ebe
00000290: 4cef 073e 2851 42bd 3a59 14be 2312 8b3e
000002a0: ac63 903d 1229 33be 81e5 23be 006d 77bc
000002b0: 98ce 343e 147e a5bd 11c3 38be 1ec7 ddbd
000002c0: 6cea 71be acf7 e63d c6a5 7a3e 646d 98be
000002d0: e069 963d 0448 273e c8de 6a3d 7aa3 e6bd
000002e0: 8c03 293e 942b 2a3e 0c2b f23d 409b 63bd
000002f0: 927e abbd b091 0a3d 88d0 64bd eafe c0bd
00000300: 76fc 4e3e e924 8b3e 683a 00bd da00 91bd
00000310: 0035 973b 30ad 9abc d8b2 9b3d 2c7d b53d
00000320: fa0d 93be 6600 efbd 1759 883e 0c4a fc3d
00000330: e0d8 80bc 353b 43be f01c 46be 4a08 91be
00000340: c01a d3bd 78b5 da3d 0e79 4e3e 6c81 153e
00000350: 3f1e 8fbe 45bb 42be 406a 4cbd 499f 9c3e
00000360: d05e 3b3d e8b7 a7bd d6f7 053e 0aac f6bd
00000370: b097 51be 9e59 6c3e 823d 13be 44d4 81bd
00000380: 4011 a1be aab8 583e ce55 753e 7c07 ec3d
00000390: 16ca 61be 48cb 9fbe b07f 83be 7a78 713e
000003a0: 6e77 1b3e 2f3f 883e 5aa3 293e 44e9 a33d
000003b0: 80f2 4abb d443 76be 03b8 8abe e570 97be
0.12141035 0.14218663 -0.19444641 0.17042394 -0.22834553 0.04730187 -0.15395708 0.18571511
0.27876833 -0.23199359 0.274864 0.05918497 0.23363188 0.04282692 0.15248126 -0.044648528
0.24377552 0.046741277 -0.14762774 0.080605924 -0.14569771 -0.037084937 -0.12843855 0.20977631
-0.24962077 -0.14578427 -0.08929473 -0.19013904 0.029846549 -0.31233156 0.28558818 -0.26862544
0.24413648 0.05262634 -0.102680594 0.19541296 0.04928434 0.25550047 0.03456992 -0.09972976
0.08496523 -0.08575447 0.13308683 0.28233513 0.18279848 -0.13824609 0.18254712 0.056581438
0.16059154 -0.19274242 -0.31303653 -0.12217793 -0.24255392 0.25947717 0.0910835 0.13098583
0.100010574 -0.0055010915 0.24748245 -0.22468412 0.019910872 -0.21583816 0.09750947 -0.108903244
0.096897334 -0.06588337 0.26227674 -0.1874288 -0.1885976 -0.18860899 0.2844288 0.10538325
0.30429038 -0.26097527 -0.31365877 -0.24740514 -0.21272296 0.12808493 0.11323354 0.26276138
-0.16330804 -0.2155762 0.16778353 -0.12782069 0.19192615 -0.075041056 0.18089679 -0.24569885
-0.15958427 0.09641039 0.06685293 -0.08062504 0.1884937 0.21497455 -0.22931994 -0.16882394
0.28955773 -0.10670553 -0.11210792 -0.3059803 -0.18109423 0.07899484 -0.04173991 -0.2295453
0.007417649 -0.21600935 -0.2682866 -0.17413482 -0.27676636 -0.20135425 0.31610408 0.05972752
0.09744865 -0.29494068 -0.20769012 -0.105258256 0.049448878 -0.27825555 -0.13625401 -0.18931563
0.0008763373 -0.117669374 -0.02191323 -0.21428533 -0.2170572 -0.18448785 -0.10824396 -0.24959253
0.26514748 -0.06275985 0.27208135 0.09853092 -0.26778072 0.21884075 -0.08700843 -0.12121834
-0.26249135 -0.3143812 0.090476125 -0.06907801 0.123114765 -0.25951657 0.2347767 -0.23212817
-0.054604113 0.06605041 0.16325316 0.25529394 0.2880706 -0.250744 0.07958418 -0.13601777
-0.034653753 -0.23669335 0.28803876 -0.23209552 0.16900831 0.11113495 0.10276008 -0.17096734
0.28743568 0.06949118 0.040679544 -0.27867723 0.13274878 -0.047440678 -0.14487162 0.27162275
0.07050261 -0.17496136 -0.16005518 -0.015101671 0.17656934 -0.08080688 -0.18043162 -0.10828994
-0.23624581 0.112777084 0.244773 -0.29770958 0.07344413 0.16336066 0.057341367 -0.112616494
0.1650526 0.16618186 0.11824617 -0.05556798 -0.08373751 0.033830345 -0.055862933 -0.09423621
0.20213494 0.27176598 -0.0313057 -0.070802405 0.0046144724 -0.01888141 0.07602471 0.08861765
-0.287216 -0.11669998 0.2663047 0.12318811 -0.015728414 -0.19065554 -0.19346976 -0.28326637
-0.103078365 0.10679144 0.20163366 0.14600152 -0.27952763 -0.1901675 -0.049906015 0.30590275
0.045744717 -0.08189374 0.13082823 -0.120445326 -0.2046802 0.23081061 -0.14378932 -0.063393146
-0.31458473 0.21164194 0.23958513 0.11524865 -0.22049746 -0.3120978 -0.25683355 0.23581114
0.15182278 0.26610705 0.1656622 0.08003476 -0.0030967295 -0.24049312 -0.27093515 -0.2957832

encoder.lstm.weight_hh_l0 f4 [40, 10]
00000000: 4c76 183e e0fb 1ebe 9b53 433d c85b 3abe
00000010: 5007 6cbd f3e9 63be 5696 53be 166a 5d3e
00000020: 8079 c0bd 06e8 473e 4ec4 cfbd ae8a 6dbe
00000030: 3089 64bd 35f8 1cbe 6823 c6bd e422 9abe
00000040: 3c2c 353e 6a71 61be 9cc1 223e 72f1 123e
00000050: 7a58 673e 7a62 78be 6ae3 683e ca15 19be
00000060: 3451 f03d ff0c 983e 98ac 36bd 8045 20bb
00000070: f21a 95bd f230 87be 9c66 1b3e c5ba a0be
00000080: 9606 493e c649 723e 351e 993e 84c3 98bd
00000090: e907 85be 9c9b 913d aee2 323e 2926 a1be
000000a0: a000 93bd 301d 42be 0094 e2bc 2063 1fbe
000000b0: b15d 04be e898 cdbd c7dc 99be e5d8 843e
000000c0: a9bb 873e 0830 4bbd 0882 13bd 0128 04be
000000d0: b236 92be 7b8f 9dbe e4b2 f03d 65ca 31be
000000e0: b62c 50be 401f cabc 64ab d7bd f085 d1bd
000000f0: 6079 263c 0e5f 89bd 14fd debd ac0b 1bbe
00000100: 03c4 83be f3c2 873e 6696 01be 209c ab3d
00000110: 04b5 e0bd b082 d23c 8df2 963e a030 153e
00000120: 594f 8cbe 2286 003e cbb0 993e c061 aa3d
00000130: 5618 593e a99f 9f3e 0879 46bd 606b 863d
00000140: 7810 61be 7076 85bd 56d0 6f3e ea00 263e
00000150: 72e8 4cbe 04d5 81be f248 5dbe b4c8 9fbe
00000160: b8de 79be 8828 a0bd 6e89 5a3e 18ce 583d
00000170: 124c 76be 10e3 81be 5017 213e 5ede 70be
00000180: b07b 1fbd 4c56 1b3e d4dd 15be 683c 0dbd
00000190: f07d e1bc 3438 99bd 8d2f 24be e054 90be
000001a0: 45e1 82be 4764 2dbe a160 9c3e 9268 1cbe
000001b0: cc73 59be 9cfb 9c3d a87e b23d 306c 313e
000001c0: de23 763e 5053 343e 5588 a0be 50c0 e53c
000001d0: 3e27 443e 806e efbc 9ad1 3ebe 9b5a 9a3e
000001e0: bc3b f2bd 135d 38be 33f8 91be 006e 673c
000001f0: 807e 0f3e b85c 8f3d cc11 803d 3494 75be
00000200: 5334 97be 8078 b63b 41a2 933e 2cd1 3a3e
00000210: 9989 3cbe 1023 28bd 76b6 6ebe 8e37 1cbe
00000220: 3092 6a3d ba54 303e c11e 863e 37a6 94be
00000230: 5682 583e c062 64be 9484 f23d af03 893e
00000240: 4082 913b 514e 933e 59f4 89be b45e f7bd
00000250: 0ade 3c3e 4619 8dbd 2892 84bd def6 06be
00000260: 8e35 5f3e 58d5 1e3e d488 cf3d 39f9 35be
00000270: e36d 83be d818 0c3d 60e1 bf3d a182 15be
00000280: e434 b5bd 1ab2 5a3e 905c ce3c 00c3 693c
00000290: 1862 9fbd 6e9f 92be 5c3c 98be 1eca 1abe
000002a0: 6d9a 24be d8c5 c93d 8a88 bcbd 725e fdbd
000002b0: 575e 9a3e fc95 e13d 9ed9 663e 99c3 1cbe
000002c0: c344 04be 2808 ee3d 5ac0 57be 3eae 53be
000002d0: 803e 7abc 14e1 ecbd 8ec0 72be 3a13 403e
000002e0: 6d33 823e 701f 523d 0886 61bd b9f8 95be
000002f0: c0e4 ebbd e0e0 a43d 9ab0 183e a0be 23bd
00000300: a605 00be 7c70 343e a8f1 80be 86a8 4c3e
00000310: c040 fbbd c098 9e3b 38f7 7fbd 7809 1d3d
00000320: d0b6 c3bd ca74 6b3e 80b1 06bc 86c5 7c3e
00000330: 07ac 9b3e c6c2 1dbe 463a 6cbe 4de6 813e
00000340: 6abf 7d3e f13f 77be d041 c8bc 8fa9 9fbe
00000350: cb89 84be e82b 7a3d 0c4b ac3d 4849 893d
00000360: 6443 b0bd 8f5f 953e e831 393d 6214 3fbe
00000370: 00a9 92bc bc86 9b3d fccb e23d 08f7 64be
00000380: 08ba f23d aa6e 25be 5289 86be 13df 30be
00000390: 6d25 9c3e a968 8a3e 95fc 903e 9615 3e3e
000003a0: aaa0 743e 185f 2dbd 5b2c 32be 22cc 213e
000003b0: e8cb 27be 7f88 5abe cecf cebd 80e9 873d
000003c0: 34b3 263e 0c8c fbbd 8196 3ebe 08b9 2e3d
000003d0: 5ede 3ebe 2dd3 52be 54ca 283e d095 59bd
000003e0: 1df3 933e 7b80 9d3e 08b6 c13d 6ce3 de3d
000003f0: c423 953d c047 a23b 906a bcbc 406b 8e3b
0.14888877 -0.1552577 0.047687154 -0.18199074 -0.05762416 -0.22257213 -0.20662817 0.216225
-0.09398174 0.19522104 -0.10144864 -0.23197433 -0.055794895 -0.15329058 -0.09674722 -0.30104744
0.17692655 -0.2201592 0.15894169 0.14349917 0.22592345 -0.24256316 0.22743002 -0.14949718
0.11734238 0.29697415 -0.044598192 -0.0024455488 -0.0728053 -0.2640453 0.15175861 -0.31392494
0.19631419 0.23660955 0.2990586 -0.07459167 -0.25982597 0.07109758 0.17469284 -0.31474426
-0.071778536 -0.18956447 -0.027658463 -0.15565157 -0.12926365 -0.1003893 -0.30051252 0.25946727
0.2651036 -0.049606353 -0.03601268 -0.12905885 -0.28557354 -0.3077353 0.11752871 -0.17362364
-0.20329556 -0.024673104 -0.10530737 -0.10230625 0.010160774 -0.06707583 -0.108881146 -0.15141171
-0.25735483 0.26515922 -0.12655029 0.08379388 -0.10972026 0.025697082 0.29481927 0.1456933
-0.27404287 0.12551168 0.30017695 0.083194256 0.2120069 0.311765 -0.04845527 0.06563449
-0.21978939 -0.06516731 0.23419318 0.16211286 -0.20010546 -0.2535783 -0.21609858 -0.31207812
-0.24401367 -0.07820231 0.21341488 0.05293092 -0.24052456 -0.25368547 0.1573155 -0.23522326
-0.038936317 0.15169638 -0.14635402 -0.034481436 -0.027525872 -0.07481423 -0.16033764 -0.28189754
-0.25562492 -0.16932784 0.30542472 -0.15274265 -0.21235579 0.07665178 0.08715564 0.17326427
0.2403712 0.17609906 -0.31354013 0.028045803 0.19155595 -0.029227495 -0.18634644 0.3014725
-0.118278 -0.18004255 -0.28509673 0.014125347 0.140131 0.070001066 0.062533945 -0.23982316
-0.29532108 0.005568564 0.28834727 0.18243855 -0.18411864 -0.041049063 -0.23311791 -0.15255567
0.05726832 0.1721982 0.26195338 -0.29033062 0.21143469 -0.22303295 0.118416935 0.26760623
0.004440576 0.28770688 -0.26944235 -0.1207861 0.18444076 -0.06889586 -0.064731896 -0.1318011
0.21797773 0.15511072 0.1013352 -0.17770852 -0.25669774 0.03420338 0.09369159 -0.14600612
-0.08847979 0.21357003 0.025190622 0.014267683 -0.07782382 -0.2863726 -0.2973355 -0.15116164
-0.16074534 0.09852189 -0.0920573 -0.1237153 0.301501 0.110149354 0.22543952 -0.1530899
-0.12916856 0.116226494 -0.2106947 -0.20671937 -0.01527369 -0.11566368 -0.23706266 0.18757334
0.2542986 0.051299512 -0.055059463 -0.29291323 -0.1151824 0.08050704 0.14911118 -0.039976716
-0.12502155 0.17621034 -0.2518437 0.19986162 -0.122682095 0.0048399866 -0.062491626 0.03833911
-0.09556353 0.2299377 -0.00822103 0.24684724 0.30404684 -0.15406331 -0.23069105 0.25371018
0.2478005 -0.24145485 -0.024445444 -0.3118405 -0.25886378 0.06107703 0.084127516 0.067034304
-0.08606604 0.29174468 0.04521361 -0.18660119 -0.017902851 0.07594058 0.11074063 -0.2235986
0.11851889 -0.16155496 -0.26276642 -0.17272596 0.30497304 0.27032974 0.28317705 0.18562922
0.23889413 -0.042327017 -0.17399733 0.15800527 -0.16386378 -0.21341132 -0.10098229 0.066363335
0.16279298 -0.12282571 -0.186121 0.04265693 -0.18639514 -0.2058837 0.16483432 -0.053121388
0.28896418 0.30762085 0.09458548 0.10883221 0.072822124 0.004952401 -0.023000032 0.0043462813

encoder.lstm.bias_ih_l0 f4 [40]
00000000: 35b5 3fbd 31b0 97be 575d 8d3e f228 4b3e
00000010: f17f 9ebe 72aa 1abe b43a d33d 1010 85bd
00000020: 6027 0dbd 6435 12be 550c 823e 6503 35be
00000030: 5d44 863e c025 a73c 4c30 823d c29e 7c3e
00000040: 706a 55bd f95c 38be 407d 51bd 0951 833e
00000050: ae44 70be 1800 933d 561f 9fbe 30c7 293e
00000060: b047 ef3d 40a3 5b3c eafa 0a3e 0078 ba39
00000070: 682f 333e 912b 80be a836 3ebd 6aa6 0f3e
00000080: 393b a13e 20f3 243e bb78 6bbe fa0b 793e
00000090: de6b 90bd 8247 8abd 0a29 93be d8e4 4bbd
-0.046803672 -0.2962661 0.27610275 0.19839838 -0.30956987 -0.15104082 0.10313931 -0.06497204
-0.03446138 -0.1427818 0.25400034 -0.17677076 0.26224032 0.020403743 0.06356868 0.24669936
-0.05210346 -0.18004216 -0.05114484 0.25647762 -0.23463699 0.07177752 -0.31078595 0.1657989
0.11683595 0.013405621 0.13572279 0.00035566092 0.17498553 -0.2503324 -0.046438843 0.14028326
0.31490496 0.1610837 -0.22995274 0.24320975 -0.07051824 -0.0675192 -0.28742248 -0.04977879

encoder.lstm.bias_hh_l0 f4 [40]
00000000: e614 e63d 589e 343d cf9b 3cbe 8859 c73d
00000010: 0ca9 cfbd 55d2 933e 8287 8cbe 6692 ccbd
00000020: ad55 9cbe d80e ffbd 4c2a cc3d 09db 9b3e
00000030: 2089 593d 7dba 9e3e 106c 7d3d 2004 3b3e
00000040: c7cb 813e db57 873e 893f 35be 6fdb 943e
00000050: 4628 443e ff68 17be d486 1abe dccc 87be
00000060: 28a5 a23d 233c 83be d4c9 083e 8085 cc3d
00000070: a4aa 8cbe 207b b03d a0b0 d2bc eaec 133e
00000080: 8ecd 393e edf5 a0be 797c 943e 8bc8 873e
00000090: 72d7 003e 69fa 93be 3659 e7bd b2b0 bbbd
0.11234455 0.04409632 -0.18418811 0.097338736 -0.10139665 0.28871408 -0.27447134 -0.09988861
-0.30534115 -0.12454003 0.09969005 0.30440548 0.05310929 0.31001654 0.061870635 0.18263292
0.25350782 0.26434216 -0.17700018 0.29073665 0.19155988 -0.14786147 -0.15090495 -0.26523483
0.07941657 -0.25631818 0.13358241 0.099864006 -0.27473938 0.08617234 -0.025718987 0.14445844
0.18144819 -0.31437626 0.29001215 0.2652019 0.12582186 -0.28901985 -0.112963125 -0.09164561

encoder.lstm.weight_ih_l1 f4 [40, 10]
00000000: 834b bcbe a89b 363e cae2 0abd b942 803e
00000010: da8d f2bd 68f4 d93d d86c e63d 544a c5be
00000020: f80d 9dbe 7506 28be 30b1 913e 316e 98be
00000030: 7063 b2be 1067 353e 72b5 2e3e 0727 853e
00000040: 5076 74be 4474 9cbe 2a1d 263e f5cc 8c3e
00000050: 04f6 c43e 18e8 4a3d 1c30 8b3e fbab 993e
00000060: a3ed 50be 5004 13be da7f 623e d276 68bd
00000070: 918e 32be 3a62 6c3e eaaa 153e 383b d13d
00000080: 0875 f5bd c000 8fbb 1f2f 943e 925c 42be
00000090: 80f0 223b 35c1 2f3e 9c8c 5fbe ed3d 9d3e
000000a0: f08c 913b 3685 9bbd 8de4 733d b404 53be
000000b0: 0de0 9ebe ba95 363e 480f ac3d 9abe 1abe
000000c0: de6a 50be 7b06 a03e cbf4 7e3e 10ee 013e
000000d0: 71ce a2be d0f5 0dbe b886 43bd f0e0 6cbd
000000e0: 2ee5 5dbe 0bca d1bd f0bb 003d 2002 24bd
000000f0: ac0f 3abe 5c58 00be 04fa 3cbd c83f f43d
00000100: 3291 2abe 928b a0be 407f 293e dd6d b8bd
00000110: 86b0 24be 1b08 9c3e d113 abbd 86d1 5a3e
00000120: b7a5 763e d9be 87be d6d7 503e dfde 94be
00000130: 4666 33be d9b7 3c3d 9444 5abe 8d2b 9e3e
00000140: 1e78 1bbe ec9d 003e 2881 fcbe 2469 3a3e
00000150: 3646 c9bd 8651 76be e865 3d3d 22b6 37bd
00000160: 811d 8c3e 02c9 45be 1d23 b7be 3808 793d
00000170: 41f6 e8bd 5cff f83d 3abc 313e 80da 92bd
00000180: 2ce7 333e c203 2c3c 122d a9bd d261 663e
00000190: 660e 35be dbcf 8e3e 8274 d0be 63e7 1fbe
000001a0: 9e41 bbbd 9068 833c d25a 423e 6f62 d2be
000001b0: d21e 223e a219 e8bd 70b1 943e c0fb 75bc
000001c0: b811 b7be d92d 32be 065d 6abe e899 203e
000001d0: 9422 59be 8852 e6bd 1cbb 8b3d 6494 31be
000001e0: 121b 893e 6317 9ebe 81da a9bd 8db5 92be
000001f0: 10e5 c3bd 7aee ebbd 5079 393d cc4c 9f3d
00000200: 7e38 183e e36f 943e 307f e93d 9e25 ffbd
00000210: c76b 9ebe 1093 ea3d 1470 20be 6ec8 243e
00000220: 8a77 583e 5c61 c23d abeb 973e bdc7 993e
00000230: ca25 603e f4f1 6bbe fbf1 d73e 60a6 19be
00000240: cbf4 18be 4f7b 873e 9ee5 7a3e 0b38 6d3e
00000250: 8062 a23c 2731 88be a74d cc3d 734a 9b3e
00000260: 2301 17bd f0cb dd3c 607b 86bd 28e2 e1bd
00000270: 9e00 413e 1ab3 cabd caaa 523e c842 65bd
00000280: 4aec 09be 7aa9 053e 2ba4 17be 5e7a 4b3e
00000290: 32eb 4a3e ad13 963e 62f1 783e f7c8 99be
000002a0: 3a13 89be 38cc 6c3d 143e 853d 66eb a8bd
000002b0: 4a1d fa3c 40ae 733c 4a44 6c3e f4e4 c93d
000002c0: a8f8 e5bd bf09 a5bc e45f a0bd 0a50 fabd
000002d0: 05d9 2b3d 1e82 2b3e 867b 56bd 005f 843a
000002e0: e89b 823d a893 e03d 4e41 99be 36a7 95be
000002f0: f047 adbc a88c 35be bab7 febe 6355 8f3e
00000300: 5173 87bc 4214 163e 5380 9a3e 5768 03be
00000310: e8b8 5fbd 20a0 2cbe 4803 56bd 482d 7ebd
00000320: e4af eabe 88fe ad3d 715e cabe 806a 3c3c
00000330: 61db 9d3e 105a c7bd 0821 ccbd 2d98 d5bc
00000340: dc1a eebd 0078 debc afb6 e83e aec1 04be
00000350: ad96 e0bd e838 35be c88d b3bd 9fa6 19be
00000360: ff09 28be c976 573e 781d 5c3d 6c48 cfbd
00000370: 5643 24be 02ea cbbd 63aa 86bb a6c0 d2bd
00000380: bd0f 92be f084 8b3d 89ea 6dbe 1382 eebd
00000390: e348 84be f227 073e 4f96 de3b e5a7 05be
000003a0: deb9 de3e 74ef 2b3e 88ac 393e b9bb 99be
000003b0: 9235 68be 044d a53d 99c0 853e b081 043d
000003c0: a859 09be 80c5 013b 76d3 e3bd 70e5 8dbd
000003d0: 5415 b2bd 7728 8c3e a098 c83d 88ba a13d
000003e0: e0ce 5a3d 22f3 babd 8cf0 5f3c 2417 003e
000003f0: 6f83 85bd d86e fcbd e921 8a3e 78ff 3abd
-0.3677636 0.17832816 -0.03390769 0.25050905 -0.11843462 0.1064232 0.11251229 -0.3853327
-0.3067472 -0.16408713 0.28455496 -0.2977157 -0.3484149 0.17715096 0.17061403 0.26006338
-0.23873258 -0.30557454 0.16222063 0.2750012 0.38468945 0.049537748 0.27185142 0.30014023
-0.20403151 -0.14357114 0.22119084 -0.05675394 -0.17437197 0.23084345 0.1461598 0.10216373
-0.119852126 -0.004364103 0.289422 -0.18980625 0.0024862587 0.17163546 -0.21830982 0.30711308
0.00444185 -0.07593767 0.059544135 -0.20607263 -0.31030312 0.17830554 0.08401352 -0.15111771
-0.20353267 0.31254944 0.24898069 0.1268847 -0.31798127 -0.13863301 -0.0477359 -0.057831705
-0.21669456 -0.10243615 0.03142923 -0.04004109 -0.18170041 -0.12533706 -0.04613687 0.11926228
-0.1665695 -0.31356484 0.16552448 -0.0900533 -0.16082963 0.30474934 -0.08353389 0.2136899
0.24086653 -0.26512793 0.20394835 -0.29076287 -0.17519483 0.04607377 -0.21315223 0.30892602
-0.1518254 0.12560242 -0.49317288 0.1820417 -0.09827845 -0.24054536 0.046239763 -0.04485143
0.2736626 -0.1931496 -0.35768977 0.060798854 -0.11375094 0.12158081 0.17356959 -0.07170582
0.17568654 0.010498943 -0.082605496 0.22498253 -0.17681274 0.27892956 -0.40713888 -0.15615611
-0.09143375 0.01604107 0.18979958 -0.41090724 0.1583207 -0.11333014 0.29041624 -0.015013635
-0.35755706 -0.17400302 -0.22887048 0.1568371 -0.21204597 -0.1124621 0.06822798 -0.17341763
0.26778466 -0.30877218 -0.082936294 -0.28654137 -0.095651746 -0.11520095 0.04528171 0.0777832
0.148653 0.28991613 0.11401212 -0.12458347 -0.30941603 0.11453831 -0.15667754 0.16092083
0.2113935 0.09491226 0.29671988 0.300352 0.21889415 -0.23041517 0.42176804 -0.15004873
-0.14937131 0.26461264 0.24501655 0.2316591 0.01982236 -0.266 0.099757485 0.30330238
-0.03686632 0.027074784 -0.06566501 -0.11029464 0.18847892 -0.09897442 0.20572963 -0.05597189
-0.13469043 0.13052931 -0.14808719 0.19870898 0.19816282 0.29311886 0.2431083 -0.30036137
-0.2677248 0.057811946 0.06505981 -0.08248024 0.030531544 0.014873087 0.23072925 0.098581225
-0.11229068 -0.020146249 -0.0783079 -0.122222975 0.041955013 0.16748855 -0.052363895 0.0010099113
0.06377393 0.10965663 -0.29932636 -0.29229134 -0.021152467 -0.17729437 -0.49749547 0.27994832
-0.01653448 0.14656165 0.3017603 -0.12832771 -0.0546197 -0.16857958 -0.052249223 -0.062054902
-0.4583732 0.084958136 -0.39525178 0.011500001 0.30831435 -0.09733975 -0.09967238 -0.02607354
-0.11626217 -0.02715683 0.45451877 -0.12964508 -0.10966239 -0.1769749 -0.08767277 -0.15004967
-0.16410063 0.21041407 0.05373904 -0.10121235 -0.16041312 -0.09956743 -0.004109667 -0.10290651
-0.28527632 0.06812465 -0.23234 -0.116459034 -0.25836858 0.13198832 0.0067928205 -0.13052328
0.4350118 0.16790563 0.18132222 -0.30026034 -0.22676685 0.0807133 0.26123503 0.032350242
-0.13413107 0.0019801557 -0.11124317 -0.06928527 -0.08695474 0.27374622 0.09794736 0.07896906
0.053419948 -0.09128405 0.013668191 0.12508827 -0.065192096 -0.12325829 0.26978996 -0.04565379

encoder.lstm.weight_hh_l1 f4 [40, 10]
00000000: 6b14 343e d8db 8bbe 2ccf 62be f9e7 fbbe
00000010: 0641 973d 4299 90bd f495 1e3f dd0b 0f3f
00000020: 9e23 253f 891d a8be 6d21 83be 579c f43d
00000030: c719 fabd c275 fbbe d01e 993e f589 99bd
00000040: fef3 cb3d 3ff2 843e 45ce c6b9 df86 92be
00000050: a785 03be 5498 1fbe e0bc 813b d026 d2be
00000060: d19c 6fbd 1b08 3cbe a687 82be 8279 19bf
00000070: 14ab 713e 404b 613e a4f1 ae3d d2a4 3f3e
00000080: b0a6 d0bd e15a 6dbe 2793 b1be 5d84 ac3e
00000090: a3b6 443f 8ae0 da3e 28c8 853e f769 b5bd
000000a0: dd9a a43d 0734 2ebd 836b 0c3e 74cf ae3d
000000b0: 096b b9be 0141 cd3d 3dfe 9fbd 0127 49be
000000c0: 7bde 533d 5cf1 28bd e9c9 5ebe 4c43 993d
000000d0: 9b4d 21be 962c 67bd 9f3b 003f 3535 943e
000000e0: 4973 553e 1004 df3d b52b e43e 50fa d23b
000000f0: 3098 a83e 6623 083d fa3c b7be 3f57 08bf
00000100: af39 fbbd 8f97 0abc 0631 c03e 563d 253e
00000110: f4e0 b13e 7dcc 14be 1f6f d4bd bd17 d53e
00000120: 3bf6 063e 4a20 03be 26ba b8be 449d 53be
00000130: a8ba 23be 82de 7cbe 4703 59bd 5b97 9fbd
00000140: 53a1 cf3d e846 cbbd a6e0 a0be 8cd5 a1bd
00000150: f1b6 99be 6899 a83d b355 0c3f 7c48 683e
00000160: e581 3d3f 62d1 28be c4a5 113f d306 4cbe
00000170: 468e e83d 574e 093d 0625 92be 2d1f e43e
00000180: 3a4c 1d3f 29b1 8c3e 583f da3e 9a5b e6be
00000190: a0d1 273e bb59 a9bd 1fe2 9fbe a148 30bf
000001a0: 26cb 38be 8bec 8a3d ddea 5a3f 5a6c 183f
000001b0: 342d 243f 8938 42bf a05a 873e e0f6 00be
000001c0: 4f69 8dbc d22f 13be e41d 573e a0e1 a9bd
000001d0: 0aa4 aa3d 2396 71bd bd8e a03e 0056 173e
000001e0: fbce a7be 42e5 b2bd 6882 e9bc 4a0e 4bbe
000001f0: e70b 093e ec94 0d3d 58e5 cdbe 63f5 9dbe
00000200: 93c8 c2bd 1c3b 4b3e 9109 c13e 1414 dfbe
00000210: d820 91be 9515 d3be 4a0b 8abe b2af 1e3f
00000220: df7f e53e 91ad e23e edac 203f 3e84 34bf
00000230: 5f23 083e 41f8 c93d a400 9fbe ffc7 b2be
00000240: 285e 4a3e 9a2a 8f3d 9404 94bd 2b05 8c3c
00000250: 07b7 0b3e d427 84be e17e 4abe 3edf 503e
00000260: 5c3b 48be f3a1 483d e8dd 6abd 4abc 9f3e
00000270: 7b5a 913e fdd0 1b3e d0e2 543e 8d33 153e
00000280: 5cd7 e03d 3335 17be 002d 32be 7faa 02bf
00000290: 9302 eabe e89f c43e 0563 203f 8b37 40bd
000002a0: 76aa f33e 0222 85be 3d93 933e 2222 bc3e
000002b0: 7ff9 533e 28b8 393c 0a10 4a3e 2cdd 7a3e
000002c0: 4c09 99be 0f26 bbbe 31eb 933b 8eb7 3c3e
000002d0: 493f 583e 8662 92bd 00d6 9cbe a8e3 c2be
000002e0: 8d63 efbe d8fc 0f3f 0f9e 333f 1f06 b63d
000002f0: 9333 0b3f afac e7be 89ac de3e 1943 8b3e
00000300: e296 32bd 3706 bebe dc33 b93d 503d bb3d
00000310: 84eb a73e 4c0c a33e b822 ea3d 6928 b5be
00000320: 8e78 4ebd 61b2 353e 6ace 5dbb 04d5 893b
00000330: 6552 5fbe b719 c93c 3cf5 043f 905e 153f
00000340: db89 f83c be5c 7fbe b0f9 0bbf 761f ff3c
00000350: de81 c13e 7877 1a3f bdd9 69bd c032 a43d
00000360: 200c 62be 848d cfbe 2054 0fbc f512 5c3e
00000370: f874 8c3d c549 7bbe 8b35 a7bd 6254 05bc
00000380: f27d 00be 1824 61be 9c08 12be fa4b bf3d
00000390: 4aca acbe b956 60bd 58a2 35bd ae8f 9dbe
000003a0: 6838 ee3d 8525 9ebc 5b23 023e 17fe 8dbe
000003b0: 7f5a 19bf 851c 2dbe e798 63be f913 a63e
000003c0: d0c9 99bd ae9f 98bc a2fb d3be 1bcc 193c
000003d0: d86d bb3c 2159 b3be 128f 9bbe ed8c 81be
000003e0: 9f48 0b3e 787b aa3e f5aa 05be 52a5 df3e
000003f0: 8761 d9bc 8dd5 59be 2dda 803e 9556 763e
0.17585914 -0.27316165 -0.22149342 -0.4920042 0.07385449 -0.070604816 0.6194756 0.55877477
0.6450747 -0.32835034 -0.2561144 0.11943882 -0.12211948 -0.4911328 0.2990632 -0.07497016
0.09958647 0.2596607 -0.00037919186 -0.28618523 -0.12843953 -0.15585452 0.003959283 -0.41045237
-0.05849916 -0.18362467 -0.25494117 -0.5995103 0.23600417 0.22001362 0.08542183 0.18715218
-0.10188043 -0.23179199 -0.3468258 0.33694735 0.7684118 0.42749435 0.2612927 -0.08858102
0.0803735 -0.042530086 0.13712887 0.08535662 -0.36214474 0.10022164 -0.07812164 -0.19643785
0.051725846 -0.041245803 -0.2175671 0.07483539 -0.1575226 -0.056439005 0.50090975 0.28946844
0.20844759 0.10889447 0.44564596 0.006438531 0.3292861 0.033236884 -0.3578871 -0.53258127
-0.12266862 -0.008458986 0.37537402 0.16136679 0.34741938 -0.14531131 -0.10372757 0.41619673
0.13179867 -0.12805286 -0.3607952 -0.20665461 -0.15989172 -0.24694255 -0.05298164 -0.07792541
0.10138192 -0.09925634 -0.31421393 -0.07902059 -0.30022386 0.08232385 0.54818267 0.226839
0.7402633 -0.16486123 0.56893563 -0.19924478 0.113552615 0.033521976 -0.28543872 0.44555035
0.6144444 0.27478912 0.42626452 -0.4499176 0.1638856 -0.08269068 -0.31227204 -0.6886082
-0.18046245 0.06783398 0.8551462 0.5954033 0.64131474 -0.75867516 0.2643633 -0.12594175
-0.01726213 -0.14373711 0.21007496 -0.08294988 0.08332069 -0.058981072 0.313589 0.147789
-0.327751 -0.08735134 -0.028504565 -0.1982967 0.13383447 0.03456585 -0.40214038 -0.30851278
-0.09510913 0.19846767 0.3770261 -0.43570006 -0.2834537 -0.41227403 -0.26961738 0.6198684
0.4482412 0.44273046 0.62763864 -0.70514286 0.13294743 0.09861804 -0.31055176 -0.3491821
0.1976248 0.069905475 -0.07227436 0.017092308 0.13644038 -0.25811636 -0.19774963 0.2039766
-0.19553894 0.04898257 -0.057340533 0.3119834 0.28389344 0.15216441 0.20789647 0.14570446
0.109785765 -0.14766388 -0.17399979 -0.51041406 -0.4570509 0.3840325 0.6265109 -0.04692797
0.4759099 -0.26002508 0.2882327 0.3674479 0.20700644 0.01133541 0.19732681 0.24498433
-0.29889905 -0.36552474 0.004514121 0.18429396 0.21117891 -0.07147698 -0.3063202 -0.38064313
-0.4675564 0.56245184 0.70163053 0.08887886 0.5437557 -0.45248935 0.4349101 0.2719963
-0.043600924 -0.37114117 0.090430945 0.09142554 0.32796872 0.3184532 0.11432403 -0.35382393
-0.05040794 0.17743827 -0.0033844956 0.0042063016 -0.21808775 0.024548395 0.519367 0.58347416
0.030339172 -0.24937722 -0.5467787 0.031142931 0.37794393 0.60338545 -0.057092417 0.08017492
-0.22074938 -0.40537655 -0.008748084 0.21491607 0.068582475 -0.2453986 -0.081645094 -0.008137794
-0.12548044 -0.21986425 -0.14261097 0.09340663 -0.33748084 -0.054770205 -0.044344276 -0.3077368
0.116318524 -0.019305 0.127088 -0.27732918 -0.5990371 -0.1690541 -0.22226296 0.32437113
-0.07509196 -0.018630829 -0.41402918 0.009387041 0.022879526 -0.35028937 -0.3038259 -0.2530283
0.13601921 0.33297324 -0.13053496 0.43680817 -0.026535762 -0.2127287 0.25166455 0.24056466

encoder.lstm.bias_ih_l1 f4 [40]
00000000: 080b b53e c30d 173e fc69 f33c f7fd 913e
00000010: 81f1 93bd 3231 5b3c a6f0 073e 46f5 cc3b
00000020: c566 7c3e d1a5 0f3e d8e1 fb3e 4558 8e3e
00000030: 1831 abbe 5aac 9cbb f3ce 29be 99a1 a1bd
00000040: ebf0 873e b3e9 47be 1b69 293e 6c7d 473e
00000050: de90 cc3d 5108 513e 13bd e2bb 1625 ec3d
00000060: 8db1 3bbd 1846 643e a04f 9e3e 0a86 9f3c
00000070: 4944 87bd 87ce c8be 302a 4abe a7e7 0a3e
00000080: 256f 773e 3a00 cc3d a37f 1b3e cccb 1f3e
00000090: d90f 833e 5c92 193e d3d2 543d 2c51 fa3d
0.3535998 0.14751343 0.029713623 0.28514072 -0.072237976 0.013378428 0.13275394 0.006254825
0.24648578 0.14028098 0.49195743 0.2780172 -0.33435893 -0.004781288 -0.16582851 -0.078921504
0.26550993 -0.19522743 0.16544001 0.19481438 0.09988569 0.20413329 -0.006919512 0.11530511
-0.045823622 0.22292364 0.30920124 0.019473094 -0.06604821 -0.39220068 -0.19742656 0.13564931
0.24163492 0.09960981 0.15185408 0.15605086 0.25598028 0.14997238 0.05195887 0.122225136

encoder.lstm.bias_hh_l1 f4 [40]
00000000: 3fd4 763e 5d65 7b3e 5dcc ed3d 65ae fbbd
00000010: f0d6 2cbe 60e9 163d b0f9 263e f47e 993c
00000020: 2ab0 3e3e 9118 773e 1b89 913e b1bb 523e
00000030: 517d 6fbe 3f9a 2bbe 934f 79bd e393 a73d
00000040: 34e8 9b3d 95f3 0d3d c6c2 a93e 1641 803e
00000050: 74f0 733d ec58 0fbe 4652 cbbe cfde fdbd
00000060: 6fda 02be 49ba af3e 7769 4c3e 8df4 1bbc
00000070: be59 893e 5f20 113d e35d 8abe bead a33e
00000080: 09a4 4c3e 6bb5 6ebe 90be 353c 25a8 c8bd
00000090: c05a 873e b9bc 723e b926 8c3d 6967 0f3f
0.24104403 0.24550386 0.11611245 -0.122891225 -0.16878867 0.036843657 0.16306186 0.018737294
0.18621889 0.24130465 0.28424916 0.20579411 -0.23387648 -0.16758059 -0.060866904 0.08182504
0.076126486 0.034656126 0.33156413 0.25049657 0.059555486 -0.13998765 -0.39711207 -0.12396013
-0.12778638 0.34321812 0.19962107 -0.009518755 0.2682628 0.035431262 -0.27024755 0.31968492
0.1998445 -0.23311393 0.011092797 -0.09797696 0.26436424 0.23704804 0.06843323 0.56017166

decoder.lstm.weight_ih_l0 f4 [40, 6]
00000000: 1158 a7be 1b6b e83d b0af a8be 3f83 abbd
00000010: d233 f3bc 485e 673e ee5f eabd 3068 ba3d
00000020: 10a5 483d 7687 3e3e f002 9a3c d480 f23d
00000030: 719d 43be 2f06 61be ed45 903e 76f4 6bbe
00000040: 9881 5cbd 8092 1cbd c553 9e3e 6cf6 8bbd
00000050: 0286 76be b42c a4bd 2208 273e 5a53 003e
00000060: 1bf2 853e ec94 84bd 5c88 183e cc5c 98be
00000070: 7498 fa3d 42c8 143e eae3 503e c3b0 39be
00000080: 86e7 acbd 9cae 9c3d fa1b 66be 94cb 80be
00000090: 55c3 9bbe 709c 903c 2a16 493e f059 a63d
000000a0: 90ee 9d3c 10a7 e13d f47c 4bbe 108e 083d
000000b0: 3ee3 a0bd 0756 20be 29a0 8b3e a685 7abe
000000c0: cf79 ae3d 79a0 74be 4461 e43c 9941 d0bd
000000d0: 92fa 243e efd5 35be 7e41 4f3e 2c62 83be
000000e0: 067f 423e ae3e 73be 8a6e 2d3e 3b59 08be
000000f0: 001e 41ba 2064 6cbd ca2a 523e 683f d43d
00000100: b1ac 8ebe e02c ee3c aa63 5fbe c212 723e
00000110: f8cf 543d 248f a6bd 9f33 25be 402a e03d
00000120: e6ee 41be 0493 193e f6b2 303e 96c2 463e
00000130: c82f a93d d1ba 8dbe 62ed 683e 52e9 c8bd
00000140: c676 bfbd 9029 0bbd 0ac1 6c3e defd 783e
00000150: 5001 483d 9082 1a3e f9e5 96be 00d2 433a
00000160: e73c 8fbe 106c dc3d 12b4 66be e8d1 e6bd
00000170: be5b 623e 43bc 9a3e dd69 42be dbb8 33be
00000180: f869 203d a896 fe3d a8f6 52bd fe3f cabd
00000190: 82b2 54be ce3a 0a3e c3a1 9e3e cfc0 1cbe
000001a0: 9cbb 183e 8e26 1e3e 4324 823e a878 13bd
000001b0: 6031 233c 7ee8 6d3e 7ab0 4c3e 15eb 9f3e
000001c0: b897 b9bd 5221 003e 261d 623e f3cf 5bbe
000001d0: 88a8 803d f4e8 90bd 5628 503e 646f 11be
000001e0: 50b2 b53c 4abe 413e c553 94be a2b5 88be
000001f0: a1da 25be b2b3 4f3e e220 593e 5028 5dbe
00000200: c8fd 763d a695 2bbe f74c 16be 01a2 8b3e
00000210: 1c68 1c3e f21d b1bd 60aa 3e3d a0f7 7a3d
00000220: dcb3 973d e6ab ddbd f8b0 3ebe 3e63 563e
00000230: 700c 2e3d 9a88 073e 4647 f5bd e2d8 1c3e
00000240: bea9 6b3e e2ef 443e cc16 b03d 934c 9f3e
00000250: 004c 35ba 24e1 893d 8fd5 993e c75b 9d3e
00000260: dfb8 08be 0bd9 913e 1804 ef3d 48fd 10bd
00000270: af5e 8d3e 2dbf 27be 5666 523e 4171 a03e
00000280: 6256 5fbe 0e15 3fbe 9903 babe 37b5 d9bd
00000290: 8878 acbe dc0f 1fbe ce1a 9f3d 1d32 983e
000002a0: aa60 343e a8be 333e 0e57 063e 9cd7 48be
000002b0: fb8d 80be 60c6 563c e3be 993e c0dc 913c
000002c0: d0cf debc 70c9 5bbe 9c8f 20be 729e 79be
000002d0: 97a2 813e a809 53bd 0f08 8fbe 10f3 0a3d
000002e0: a0fd bb3c 5807 20bd 6cd4 e73d 6624 2e3e
000002f0: b042 98be de12 78be 00e6 78bc 911c 96be
00000300: 3f12 93be 69f3 8e3e f008 c5bc 9517 20be
00000310: 4826 debd b8cf 7cbe 22b2 7c3e ac6e 8cbd
00000320: f60f 36be 4f96 75be 9a44 3d3e 000c 33bd
00000330: d013 08bd 8acb a8bd 6150 1cbe 706a 663d
00000340: aa22 793e 95ad 3bbe 403d 783c 6e44 76be
00000350: 43d6 17be 571e 8e3e 804b 593b 3bf8 9b3e
00000360: c0ef 62bd a57e 30be 1d7a 41be 8180 8f3e
00000370: e002 79be fcef 293e 8cfd a03d 241f bf3d
00000380: ecb5 363e 9e6f a9bd c65d 483e 0aff 80be
00000390: 54dd e3bd 2e0c 6d3e 6c34 c03d 887e 2cbd
000003a0: 143e 97bd 3eba 45be 1ae9 443e 40c2 24bc
000003b0: c04b 2fbc 4c29 993d daf5 6e3e c734 25be
-0.32684377 0.11348554 -0.3294654 -0.083746426 -0.029687796 0.22594559 -0.114440784 0.091019034
0.04898554 0.18606362 0.018800229 0.11840978 -0.19103028 -0.21975015 0.2817835 -0.23042473
-0.053834528 -0.03822565 0.30923286 -0.068341106 -0.24074557 -0.08016339 0.16311696 0.12531796
0.26161274 -0.06473717 0.14895767 -0.29758298 0.122361094 0.14529517 0.20399442 -0.18133835
-0.08442597 0.076504916 -0.2247161 -0.25155318 -0.30422464 0.01765272 0.19637361 0.08122623
0.019278795 0.11018193 -0.19871885 0.033338606 -0.07855843 -0.15657817 0.2727063 -0.24465045
0.08519327 -0.2388934 0.027878411 -0.10168762 0.1611121 -0.1775739 0.20239827 -0.25660837
0.18993768 -0.23754379 0.16936699 -0.13315289 -0.0007366836 -0.057712674 0.20524135 0.10363656
-0.27866128 0.029074132 -0.21815363 0.23639968 0.051956147 -0.08132771 -0.16132973 0.109455585
-0.18938789 0.14997488 0.17255768 0.19410166 0.08261067 -0.27681592 0.22746804 -0.09810127
-0.09348826 -0.033975184 0.23120514 0.24315593 0.048829377 0.15088868 -0.2947233 0.0007469952
-0.27976152 0.10762799 -0.22529629 -0.11270505 0.2210531 0.30221757 -0.18985696 -0.17550986
0.03916356 0.12431079 -0.05150476 -0.09875487 -0.2077122 0.13498995 0.3098279 -0.15307926
0.14915317 0.15444395 0.2541829 -0.03600374 0.009960502 0.2323322 0.19989195 0.3123404
-0.09062141 0.1251271 0.22081432 -0.21466045 0.06282145 -0.07075682 0.20327887 -0.14202648
0.022179753 0.18920246 -0.2897016 -0.26701075 -0.16196682 0.20283392 0.2120395 -0.21597409
0.06030062 -0.16756305 -0.14677797 0.27272037 0.1527409 -0.0864829 0.0465492 0.06127131
0.07407352 -0.10823803 -0.18622196 0.20936295 0.04249233 0.13235703 -0.11976485 0.15317109
0.2301397 0.19232133 0.08598098 0.3111311 -0.0006915927 0.06732395 0.30045745 0.30734083
-0.13351773 0.28485903 0.11670703 -0.035397798 0.276113 -0.16381522 0.2054685 0.31336406
-0.21810296 -0.18660375 -0.3633087 -0.10630267 -0.33685708 -0.15533394 0.077687845 0.29725733
0.17615 0.17553198 0.13119146 -0.19613498 -0.25108323 0.01310882 0.30028448 0.017805457
-0.027198702 -0.21463561 -0.15679783 -0.24376848 0.2531936 -0.05152288 -0.27935836 0.03392321
0.022948086 -0.039069504 0.11319813 0.17006072 -0.2973838 -0.24225947 -0.015191555 -0.2931867
-0.28724858 0.27920082 -0.024052113 -0.15633996 -0.10847145 -0.24688613 0.24677327 -0.068570465
-0.17779526 -0.2398312 0.184832 -0.043712616 -0.03322202 -0.08241947 -0.15265037 0.05625385
0.2432963 -0.18327935 0.015151322 -0.24049541 -0.14827828 0.27757522 0.0033156574 0.30462822
-0.055404425 -0.17235811 -0.18894239 0.28027728 -0.24317503 0.16595453 0.0786086 0.093321115
0.17842835 -0.082732424 0.19567022 -0.2519458 -0.11126199 0.23149177 0.09384999 -0.042112857
-0.07384887 -0.19309327 0.19229546 -0.010056078 -0.010699213 0.0747858 0.23335972 -0.16133414

decoder.lstm.weight_hh_l0 f4 [40, 10]
00000000: 8ea7 4ebc ba6d 5b3e 73c8 cf3d 73f3 b6bd
00000010: e00f c2be 2895 df3d 91ea 5d3e bfd6 483e
00000020: 2eb0 653e f3d3 3cbe e84b 233e 7b4f 49be
00000030: 1c3f 363e dad3 703e c41d cd3d 03ff 823e
00000040: d471 55be a1ce 90be 0cad 9bbe 7a4d 4b3e
00000050: 70df e23d e01e 6dbe 88d1 1c3e 37ba 933e
00000060: cba7 9fbe 62e7 6a3e c0a8 463d 60f9 f03c
00000070: 2baf 913e 739f 923e d670 083e fadb 7f3e
00000080: 44b7 063e 980d 533d c851 8ebe 10ef 713d
00000090: ea60 66be 8062 c73d 8887 643d 00cb e83b
000000a0: 0867 5dbe 104c 44be 7258 6f3e 86b4 1d3e
000000b0: b6ba 2a3e e6fa c0bd 600a 5fbd 68f9 a5bd
000000c0: deaf 5e3e b8c9 0bbe 0af6 4b3e 1e45 5f3e
000000d0: 1213 94be 001c fd3a 40b0 76bd 6e03 33be
000000e0: 2ecc 0b3e 605e 1dbd 97c0 8d3e b2ad 4abe
000000f0: a674 163e 843c 8abe e14d 22be 50b5 b03c
00000100: 86d8 7f3e 8e8f 2a3e d9f0 84be 9878 0f3d
00000110: 10e3 3ebe a07e 603c bae1 86be b0ff bdbd
00000120: 6a18 5e3e 988e 94be 0a5e 9abe 00ed 6b3d
00000130: a88f 313d d0e2 6cbd 6d61 8d3e 7ef7 42be
00000140: ab95 44be af0b 72be 7215 71bd 8e47 a5bd
00000150: 625c 483e c074 91bc 0cd3 ce3d cd90 06be
00000160: cb56 833e f37d 883e 1600 91be 1a71 a6bd
00000170: 0961 89be f690 093e f374 8dbe c81a 19be
00000180: 4dc6 a13e 129c 9abe f2e9 6e3e a0d8 da3c
00000190: bf77 813e 7355 24be 42b1 543e 7047 1c3d
000001a0: 903e c73c 0204 5d3e 07e6 99be d568 82be
000001b0: 8d5d 9c3e 7d73 42be f268 69be a053 7dbc
000001c0: 344f cfbd 4835 31bd eef3 58be c0ad e93d
000001d0: c351 8bbe b0d0 d13c caf5 3c3e 28de 783d
000001e0: 281a 2c3d 8873 3d3d 90b9 bdbd 18bf 76bd
000001f0: 338d 08be 6ebf 5abe 7072 2bbe 750e a03e
00000200: 88c5 58bd 20dd e23d e6ef 5f3e 005e cabc
00000210: 8e34 2ebe 1866 5bbe 3697 eebd 142a e73d
00000220: 4c5a 88be f025 1ebd f859 f63d 0f18 843e
00000230: 98e4 c23d 9c14 803d aaae 5d3e cca1 153e
00000240: 881a db3d fecb c8bd 97d5 81be f2e3 8bbd
00000250: 38ea 6abd f03d be3c 3874 0ebd 64ea 023e
00000260: 5a31 573e 3648 03be f3a0 99be 3623 26be
00000270: 5cf0 1abe 788d 373e 51e0 50be 90a8 f3bc
00000280: 5242 89bd fe88 44be 0cc8 123e 4be3 06be
00000290: a003 86bc c3ab 63be f8a3 02bd 100a 383d
000002a0: 20d5 52bc b4fc f1bd d066 c03d eecc a7bd
000002b0: 1f86 33be 1bcb 6ebe 2830 89bd 9af3 98be
000002c0: 2b63 863e 4db2 1abe 1d32 06be 8077 ef3c
000002d0: 6ce3 a73d a044 f4bc 6225 5e3e e6c4 3cbe
000002e0: 8819 e83d 00f6 3aba 3eb5 83be 56d3 fabd
000002f0: 8cd0 a43d 5873 773d 7e75 6b3e a6a1 583e
00000300: 079e 30be 8e47 0abe 4853 89bd 44fd 67be
00000310: d0da aebd ee7d 84be 9c52 f63d b21e 653e
00000320: 101c cd3c 82d0 67be b83a 75be a01f fcbd
00000330: e05d bc3d 00c1 fc3b 2082 6b3d 8998 983e
00000340: f264 163e 8c41 8b3d d807 83bd 702e 193e
00000350: 54ee ec3d fcbb 91be 2048 3fbe 20e8 2d3c
00000360: 6cbd f53d bc89 1d3e f0c2 40be c1a1 a0be
00000370: 00f2 86bc 5812 14bd 38ee bb3d 881a b2bd
00000380: ce90 773e 00da ac3c 6e77 6c3e 847a 61be
00000390: de89 013e d856 1a3d e6f4 21be 1c88 203e
000003a0: 3b52 9fbe d5e5 823e 40c4 d03c 901f fa3c
000003b0: 74bf 153e f00b d73c 06ce 0a3e 6204 4e3e
000003c0: d4b9 7cbe 8239 563e b8f3 41bd 569b 96bd
000003d0: 5c5b 823d 3246 7d3e 3008 30be 023b 5abe
000003e0: 9ef6 483e 2916 18be 8881 d03d b0d3 3ebd
000003f0: 6843 b23d 1a1c 773e 391c 24be ff22 1dbe
-0.01261319 0.21428576 0.101456545 -0.08933153 -0.37902737 0.10917121 0.21671511 0.19613169
0.22430488 -0.18440227 0.15946925 -0.19659226 0.17797512 0.23518315 0.10015443 0.25585184
-0.20844203 -0.28282645 -0.30405462 0.19853774 0.110777736 -0.23156309 0.15314305 0.28853008
-0.31182703 0.22939828 0.048500776 0.029415786 0.28453955 0.28637275 0.13324293 0.24986258
0.13155848 0.051526636 -0.2779677 0.05906588 -0.22497907 0.09735584 0.055793315 0.0071042776
-0.21621335 -0.1916964 0.23373583 0.15400895 0.16672787 -0.09422855 -0.054453254 -0.08104211
0.21746776 -0.13651168 0.19918075 0.2180371 -0.289208 0.0019310713 -0.06022668 -0.17481777
0.13652107 -0.03842008 0.27685997 -0.19792822 0.14692935 -0.26999295 -0.15850021 0.021570832
0.24984941 0.16656324 -0.25965002 0.035027117 -0.18641305 0.013702065 -0.2634409 -0.09277284
0.21689 -0.2901504 -0.3014987 0.057599068 0.043349892 -0.057833493 0.27613392 -0.19039723
-0.19197719 -0.2363727 -0.058858342 -0.080702886 0.19566491 -0.017755866 0.10098848 -0.13141175
0.25652155 0.26658592 -0.28320378 -0.08127041 -0.26831844 0.13434204 -0.27628288 -0.14951622
0.31596604 -0.30197197 0.2333143 0.026714623 0.25286672 -0.16048221 0.20770743 0.038154066
0.024321824 0.2158356 -0.3005831 -0.25470605 0.30540124 -0.18989368 -0.2279394 -0.015461832
-0.10122529 -0.043263704 -0.21186802 0.11410093 -0.27210817 0.025612205 0.18453136 0.06075874
0.042017132 0.046252757 -0.09263909 -0.060240835 -0.13335113 -0.21362087 -0.16742873 0.3126103
-0.052922755 0.110773325 0.21868858 -0.024703026 -0.17012236 -0.21425664 -0.11649935 0.11287323
-0.2663139 -0.0386104 0.12028879 0.25799605 0.09516257 0.06253931 0.2164866 0.14612502
0.1069842 -0.098045334 -0.2535827 -0.068305865 -0.057352275 0.023222893 -0.034778804 0.12784725
0.2101492 -0.12820515 -0.30005607 -0.1622437 -0.15130752 0.1792506 -0.2039807 -0.029743463
-0.06702103 -0.19192883 0.14334124 -0.13172643 -0.01635915 -0.2223349 -0.031894654 0.04493147
-0.012868196 -0.118157774 0.0939461 -0.08193384 -0.17531632 -0.23319666 -0.06698638 -0.29873353
0.26247534 -0.15107079 -0.13105054 0.029231787 0.08197674 -0.02981788 0.21693948 -0.18434486
0.11332995 -0.0007131994 -0.25724214 -0.122473404 0.0804759 0.060412735 0.22994038 0.21155414
-0.17247783 -0.13503858 -0.06705338 -0.22655207 -0.08537829 -0.25877327 0.12027475 0.2237499
0.025037795 -0.22638133 -0.2394818 -0.123107195 0.09197593 0.007713437 0.057497144 0.29803875
0.14686945 0.067996114 -0.063979805 0.14959121 0.11568895 -0.28463733 -0.18679857 0.010614425
0.1199902 0.15384573 -0.18824363 -0.31373408 -0.016472816 -0.036150306 0.09176296 -0.08696467
0.24176332 0.021100044 0.23092434 -0.22019392 0.12650248 0.037680477 -0.15816078 0.15676922
-0.31117424 0.25565973 0.025484204 0.030532628 0.14623815 0.02625081 0.13555154 0.2011886
-0.24680263 0.20920375 -0.04735157 -0.07353847 0.06365082 0.24733809 -0.17190623 -0.21311572
0.19625327 -0.14852203 0.10180956 -0.0465886 0.08704263 0.24131814 -0.16026391 -0.15345381

decoder.lstm.bias_ih_l0 f4 [40]
00000000: 87aa 0ebd cac9 b4bd b81f be3d 4a32 5bbe
00000010: 3e8d 043e 35d9 8bbe aae6 2abe 363b 2abe
00000020: a7b1 1c3e a0a5 07bc 4b99 9bbe 42f0 38be
00000030: eada 15be 3e39 96be e8da 253d d8c6 e63d
00000040: 20a7 6dbd 84dc 00be 005e fbba df99 80be
00000050: 3c2c 45be 8052 ecbb 01d6 8f3e 2c27 c7bd
00000060: ca80 203e 76e0 febd 1c66 acbd 6b29 a9be
00000070: 8d23 863e a7a7 9d3e 80a3 d9bb 62be 4d3e
00000080: 8b6e 843e 80d8 203e aac5 263e af22 9abe
00000090: 0a24 98be f48a 78be 1c92 ca3d 130c 8cbe
-0.034830596 -0.08827551 0.092833936 -0.21405903 0.12944505 -0.27314153 -0.16689554 -0.1662415
0.15302144 -0.008279234 -0.3039039 -0.18060401 -0.1463429 -0.29340547 0.04049197 0.11268395
-0.05802071 -0.1258412 -0.0019177794 -0.25117394 -0.19255155 -0.007211983 0.2809296 -0.09724268
0.15674129 -0.12445156 -0.08417913 -0.33039412 0.26198998 0.3079197 -0.006641805 0.20092157
0.25865588 0.15707588 0.1628634 -0.30104586 -0.29714996 -0.24271756 0.098911494 -0.27352962

decoder.lstm.bias_hh_l0 f4 [40]
00000000: 19be 93be 83f4 1cbe 923a 95be 0064 df39
00000010: b8dd 3a3d 7c7f 3dbe 3a06 543e 00df f5bd
00000020: c552 b6bd 52b5 763e c501 8b3e 0898 14bd
00000030: 1876 68be f772 22be 48f0 243d bad1 3d3e
00000040: f035 213e f4fd 0ebe 2110 99be 9fb1 8dbe
00000050: 880c cebd 00fc 813b 6773 11be a105 80be
00000060: 6081 083d 7283 80be c6aa 78be 20a8 92be
00000070: e27d afbd d101 8f3e 402c fd3d 2894 19bd
00000080: 5c4a 853d 6cf2 003e 007d f13a 6297 82be
00000090: 0482 47be 73fc 5bbe 408f 03bc 2036 94be
-0.2885597 -0.15327649 -0.29146248 0.0004260838 0.045621604 -0.18505663 0.207055 -0.120054245
-0.08902506 0.24092606 0.27149788 -0.0362778 -0.22701299 -0.15864168 0.040268213 0.18537036
0.15743232 -0.13964063 -0.29895118 -0.27674577 -0.10060984 0.0039668083 -0.14204179 -0.25004295
0.033326507 -0.25100285 -0.24283895 -0.28643894 -0.08568932 0.27931073 0.12361956 -0.03749481
0.065083236 0.12592477 0.0018424094 -0.2550612 -0.19483191 -0.2148302 -0.008029759 -0.28947544

decoder.lstm.weight_ih_l1 f4 [40, 10]
00000000: 5693 663c 60d2 ecbd 6be4 9e3e 3c81 bb3e
00000010: 1d7a aa3d 858f ec3d 2414 82bb 5989 423d
00000020: c3c8 e8bd d5b1 f3bc e99f a4bd 2e2a 98bd
00000030: 5b60 99be e108 723d 729e a13e 3829 f6bc
00000040: 8b71 673e d68d aabd 0c28 13be 9760 f9bc
00000050: 4dcc 683e c08d 2d3d 2adf 4cbe cde6 23be
00000060: 17ae 493e a198 133d c3aa 20bd 1415 c33b
00000070: a180 0cbe 5f0f 22be 0441 90be b83e 543d
00000080: 0ce2 b53d 491a 6f3d c2da d93d 8c61 1c3d
00000090: a20f 5c3e 7fad fb3d 851d 63bc 1adb acbd
000000a0: d31c d33d 46e2 8abe 80bc 473c 8bff c33c
000000b0: 6937 4a3e 6024 503e 2591 a7bc 0f5f 503e
000000c0: 13e0 07be 8383 b93e 0f26 ae3e a006 46bc
000000d0: e6ee 81be b612 11bd ec2f 18be 397e dfbb
000000e0: f33b 85be 6246 b8bc 2a57 01be 6b3b 83bc
000000f0: 83d4 90be d6bc 88bd 5c5e 96be 0daa 9cbe
00000100: 88f1 293e 9002 a63e 8535 cf3e e763 09be
00000110: 4caa 5e3d 568d a5be b12f c9be 8026 64bc
00000120: b5c1 39be 50d7 abbe 74bc a9bd 73d4 3abe
00000130: 35bd 953e a9b0 753d e1c7 6cbe de67 cdbe
00000140: a650 0dbf 9538 3fbe 1040 05be 16f7 ee3d
00000150: fac7 4d3e 0f34 503c 7b18 b13e f876 053c
00000160: 52a0 7ebe edc4 40bd 7e23 c4be f03c b83d
00000170: bf2c 893e 6b83 81be f4ae 75bc 1505 703e
00000180: 448b 2dbe 00d4 e23d 240a 8dbe 5e50 c03c
00000190: 1d71 43be 7c2e 5bbe 08ae 0e3d 7de0 4c3e
000001a0: 3d6d 253e 8aca 653e b4a2 83bd aa6d 9cbd
000001b0: 1449 203e 8c68 613c 32e0 37bc d555 99be
000001c0: 78e9 84be 85ca fb3d d62b eebd 44af cf3e
000001d0: b48d 3c3e cdca 4d3d 48aa 153e bd35 7dbe
000001e0: ef90 b6bd 687b 653d 4c42 dd3d 8d2b b4be
000001f0: c0f6 1f3e 5f1e 69be e1ea 3b3c 2a2a 863e
00000200: dedb f4bc 993f 64bd 105f 1bbe 231c 873e
00000210: ee08 383e 24ba 15be 2b13 a83b 13a1 16be
00000220: 49b3 893e 134b 563e 8331 fd3d 550a e3be
00000230: 12fb a83e 70a2 f7bc 1a93 6e3e 1244 ba3e
00000240: 69fe 55bd 8c5b 2abe 053f 903e 73b3 75be
00000250: c5f5 723e f056 5fbe 01e3 02bd 2929 8dbe
00000260: b841 11be f9e0 4b3e 828a 95be 3e51 82be
00000270: 4b25 8e3e ddf2 bd3d 8844 c9ba 9565 21be
00000280: e898 15be 02b1 d1bd 86fc 473e e53e 76be
00000290: 9c55 803d 6bfe d9bd 86a5 fdbc bc13 843e
000002a0: 09ca f53d dbd8 ddbd 692a 5dbe 0183 9b3e
000002b0: 00a9 7f3d 2d90 3ebe a961 53bc e8c4 bf3d
000002c0: 6a75 953e 4b59 323d 7018 033e 45b7 04be
000002d0: 12ed a83d cb87 03be 9322 15be 04e9 61be
000002e0: 7815 4fbe 17c0 1dbe b9d8 7dbe 2ef5 0f3e
000002f0: 06ed 8e3c aa6c 35be c6e4 b3be d9e5 923e
00000300: 5c96 d6bd 6ba8 28bc 4bc6 be3e 0e71 bcbd
00000310: edc1 9d3d 85f7 ea3c 37b3 333e baac 49be
00000320: 41ae ad3d 3827 7ebe 9565 52be 323a 19ba
00000330: 9604 4b3e 62e8 e63e ebed 1c3e 1395 9fbd
00000340: 4fcf 393e 8308 073d 2172 d33d bc4c 44be
00000350: 2053 60bc 77f8 72bc 5fd5 df3d 3b31 e9bd
00000360: 2e12 7bbd 3101 133e 5d58 703e fb3f 9abd
00000370: 62b5 ba3e 76ef 463e 74e7 47be dd60 b53e
00000380: d6ff cbbc a0e8 7cbd 00cd 6fbe 4c23 7bbd
00000390: f2ea 8fbe dfbb 963e 962e a53e e473 babd
000003a0: eb18 963e 62f0 c13c 19bb a9bd 31d7 70be
000003b0: d912 cfbc 9cf2 d13d 5075 453e f010 033e
000003c0: 6df0 9ebd f257 623e 6a63 563e f7e4 113e
000003d0: cfdf 6fbe 0c90 a23c d2bf 6ebd b1e5 5c3e
000003e0: a784 193d b3ff e53d 5931 7cbd 1246 2c3e
000003f0: 8008 80bb 711e 313e 519f 833e 1dbf 07be
0.014073214 -0.11563563 0.31033644 0.36622036 0.083240725 0.11550812 -0.003969686 0.047494266
-0.11366417 -0.029747883 -0.08038313 -0.0742992 -0.29956326 0.0590905 0.31566197 -0.030048952
0.22601907 -0.08327834 -0.14370745 -0.030441565 0.22734185 0.04237151 -0.20007005 -0.16006012
0.19695316 0.03603423 -0.03922535 0.0059534404 -0.13720943 -0.15826176 -0.28174603 0.051817626
0.08881006 0.058374677 0.10637428 0.038178965 0.21490338 0.12288951 -0.0138620185 -0.08440228
0.10308232 -0.27125758 0.012190938 0.023925563 0.197477 0.20326376 -0.020454952 0.20348762
-0.13269071 0.36233148 0.3401341 -0.01208654 -0.25377578 -0.035418235 -0.1486203 -0.006820467
-0.260223 -0.022494499 -0.12630907 -0.016019544 -0.28287134 -0.066766426 -0.29368865 -0.30598488
0.16596043 0.3242383 0.4047052 -0.13417016 0.054361627 -0.32334393 -0.39294198 -0.013925195
-0.181403 -0.33562708 -0.08287898 -0.18245105 0.29245916 0.05998293 -0.23123123 -0.40118307
-0.55201185 -0.18673928 -0.13012719 0.11668222 0.20095816 0.012707724 0.3458899 0.00814604
-0.24865845 -0.047062803 -0.38308328 0.08995998 0.2679195 -0.25295576 -0.014995325 0.23439439
-0.16947657 0.11075592 -0.275468 0.023475822 -0.19086118 -0.21404451 0.034833938 0.2000751
0.16154952 0.22440544 -0.064275175 -0.07638104 0.15652877 0.013757836 -0.011222886 -0.29948297
-0.25959373 0.12294487 -0.11629455 0.40563405 0.1841343 0.050242234 0.14615738 -0.24727531
-0.08914363 0.056025892 0.10803661 -0.35189477 0.15621471 -0.22765492 0.011469574 0.26204044
-0.029889997 -0.055724714 -0.15172982 0.26388654 0.17972156 -0.14621788 0.005129238 -0.14709882
0.26894596 0.20927076 0.12362959 -0.4434382 0.3300405 -0.030228823 0.23298302 0.3638006
-0.052244578 -0.16636485 0.2817308 -0.23994236 0.23726566 -0.21810508 -0.03195477 -0.27570465
-0.14185226 0.19910039 -0.29207236 -0.25452608 0.27762827 0.09274838 -0.0015355507 -0.15761407
-0.1460911 -0.1023884 0.19529924 -0.2404743 0.06266329 -0.106442295 -0.030962717 0.25796306
0.12001426 -0.108323775 -0.2159821 0.30373386 0.06241703 -0.18609686 -0.012901702 0.09363729
0.29191142 0.043542188 0.12802291 -0.12960537 0.082483426 -0.1284477 -0.1456397 -0.22061545
-0.20223033 -0.15405308 -0.24789704 0.14058372 0.017447006 -0.17717233 -0.35135478 0.28690985
-0.104778975 -0.01029406 0.3726066 -0.09201251 0.07703004 0.02868248 0.17548834 -0.19694796
0.08480502 -0.24819648 -0.20546563 -0.00058451586 0.19825968 0.4509917 0.15325134 -0.077921055
0.18145488 0.0329671 0.10324503 -0.19169897 -0.013691694 -0.014829746 0.10929369 -0.11386343
-0.061296634 0.14355923 0.23471208 -0.075317346 0.3646651 0.19427285 -0.19521886 0.35425463
-0.024902266 -0.061745286 -0.23418045 -0.06131296 -0.28108937 0.2944021 0.32262105 -0.09104136
0.29315886 0.023674194 -0.08287639 -0.23519589 -0.025277542 0.10251352 0.19283032 0.1279943
-0.07760701 0.22103861 0.20936361 0.142475 -0.2342522 0.019844078 -0.058288403 0.21571995
0.037480023 0.112304114 -0.0615705 0.16823605 -0.0039072633 0.17296769 0.25707486 -0.13256498
