TFT_power/best_model/best8.pth (torch, 559692 bytes, 395 tensors)

static_cate_emb.embedding.0.weight f4 [101, 32]
0	0x3ff6a529	1.9269153
1	0x3fbe5f53	1.4872841
2	0x3f669567	0.9007172
3	0xc006c0db	-2.105521
4	0x3f2dacd5	0.67841846
5	0xbf9e0591	-1.2345449
6	0xbd306786	-0.043067478
7	0xbfcd65ba	-1.604667
8	0xbf408bf0	-0.7521353
9	0x3fd3095b	1.648723
10	0xbec8f2f6	-0.39247864
11	0xbfb3a966	-1.4036071
12	0xbf3a566e	-0.7278813
13	0xbf0f36d1	-0.5594302
14	0xbf44d2a0	-0.7688389
15	0x3f432f9f	0.7624454
16	0x3fd23771	1.6423169
17	0xbe236d85	-0.15959747
18	0xbefeaae4	-0.49739754
19	0x3ee111d8	0.43958926
20	0xbf4214e2	-0.75813115
21	0x3f8a0650	1.0783176
22	0x3f4d0144	0.80080056
23	0x3fd71e93	1.6806206
24	0x3fa3ba59	1.2791244
25	0x3fa5f12f	1.2964228
26	0x3f1c4788	0.6104665
27	0x3faad8b0	1.3347378
28	0xbe6d2eed	-0.23162432
29	0x3d2b0c00	0.04175949
30	0xbe80ce7a	-0.2515753
31	0x3f5c1fb0	0.8598585
32	0xbfe92aa3	-1.8216137
33	0xbfb7474f	-1.4318637
34	0xbf11ea1a	-0.56997836
35	0x3f735345	0.95048934
36	0x3f906a65	1.1282469
37	0xbf3ae488	-0.7300496
38	0x3e6b2196	0.22962031
39	0xbf599d12	-0.85005295
40	0xc012aa94	-2.2916613
41	0x3f13d432	0.5774566
42	0x3f08f98b	0.5350577
43	0xbf5779b8	-0.84170103
44	0xbf290b8a	-0.6603323
45	0x40083118	2.1279964
46	0x3e434880	0.19070625
47	0xbd1cec83	-0.038311493
48	0xbeea11e5	-0.45716777
49	0xbf6904c9	-0.91022927
50	0x3f969c02	1.176636
51	0x3f3e7ccf	0.7440919
52	0x3e2fd484	0.17170912
53	0x3f8dab35	1.1067873
54	0xc000e36d	-2.013881
55	0xbfc0b92c	-1.505651
56	0xbfe2c684	-1.7716832
57	0xbd45bbd4	-0.04827483
58	0xbe6a837b	-0.22901718
59	0x3fc02102	1.5010073
60	0x3e9d49f7	0.30720493
61	0x3f9ad2a1	1.2095529
62	0xbf810184	-1.0078588
63	0x3fdcb10d	1.7241532
64	0x3f81b889	1.0134441
65	0x3e93bcc7	0.28854963
66	0x3fbfed39	1.499427
67	0x3ec8a60f	0.39189193
68	0x3f9d35ba	1.2282021
69	0x3e8f82d7	0.2802951
70	0xbfac504f	-1.3462008
71	0x3fe5a785	1.7941748
72	0xbef2d324	-0.47426713
73	0x3e2ce1ec	0.16883057
74	0x3f234bbc	0.63787436
75	0xbe7dfc63	-0.24803309
76	0x3f65e952	0.89809144
77	0xbf89bbbd	-1.0760418
78	0xbfdc881a	-1.7229035
79	0xbf89b044	-1.0756917
80	0x3deaa828	0.114578545
81	0xbf86c486	-1.0528724
82	0xbf7a6511	-0.97810465
83	0xbf73468f	-0.9502954
84	0x3ef5869a	0.47954255
85	0x3f94f6d9	1.1637832
86	0xbf22aea3	-0.63547724
87	0x3e2bc52e	0.16774437
88	0x3ec301da	0.3808735
89	0xbe6aaea2	-0.2291818
90	0xbfe5b477	-1.7945698
91	0x3f62c6ce	0.885846
92	0xbf7a5908	-0.977921
93	0xbf8d90d5	-1.1059824
94	0x3f911065	1.1333128
95	0x3f4afa5f	0.79288286
96	0xc00d21f3	-2.205197
97	0x3fab70cd	1.3393799
98	0x3fb61e75	1.4228045
99	0x3ec85721	0.39128974
100	0x3e9c7566	0.30558318
101	0x3f050571	0.5196143
102	0x3fc4aa67	1.5364503
103	0x3e75d74c	0.2400791
104	0x3de0ed22	0.109827295
105	0x3f97b91a	1.1853364
106	0x3e64a9a7	0.22330342
107	0x3ec5116f	0.38489863
108	0x3e7311de	0.23737285
109	0x3f9857d4	1.1901803
110	0xbe8ed886	-0.2789957
111	0xbeeebc39	-0.46627977
112	0xbfd1d97c	-1.6394496
113	0x3ed5ed81	0.41782764
114	0xbf53da7c	-0.82755256
115	0x3e3fb0c6	0.18719777
116	0x3f5462ff	0.82963556
117	0x3eae450a	0.34037048
118	0xbee2b19b	-0.44276127
119	0x3e2cd59e	0.16878363
120	0x3df69991	0.12041009
121	0xbe9c1a4b	-0.3048881
122	0xbf0aba76	-0.54190767
123	0x3f11eef7	0.57005256
124	0x3f50812a	0.8144709
125	0x3e5c9296	0.21540293
126	0x3f2a8ec7	0.6662411
127	0x3d639511	0.055562083
128	0x3fc7e938	1.5618048
129	0x3fe47dc5	1.7850882
130	0xbfabb4e9	-1.3414584
131	0x3d98d51f	0.074625246
132	0xbe9a8f76	-0.30187577
133	0x3f951aaa	1.1648762
134	0x3f786043	0.97021884
135	0x3e0b4da4	0.13603836
136	0x3fbb791f	1.4646338
137	0x3f8a1894	1.0788751
138	0xbfe6b8d0	-1.802515
139	0x3f954c62	1.1663935
140	0xbf4a4726	-0.79014814
141	0x3fc5c830	1.5451717
142	0xbfd3e7f7	-1.6555165
143	0x3fae3401	1.360962
144	0xbfb91f7a	-1.4462731
145	0x3f9ee33d	1.2413098
146	0x3eeedd13	0.4665304
147	0x3ef68747	0.48150083
148	0x3ed346f7	0.4126508
149	0xc005fb30	-2.0934563
150	0xbf2b4dde	-0.6691569
151	0x3f095601	0.53646857
152	0x3f524ba7	0.82146686
153	0x3d7509a9	0.059823666
154	0xbedd3842	-0.43206984
155	0x3fcb4115	1.5879236
156	0xc0231e15	-2.548711
157	0x3e31c31b	0.17359583
158	0xbf6cbeb7	-0.9247851
159	0x3eb50a5d	0.3535947
160	0xc0208686	-2.5082107
161	0xbe54fdb4	-0.20799905
162	0xbf3efc55	-0.7460378
163	0xbf011af0	-0.5043173
164	0x3f136793	0.57579917
165	0xbe2ce38d	-0.16883679
166	0xbf20e0ca	-0.62843
167	0xbfc537c6	-1.5407646
168	0xbf95c7cf	-1.1701602
169	0x3f65a187	0.89699596
170	0x3f89e22b	1.0772146
171	0xbf194f46	-0.59886587
172	0xbfb5ee1f	-1.4213294
173	0x3e9cf8bc	0.3065852
174	0x3f6f4537	0.9346499
175	0x400c7adf	2.1949995
176	0xbd725199	-0.05915985
177	0xbf444c3a	-0.7667881
178	0xbe882cdb	-0.26596722
179	0xbe1b1043	-0.15142922
180	0xbeb35944	-0.35029042
181	0xbf677554	-0.90413404
182	0xbfbd7876	-1.4802387
183	0xbeb74134	-0.35791934
184	0xbed07272	-0.40712315
185	0xbf66a7cd	-0.90099794
186	0xc04142ae	-3.0196948
187	0x3e28d420	0.1648717
188	0x3fbb001d	1.460941
189	0xbefb79f2	-0.49116474
190	0x3f00686e	0.5015935
191	0x3fa76360	1.3077202
192	0x3fedd69b	1.8581117
193	0x3df0602e	0.11737095
194	0x3fb72c1e	1.4310338
195	0x3e5b49e3	0.21414904
196	0xbfa03207	-1.2515267
197	0x3f388dcb	0.7209136
198	0x3fe21d4d	1.7665192
199	0x3fc2e27e	1.522537
200	0x3eec0d33	0.4610382
201	0x4007b86d	2.1206315
202	0xbe304ab8	-0.17216003
203	0xbf09bae9	-0.5380083
204	0x3e9a5dc8	0.30149674
205	0x3f4ef9be	0.80849826
206	0x3f9a108b	1.2036299
207	0x3c6767fb	0.014123912
208	0xbe7b68e9	-0.24551739
209	0xbf1212e2	-0.5706006
210	0xbf23e708	-0.640244
211	0xbf29044d	-0.6602219
212	0x3f485e6c	0.78269076
213	0x3efa387c	0.4887122
214	0xbf9be7cb	-1.2180113
215	0xc00438e3	-2.065972
216	0xbf2bf7c0	-0.6717491
217	0x3f074934	0.52846074
218	0xbfc0bc51	-1.505747
219	0x3fb81b07	1.4383248
220	0xbef0c426	-0.4702465
221	0xbe20579d	-0.15658422
222	0x403a4831	2.9106562
223	0x3fa7221b	1.3057283
224	0xbedcdb24	-0.4313594
225	0x3fb37d25	1.4022566
226	0xbeca8bd1	-0.39559796
227	0xbfa33b05	-1.2752386
228	0xbfe806e1	-1.8127099
229	0xbf4f319a	-0.8093506
230	0x3f1792bf	0.5920829
231	0x3fb3156f	1.3990916
232	0x3e0b69e9	0.1361462
233	0xbee6d84e	-0.45086902
234	0xc003b46d	-2.0578873
235	0xbf86c040	-1.052742
236	0xbf41c59c	-0.7569215
237	0x3d61d0d6	0.055130802
238	0x3eeb240e	0.45925945
239	0x3f92e3c3	1.1475757
240	0xbf7e24ee	-0.992751
241	0x3f57d604	0.84310937
242	0xbe52af78	-0.20574749
243	0xbebe435b	-0.37160763
244	0xbf20d526	-0.6282524
245	0xbfa8dbdb	-1.3192095
246	0x3ddfad3b	0.10921713
247	0x3f93e319	1.155368
248	0x3fa27ec1	1.2694932
249	0x3e8b7871	0.27240327
250	0x3f59b474	0.85040975
251	0x3f07f1b8	0.5310321
252	0x3f7301a8	0.949244
253	0xbe32de69	-0.17467655
254	0xbdf54892	-0.11976732
255	0x3e12aca6	0.14323673

static_conti_emb.embedding.0.weight f4 [32, 1]
0	0xbf36e2ca	-0.714398
1	0x3f832853	1.0246681
2	0x3f569dfe	0.83834827
3	0x3fc5e3b4	1.5460114
4	0xbe5d697e	-0.21622273
5	0x3d792c42	0.060833223
6	0xbd57ed1d	-0.052716363
7	0xbf641c54	-0.89105725
8	0xbfee48fd	-1.8616024
9	0xbe80b1e2	-0.25135714
10	0x3d248756	0.04016813
11	0x3e6ded4e	0.23235056
12	0x3f6b6d75	0.91963893
13	0x3f54d63f	0.83139414
14	0xbf77709f	-0.9665622
15	0xbe03f354	-0.12885791
16	0x3f6f8152	0.935567
17	0x3f20dfa3	0.6284124
18	0x3f686550	0.9077959
19	0xbf98ea84	-1.1946568
20	0x3f3c4459	0.7354179
21	0xbf2dc920	-0.6788502
22	0xbf1627a3	-0.5865423
23	0x3fb18442	1.3868487
24	0x3e25b904	0.16183859
25	0xbf4d22ad	-0.80131036
26	0x3e43e8a5	0.19131716
27	0x3e2894ed	0.1646306
28	0xbece85d5	-0.4033648
29	0xbe981905	-0.29706588
30	0x3f9c97b4	1.2233796
31	0xbf5c5423	-0.8606588

static_conti_emb.embedding.0.bias f4 [32]
0	0xbeaf4537	-0.34232494
1	0xbf099036	-0.53735673
2	0x3db870f0	0.09005916
3	0x3eda139d	0.4259309
4	0xbe0a8323	-0.13526587
5	0x3fb09405	1.3795172
6	0xbfe632f3	-1.7984298
7	0x3f21b380	0.6316452
8	0xbd940bdc	-0.072288245
9	0xbdc5096e	-0.09620939
10	0xbf3230ec	-0.696059
11	0xbf01c94c	-0.5069778
12	0xbf998567	-1.1993836
13	0x3f029c3e	0.51019657
14	0xbefdf9e4	-0.49604714
15	0x3e844e7f	0.25841138
16	0xbee56e50	-0.44810724
17	0xbee77a02	-0.45210272
18	0x3b88e0b9	0.0041771797
19	0x3f29151a	0.66047823
20	0xbe2cc389	-0.16871466
21	0x3e5eadf2	0.21746042
22	0x3ec438ac	0.38324487
23	0x3e5bb8ea	0.21457258
24	0x3ef61625	0.4806377
25	0x3eaedcd9	0.34152868
26	0xbd54e33e	-0.051974528
27	0xbf704aa1	-0.93863875
28	0x3e6338c6	0.22189626
29	0x3f320a34	0.6954682
30	0xbdd448f0	-0.10365474
31	0x3ead737d	0.33877173

static_conti_emb.embedding.1.weight f4 [32, 1]
0	0xbf36e2ca	-0.714398
1	0x3f832853	1.0246681
2	0x3f569dfe	0.83834827
3	0x3fc5e3b4	1.5460114
4	0xbe5d697e	-0.21622273
5	0x3d792c42	0.060833223
6	0xbd57ed1d	-0.052716363
7	0xbf641c54	-0.89105725
8	0xbfee48fd	-1.8616024
9	0xbe80b1e2	-0.25135714
10	0x3d248756	0.04016813
11	0x3e6ded4e	0.23235056
12	0x3f6b6d75	0.91963893
13	0x3f54d63f	0.83139414
14	0xbf77709f	-0.9665622
15	0xbe03f354	-0.12885791
16	0x3f6f8152	0.935567
17	0x3f20dfa3	0.6284124
18	0x3f686550	0.9077959
19	0xbf98ea84	-1.1946568
20	0x3f3c4459	0.7354179
21	0xbf2dc920	-0.6788502
22	0xbf1627a3	-0.5865423
23	0x3fb18442	1.3868487
24	0x3e25b904	0.16183859
25	0xbf4d22ad	-0.80131036
26	0x3e43e8a5	0.19131716
27	0x3e2894ed	0.1646306
28	0xbece85d5	-0.4033648
29	0xbe981905	-0.29706588
30	0x3f9c97b4	1.2233796
31	0xbf5c5423	-0.8606588

static_conti_emb.embedding.1.bias f4 [32]
0	0xbeaf4537	-0.34232494
1	0xbf099036	-0.53735673
2	0x3db870f0	0.09005916
3	0x3eda139d	0.4259309
4	0xbe0a8323	-0.13526587
5	0x3fb09405	1.3795172
6	0xbfe632f3	-1.7984298
7	0x3f21b380	0.6316452
8	0xbd940bdc	-0.072288245
9	0xbdc5096e	-0.09620939
10	0xbf3230ec	-0.696059
11	0xbf01c94c	-0.5069778
12	0xbf998567	-1.1993836
13	0x3f029c3e	0.51019657
14	0xbefdf9e4	-0.49604714
15	0x3e844e7f	0.25841138
16	0xbee56e50	-0.44810724
17	0xbee77a02	-0.45210272
18	0x3b88e0b9	0.0041771797
19	0x3f29151a	0.66047823
20	0xbe2cc389	-0.16871466
21	0x3e5eadf2	0.21746042
22	0x3ec438ac	0.38324487
23	0x3e5bb8ea	0.21457258
24	0x3ef61625	0.4806377
25	0x3eaedcd9	0.34152868
26	0xbd54e33e	-0.051974528
27	0xbf704aa1	-0.93863875
28	0x3e6338c6	0.22189626
29	0x3f320a34	0.6954682
30	0xbdd448f0	-0.10365474
31	0x3ead737d	0.33877173

future_emb.embedding.0.weight f4 [32, 32]
0	0xbed43ae9	-0.41451195
1	0xbfdb0b5c	-1.7112842
2	0x3ebaa2bc	0.3645228
3	0xbf149183	-0.58034533
4	0xbf35de7a	-0.710426
5	0xbe8bc917	-0.27301857
6	0x3f5f2d46	0.87178457
7	0x3e5cffc9	0.2158195
8	0x3f059f4a	0.5219618
9	0x3eaeb9dc	0.34126174
10	0x3f816528	1.0108995
11	0xbd402cc7	-0.046917703
12	0x3e993b6e	0.29928154
13	0xbed75ccc	-0.42062986
14	0xbf84d424	-1.037724
15	0x3f2399a9	0.6390634
16	0x3cbe7c52	0.02325264
17	0xbf849437	-1.0357732
18	0x3f311492	0.6917201
19	0xbf2dcf5b	-0.67894524
20	0xbf6cbb84	-0.92473626
21	0xbe9f11cb	-0.31068262
22	0x3e4960df	0.1966586
23	0x3f21703e	0.63061893
24	0xbfdc87c2	-1.722893
25	0xbf056653	-0.5210926
26	0x3d78b2ce	0.060717396
27	0x3ed79fcc	0.42114103
28	0x3f8761a1	1.0576669
29	0x3fa9a6dc	1.3254046
30	0x3f910b3b	1.1331552
31	0x3ed98f60	0.424922
32	0x3f6b92e2	0.92021
33	0xbd590982	-0.052987583
34	0xbf1cfd91	-0.6132441
35	0xbe68e9ac	-0.22745389
36	0xbec5da7c	-0.38643253
37	0xbede45d6	-0.43412656
38	0x3ef33be2	0.47506624
39	0xbd936c44	-0.071983844
40	0xc0346f0b	-2.8192775
41	0x3e73beea	0.23803297
42	0x4029ab49	2.6510794
43	0x3df225e4	0.11823633
44	0x3f486595	0.7828
45	0xbf0c343b	-0.547672
46	0xbf09bad2	-0.5380069
47	0x3f921103	1.1411442
48	0xb83793a1	-4.376809e-05
49	0xbfb17da4	-1.3866467
50	0x3f97b99d	1.185352
51	0xbe945a18	-0.28974986
52	0xbeb9e922	-0.3631068
53	0xbf0a5343	-0.540333
54	0x402ff24f	2.7491643
55	0x3ead15f1	0.33805802
56	0xbf32cee7	-0.6984696
57	0xbf1ce4f4	-0.61286855
58	0x3f28475b	0.6573388
59	0xbe7c2d27	-0.24626599
60	0xbeb63db1	-0.35593942
61	0x3f748edb	0.9553048
62	0xc00a7c32	-2.1638303
63	0x3f893d8d	1.0721909
64	0x3f8e0983	1.1096653
65	0xbed70239	-0.41993883
66	0xbebf29ea	-0.37336665
67	0xbef33fdc	-0.47509658
68	0x3f7166aa	0.9429728
69	0xbe282ae0	-0.16422606
70	0xbf4876ba	-0.7830616
71	0x3df0652d	0.11738048
72	0xbf6a2aa7	-0.9147133
73	0xbe5e2c6d	-0.21696635
74	0xc003363f	-2.050186
75	0x3fea9bb3	1.8328766
76	0x3f8b4f1e	1.088352
77	0x3f96e602	1.1788943
78	0xbf478ae3	-0.779463
79	0xbdf0e41e	-0.1176226
80	0x3ef47f02	0.4775315
81	0xbd3ecc22	-0.046581395
82	0xbf6f9374	-0.9358437
83	0xbfb6eae3	-1.4290432
84	0x3fd29443	1.6451496
85	0x3d85ee38	0.06539577
86	0xbfbc38f5	-1.4704882
87	0xbfb2afeb	-1.3959936
88	0x3f69ab88	0.9127736
89	0x401e3173	2.4717681
90	0x3f0cd129	0.55006653
91	0x3ede352f	0.4339995
92	0x3f3db6fc	0.74107337
93	0x3f833153	1.0249428
94	0x3ecf3194	0.40467513
95	0x3ee74890	0.45172548
96	0x3df349be	0.118792996
97	0xbd9ead7e	-0.07747935
98	0xbe177b9c	-0.14793247
99	0x3f0e765b	0.55649346
100	0x3f7729d6	0.9654821
101	0xbe0c7fc7	-0.13720618
102	0xbf775d2e	-0.96626556
103	0xbf77a95a	-0.96742785
104	0x3fc576d0	1.5426884
105	0x3f8abb07	1.0838326
106	0xbfa95f43	-1.3232197
107	0x3fafc22e	1.3731134
108	0xbf902d08	-1.1263742
109	0xbfa1cc54	-1.2640481
110	0xbf6b1e2d	-0.9184292
111	0x3fd69949	1.6765529
112	0xbf8df1ee	-1.1089456
113	0xbd0eb900	-0.0348444
114	0xbe2e0aa4	-0.16996247
115	0xbfe0542f	-1.7525691
116	0x3ef15cf2	0.47141224
117	0x3f09295d	0.5357874
118	0xbe9f6f2c	-0.31139505
119	0xbf5bd13f	-0.8586616
120	0xbf4681bc	-0.7754171
121	0x3e6b72f1	0.22993065
122	0x3dc941f6	0.09827034
123	0x3ffcfecc	1.9765258
124	0x3f08784e	0.5330857
125	0xbd493f1a	-0.049132444
126	0xbf57f54e	-0.8435868
127	0x3d9d3f9a	0.07678147
128	0x3f29d2ad	0.6633709
129	0xbf898032	-1.0742247
130	0x3fc0efac	1.5073142
131	0x3f00a421	0.5025044
132	0x3f761693	0.96128196
133	0x3e8809f0	0.26570082
134	0xbd037a43	-0.03209902
135	0xbef401d1	-0.47657636
136	0xc0017e08	-2.0233173
137	0xbea337d2	-0.31878525
138	0xbf10e9c8	-0.5660672
139	0x3f2a3f82	0.66503155
140	0xbfddfa14	-1.7341943
141	0x3e4a5403	0.1975861
142	0x3f27572a	0.65367377
143	0xbeffd12c	-0.49964273
144	0x3ed5a91c	0.41730583
145	0x3f6088eb	0.8770892
146	0x3f26f974	0.65224385
147	0x3ec1d8fc	0.37860858
148	0xbf6a8443	-0.91608065
149	0x403276f4	2.7885103
150	0x3f72d82b	0.94861096
151	0xbf0e3f66	-0.5556549
152	0x3f0c2947	0.54750484
153	0x3e675129	0.22589554
154	0xbf3d2a40	-0.73892593
155	0x3f176f1d	0.5915392
156	0x3f403df9	0.7509456
157	0x3fbf5bef	1.4949931
158	0x3f873e1d	1.056583
159	0xbf1becda	-0.6090828
160	0x3f871e8c	1.0556197
161	0x3f028831	0.5098906
162	0x3f3f5676	0.74741304
163	0xbef3288a	-0.47491866
164	0xbe59aace	-0.21256563
165	0xbdb60b43	-0.08888867
166	0x3f91b38a	1.1382916
167	0xbfb8f62b	-1.4450125
168	0xbf6a38fe	-0.91493213
169	0x3f81ef3f	1.0151137
170	0x3e924e82	0.28575522
171	0x3f2e81de	0.6816691
172	0x3f0486b6	0.5176805
173	0xbfab49da	-1.3381913
174	0xbf29dead	-0.663554
175	0xbf98ee15	-1.1947657
176	0x3f8c2e6e	1.0951669
177	0x3eaf3e1b	0.3422707
178	0x3f6e95f3	0.93197554
179	0x3f97e18a	1.1865704
180	0x3f2b75ef	0.6697683
181	0x3f2e6f4c	0.68138576
182	0x3e0fbad0	0.14036107
183	0xbf605de5	-0.8764327
184	0x3ccdb09a	0.025108624
185	0x3fb96273	1.4483169
186	0xbfc6c28b	-1.552812
187	0x3f945b55	1.1590372
188	0x3d7c9fce	0.06167584
189	0xbf2a6ccb	-0.66572255
190	0xbe958217	-0.29200813
191	0xbf35a9e7	-0.70962375
192	0xbf496355	-0.78667194
193	0xbedca326	-0.43093222
194	0x3f2ec5a7	0.68270344
195	0x3be203ff	0.006897449
196	0x40176dc0	2.3660736
197	0xbf59f2eb	-0.8513629
198	0x3f4964ca	0.78669417
199	0x3efb4f1d	0.49083796
200	0xbf731564	-0.94954515
201	0x3f81e898	1.0149107
202	0x3f3c9eea	0.73679984
203	0x3e561149	0.20905031
204	0x3f338bb5	0.7013505
205	0xbecf8321	-0.4052973
206	0xbce1c57c	-0.027559988
207	0xbecd35b5	-0.40080038
208	0xbd9430a3	-0.07235839
209	0x3fb55c8d	1.4168869
210	0x3f691435	0.9104646
211	0x3f17660b	0.5914008
212	0x3f949863	1.1609005
213	0x4017a56b	2.3694713
214	0x3e80d613	0.25163326
215	0xbf83b187	-1.0288552
216	0x3ef02c44	0.46908772
217	0xbf543d95	-0.82906467
218	0xbfc6cfba	-1.5532143
219	0x3e00ddc3	0.12584595
220	0x3f6ff80c	0.93737864
221	0x3f119158	0.568624
222	0x3ec4e9c1	0.3845959
223	0x3e91e4bf	0.28494832
224	0xbf295d3e	-0.661579
225	0xbfa3726c	-1.2769294
226	0x3f4c95d5	0.79916126
227	0xbd2722e7	-0.04080477
228	0x3f830005	1.0234381
229	0x3e19573f	0.14974688
230	0x3fda4fa8	1.7055559
231	0xbf998abb	-1.1995462
232	0x3e6327c6	0.22183141
233	0x3fd88488	1.6915445
234	0x3e00b9db	0.12570898
235	0x3e95e3f6	0.29275483
236	0xbda2a344	-0.07941297
237	0xbf8a2d12	-1.0795004
238	0xc0104627	-2.2542818
239	0x3e24ab31	0.1608093
240	0xbf127427	-0.57208484
241	0x3f14671f	0.5796985
242	0xc00c6ea5	-2.1942532
243	0x3f0d644a	0.55231154
244	0xbf1bfb86	-0.6093067
245	0xbec6c82b	-0.3882459
246	0xbce0ca7c	-0.027440302
247	0xbf515725	-0.81773597
248	0x3f365933	0.7122986
249	0x3e170128	0.14746535
250	0xbf67b2d6	-0.90507257
251	0x3f1765e9	0.5913988
252	0x3e57005d	0.20996232
253	0xbf80859b	-1.0040773
254	0xc04066cc	-3.0062742
255	0x3fa5a4a4	1.2940869

future_emb.embedding.1.weight f4 [7, 32]
0	0xbf9174a4	-1.1363721
1	0x3f42954e	0.7600907
2	0xbfb1a2b6	-1.387778
3	0x3fde9510	1.738924
4	0xbe117723	-0.14205603
5	0x40072bdc	2.112052
6	0xbe99864e	-0.2998528
7	0xbebea064	-0.37231743
8	0xbfbe079d	-1.4846073
9	0x3e713f22	0.2355924
10	0xc002ab8d	-2.0417206
11	0x3ef1bd4c	0.47214735
12	0x3ef9fab1	0.48824075
13	0xbf10f7b8	-0.5662799
14	0x3f38a8da	0.7213265
15	0x3fba5c97	1.4559506
16	0x3e5276c6	0.20553121
17	0x3ee0a751	0.43877652
18	0x3e6ff270	0.23432326
19	0x3ea9527a	0.33070737
20	0x3f73c4f1	0.95222384
21	0x3fea8878	1.8322897
22	0xbe063511	-0.1310618
23	0xbf243b88	-0.6415334
24	0xbeb3821c	-0.35060203
25	0xbf529a00	-0.82266235
26	0x3e9477b3	0.28997573
27	0xbf8cf0b7	-1.101096
28	0x3f95fd2c	1.1717887
29	0xbfd08e6d	-1.6293465
30	0x3f6e8a8f	0.93180174
31	0xbf258d5d	-0.6466883
32	0x3f0d8720	0.5528431
33	0xbeb359a4	-0.35029328
34	0xbf84a832	-1.0363829
35	0xbe82798f	-0.25483367
36	0xbf9a4800	-1.2053223
37	0xbf897168	-1.0737734
38	0xbd4ea5a5	-0.05045094
39	0xbeadb407	-0.33926412
40	0x3f11f6c3	0.57017154
41	0x3ffb99f4	1.9656358
42	0x3e3dc9ab	0.18533961
43	0xbe8b8e4e	-0.27257007
44	0x3e2be9d2	0.16788414
45	0x3f8ac058	1.0839949
46	0xbefb628c	-0.49098623
47	0x3e8bc390	0.2729764
48	0x3f1f11c1	0.62136465
49	0x3f8e7bba	1.1131508
50	0x3f2928bb	0.66077775
51	0x3f440517	0.76570266
52	0x3dfbf0b5	0.123017706
53	0xbf784a55	-0.9698842
54	0x3e69d0a2	0.22833493
55	0x3f4e9edf	0.8071117
56	0xbe6bb44c	-0.23017997
57	0x3e6300c6	0.22168264
58	0x3f47b682	0.7801286
59	0x3f8ba60e	1.0910051
60	0xbe7e44e3	-0.24830966
61	0xbf832afb	-1.0247492
62	0xbe3d042b	-0.18458621
63	0xbfbae5d6	-1.460139
64	0x3f4de48e	0.8042687
65	0xbc80ae2f	-0.015708057
66	0xbf18968c	-0.59604716
67	0xbdc0701c	-0.09396383
68	0x3ef4af12	0.47789818
69	0x3fa79aa2	1.3094065
70	0xbf39701b	-0.72436684
71	0xbe8f2bee	-0.27963203
72	0xbfc00f5d	-1.5004689
73	0x3ec56088	0.3855021
74	0x3f2bfcc1	0.67182547
75	0xbf4c34f6	-0.7976831
76	0x3e093696	0.13399729
77	0xbe0083cd	-0.12550278
78	0x3eea2d27	0.45737574
79	0xbea9d3e0	-0.3316946
80	0xbe12d7f1	-0.14340188
81	0x3f9f5ed1	1.2450811
82	0x3f8b5ed6	1.0888317
83	0xbf3f92a2	-0.7483312
84	0x3c3a183f	0.01135832
85	0xbf603845	-0.8758586
86	0x3ddd3dda	0.10802813
87	0x3f6cef4f	0.92552656
88	0x3e89f627	0.26945612
89	0xbea18db2	-0.31553417
90	0x3f07b45f	0.530096
91	0x3fb945fe	1.4474485
92	0xbf03cf30	-0.5148802
93	0xbf9a2fae	-1.2045801
94	0xbfda953f	-1.7076796
95	0x3f9a0e3c	1.2035594
96	0xbfa1fb0f	-1.2654742
97	0xbcadd836	-0.021221261
98	0xbf256f08	-0.64622545
99	0x3f95721d	1.167545
100	0x3e842179	0.25806788
101	0x3f0e2f57	0.55540985
102	0x3f1c7f21	0.61131483
103	0x3f4497c8	0.767941
104	0xbfa1f8ee	-1.2654092
105	0x3d95e459	0.073189445
106	0x3e3d430f	0.18482612
107	0x3ed95a2f	0.42451617
108	0x3f7b6ad4	0.9820988
109	0x3ed8b865	0.42328182
110	0x3e6b7168	0.2299248
111	0xc000953b	-2.0091083
112	0x3e97be9a	0.29637605
113	0x3f46b453	0.776189
114	0xbf020b35	-0.5079835
115	0xbfb5bd20	-1.4198341
116	0xbe5e6382	-0.21717647
117	0xbf00e364	-0.5034697
118	0x3fdacbe5	1.7093474
119	0x3eda2955	0.4260966
120	0x3f544e66	0.82932127
121	0xbf3e91e9	-0.7444139
122	0x3e308502	0.17238238
123	0x3f0c2226	0.54739606
124	0xbf0791aa	-0.5295664
125	0x3f2cc4a3	0.67487544
126	0xbf3ab935	-0.72938854
127	0xbff62790	-1.9230824
128	0x3d6e92cb	0.05824546
129	0x3ec6e038	0.3884294
130	0x3e441fc8	0.19152749
131	0x3fbe0d43	1.4847797
132	0x3d8892dd	0.06668637
133	0xbcc92011	-0.024551423
134	0xbe4b88d5	-0.19876416
135	0x3e0caf19	0.1373867
136	0xbc9ed670	-0.019389361
137	0xbdff2cc5	-0.12459711
138	0xbe8494fd	-0.2589492
139	0xbeb302a9	-0.34962967
140	0x3f7ba932	0.98305047
141	0x3f431c6b	0.7621524
142	0x3f27c5a8	0.65535975
143	0xbea19525	-0.315591
144	0xbe879de1	-0.2648764
145	0x3f609160	0.87721825
146	0xbf4ae8f4	-0.7926171
147	0xbf38083a	-0.7188755
148	0x3f08b2ae	0.53397644
149	0x3f8d57cb	1.1042417
150	0xbeddfdac	-0.433576
151	0xbe26677a	-0.1625041
152	0x3f7e4f3c	0.9933965
153	0x3f8b8696	1.0900447
154	0x3ed38cf6	0.41318482
155	0x40075cf0	2.1150475
156	0x40213434	2.5188112
157	0x3f26763f	0.6502418
158	0x3fb39d0b	1.4032301
159	0xbf062f29	-0.5241571
160	0x3fb51f3a	1.4150155
161	0xba91b797	-0.0011117336
162	0xc028724d	-2.6319764
163	0xbf5e5d81	-0.86861426
164	0x3e03d60c	0.12874621
165	0xbf540960	-0.82826805
166	0x3f4060fa	0.75147974
167	0xbf368841	-0.71301657
168	0x3f57a28d	0.8423241
169	0xbf08a16b	-0.53371304
170	0x3ece9188	0.40345407
171	0xbfd02275	-1.6260515
172	0x3ebdf257	0.37098953
173	0xbf2b54a1	-0.6692601
174	0xbfb789c9	-1.4338924
175	0xbd534067	-0.05157509
176	0xbf1399f4	-0.5765679
177	0xbecac70e	-0.39604992
178	0xbe228bef	-0.15873693
179	0xbff42ef1	-1.9076825
180	0x3e9537a9	0.29144028
181	0xbe4a3bbf	-0.19749354
182	0xc002314d	-2.034259
183	0xbf3aca04	-0.729645
184	0x3f59c4d4	0.8506596
185	0x3e69e71b	0.22842066
186	0x3f1ed9db	0.6205117
187	0xbf8cb3b6	-1.0992343
188	0x3ce86e73	0.028372979
189	0xbf998603	-1.1994022
190	0x3fc63d82	1.5487521
191	0x3ea5e3e7	0.32400438
192	0x3fadd8c5	1.3581778
193	0x3d97fbda	0.07421084
194	0x3e5ad672	0.21370867
195	0xbe830a97	-0.25594017
196	0xbeae851b	-0.34085926
197	0x3f1bb86a	0.6082827
198	0xbe8069f8	-0.25080848
199	0xbf85cf08	-1.0453806
200	0x3f8bb56c	1.091474
201	0x3fb9569a	1.4479554
202	0x3f31b0a4	0.6941016
203	0x3dde088e	0.108414754
204	0x3d40249a	0.046909906
205	0x3ebfdc73	0.37472877
206	0x3cdf89fc	0.027287476
207	0xbfea996f	-1.8328074
208	0xbdadf748	-0.08494431
209	0x3f2888eb	0.6583392
210	0x3f2a161d	0.6643999
211	0xbf385b20	-0.72014046
212	0xbee1080e	-0.43951458
213	0x3ff26af5	1.8938891
214	0xc0113d6b	-2.2693737
215	0xbfdc0cfe	-1.7191465
216	0xbf5bfabc	-0.85929465
217	0x3f79bc40	0.9755287
218	0x3f8094bb	1.0045389
219	0xc03fe058	-2.9980679
220	0xbf839a78	-1.0281515
221	0xbf089247	-0.533482
222	0x3f468172	0.7754127
223	0x3f86eac4	1.0540395

future_emb.embedding.2.weight f4 [24, 32]
0	0xbedf9d6a	-0.43674785
1	0x3f5110c4	0.8166621
2	0xc01b9506	-2.4309707
3	0x3e158ca8	0.14604437
4	0xbf2cc2ff	-0.6748504
5	0x3f90fd04	1.1327214
6	0x3f9a78fe	1.2068174
7	0x3cc790ec	0.024361096
8	0x4000b6cd	2.0111573
9	0xbfb0b039	-1.3803779
10	0xbf989e42	-1.1923296
11	0xbfa87591	-1.3160878
12	0x3e47132e	0.1944091
13	0x3fc2c401	1.5216066
14	0x3f62b40d	0.88555986
15	0x3ec0861d	0.3760232
16	0xbf82717f	-1.0190886
17	0x3faa3c6e	1.3299692
18	0x3f13dbf9	0.57757527
19	0x3f290d66	0.6603607
20	0xbfa2c908	-1.27176
21	0xbfdd83e2	-1.7305872
22	0x3f197fae	0.5996045
23	0x3cb228f9	0.021748053
24	0xbf18bdd3	-0.5966465
25	0x3fa1fd83	1.2655491
26	0xbf9bc0a8	-1.2168169
27	0xbece1bef	-0.40255687
28	0xbfbd71be	-1.4800336
29	0x3f3c2f87	0.7351002
30	0xbf851fac	-1.040029
31	0x3f9d1d32	1.2274535
32	0x3f99ba4a	1.2009976
33	0x3eb7bc8d	0.3588604
34	0xbf3c73ed	-0.7361439
35	0xbf4bc43e	-0.79596317
36	0xbf181753	-0.5941059
37	0x3e3a6170	0.18201232
38	0x40075913	2.1148117
39	0xbf042928	-0.516253
40	0x3f213ae4	0.62980485
41	0x3ecdec6f	0.40219447
42	0x3f7afdd9	0.9804359
43	0xbee9d167	-0.45667574
44	0xbdf24629	-0.11829788
45	0xbec0c826	-0.376527
46	0x3e2829dc	0.16422218
47	0xbf712955	-0.9420369
48	0xbfc1f05d	-1.5151478
49	0xbed460d9	-0.4148014
50	0xbf0e61de	-0.55618083
51	0x3f205082	0.62622845
52	0xbf078e81	-0.5295182
53	0xc03a5d26	-2.9119353
54	0x3fb0ce8d	1.3813034
55	0xbe7b080a	-0.24514785
56	0xbedee4f9	-0.43534067
57	0x3f80b01f	1.0053748
58	0xbef300d9	-0.47461584
59	0xbf810a58	-1.0081282
60	0x3f7c06d5	0.98447925
61	0xbf9e706e	-1.2378061
62	0x3f9b2e4a	1.2123501
63	0x3f46c3f1	0.7764273
64	0x3f85ec63	1.0462765
65	0x3f8ff487	1.1246499
66	0xbfa0b27f	-1.2554473
67	0xbeb144cd	-0.34622803
68	0xbca8ada4	-0.02059061
69	0x3f93522e	1.1509454
70	0x3f34003e	0.7031287
71	0xbf3680b0	-0.7129011
72	0x3f9e1f3b	1.2353281
73	0xbd2e6b24	-0.042582646
74	0x3fb5b4a5	1.4195753
75	0x3f660193	0.8984615
76	0xbdedbc80	-0.11608219
77	0x3fcf68ab	1.6203817
78	0xc0089492	-2.134068
79	0xbd9a9a5c	-0.07548973
80	0xbfe8720c	-1.8159804
81	0xbe1d0b3e	-0.1533632
82	0x3f477f54	0.7792866
83	0x3f82cf5e	1.0219533
84	0xbe00c638	-0.12575614
85	0xbf76705b	-0.9626519
86	0x3f844953	1.0334877
87	0x3f662598	0.89901114
88	0xbe1666a9	-0.14687599
89	0x3fe74961	1.8069268
90	0xbf3942f6	-0.723678
91	0xc0077d21	-2.1170123
92	0x3dae9aed	0.085256435
93	0xbed24b1b	-0.41072926
94	0x3f3b3d1a	0.7314011
95	0xbf11602e	-0.56787384
96	0x3f925c84	1.1434484
97	0x3fbe09ac	1.4846702
98	0xbff910c5	-1.9458243
99	0xbf226f2e	-0.63450897
100	0xbeffb401	-0.4994202
101	0xbec4d68c	-0.38444936
102	0xbe62a89c	-0.22134632
103	0x3fdde20c	1.7334609
104	0x3e442710	0.19155526
105	0xbfbf6602	-1.4953005
106	0x3f2f368d	0.6844261
107	0x3eed179e	0.4630708
108	0x3e190dc4	0.14946657
109	0xbf569ab7	-0.83829826
110	0x3ea8bb81	0.32955554
111	0xbf9258fd	-1.1433407
112	0xc01df932	-2.4683347
113	0x3ef05bc9	0.46945027
114	0x3df9bfe5	0.12194804
115	0x3ef2fe7e	0.47459787
116	0xbf33aee5	-0.7018874
117	0xbf5fed3e	-0.8747138
118	0x3eeca768	0.4622147
119	0x3f8d02cf	1.1016482
120	0xbfc9999a	-1.575
121	0x3f836d62	1.0267756
122	0xbfa41991	-1.2820302
123	0xc019a9ee	-2.4009967
124	0x3fdbbd53	1.7167152
125	0xbcbd3f7f	-0.023101566
126	0x3f261c67	0.6488709
127	0xbe48ed7b	-0.19621842
128	0xbc053d13	-0.008132237
129	0xbe577d71	-0.21043946
130	0xbefa9821	-0.4894419
131	0xbff49509	-1.9107982
132	0xc03dfa1d	-2.9683907
133	0x3f09d186	0.5383533
134	0x3eb8a492	0.36063057
135	0x3fba5b19	1.4559051
136	0x3fb996c2	1.4499133
137	0xbee4420b	-0.44581637
138	0x3fe49820	1.7858925
139	0x3f7abe49	0.979466
140	0xbe203ea0	-0.1564889
141	0x3fd86409	1.6905528
142	0xbf3b357b	-0.7312848
143	0xbf1cb811	-0.61218363
144	0xbe8cd6dd	-0.27507678
145	0xbe3b9ac7	-0.18320762
146	0xbf6c54f7	-0.92317146
147	0xbedf3a1f	-0.4359903
148	0xbd7c136d	-0.061541963
149	0xbfb98bea	-1.4495823
150	0x3f0c8c69	0.5490175
151	0xbedf2259	-0.43580893
152	0xbfdef5ba	-1.741874
153	0x4004b88d	2.073764
154	0xbf3c75be	-0.7361716
155	0xbf8a6a02	-1.0813601
156	0xbf2f369e	-0.68442714
157	0xbf437a69	-0.7635866
158	0xbf3b9d85	-0.7328723
159	0x3d9a1c24	0.07524899
160	0x3feae24b	1.8350309
161	0x3ef6a2e6	0.48171157
162	0x3f4f7f50	0.8105364
163	0xbe1ace8b	-0.15117852
164	0xbf5471f0	-0.82986355
165	0x3ef037da	0.4691761
166	0xbf80d9d6	-1.0066478
167	0x3f383c4c	0.71967006
168	0x3f38548a	0.72003996
169	0xbfccfae3	-1.6014065
170	0x3f694b25	0.91130286
171	0x403d0f2e	2.9540515
172	0x3de827a8	0.11335689
173	0xbe8933a3	-0.26797208
174	0x3f489941	0.78358847
175	0xbf26dc44	-0.6517985
176	0xbf0aa15a	-0.5415245
177	0x3f3d6f37	0.73997825
178	0xbf59d777	-0.850944
179	0x3f59236f	0.8481969
180	0xbffc2a5a	-1.9700425
181	0x3e6d1939	0.23154153
182	0x3f945614	1.1588769
183	0xbf815774	-1.0104814
184	0xc06148ea	-3.5200753
185	0x400c669d	2.193763
186	0xbca85c69	-0.020551877
187	0xbee3f30e	-0.44521374
188	0x3eefedd8	0.46861148
189	0xbf8d3906	-1.1033027
190	0x3e4373f7	0.19087206
191	0x4009d25e	2.1534648
192	0xbf1e6919	-0.61879116
193	0x3facf3f6	1.3511951
194	0x3f98448e	1.1895921
195	0xbc81e5fc	-0.015856735
196	0xbf1e8d9b	-0.6193482
197	0x3fa79e56	1.3095195
198	0xbf8a6711	-1.0812703
199	0xbeb5dc39	-0.3551958
200	0x40048237	2.0704477
201	0x3e0186f2	0.12649134
202	0x3f74851c	0.9551561
203	0x3ee868d4	0.45392478
204	0x40283540	2.6282501
205	0xbe930a59	-0.28718832
206	0xbdb4ccf5	-0.08828155
207	0xbf3b7e3a	-0.7323948
208	0xbf92e913	-1.1477379
209	0xbd9c0daf	-0.076197974
210	0xc0407bb7	-3.007551
211	0xbcb27b8b	-0.021787426
212	0xbf69e9a6	-0.91372144
213	0xbfce2461	-1.6104852
214	0xbf4bd4f1	-0.796218
215	0xbf61d3c5	-0.8821376
216	0xbf441ee7	-0.76609653
217	0x3fc1d432	1.5142882
218	0xbf869154	-1.0513101
219	0x3e01becd	0.12670441
220	0x3c4d72b7	0.012539557
221	0x3fd49ef1	1.6611005
222	0x3f330726	0.6993278
223	0x3fae79e3	1.3630947
224	0xbfea59a1	-1.8308603
225	0xbf870498	-1.0548277
226	0x3e92c5de	0.28666586
227	0xbee92a3e	-0.4554004
228	0xbe50310b	-0.20331208
229	0x3f9a84d2	1.2071784
230	0xbef4ae5b	-0.47789273
231	0xbe614546	-0.21999082
232	0xbf9d7388	-1.2300882
233	0xbf87f0ec	-1.0620399
234	0x3e9d982a	0.30780154
235	0xbf2176f7	-0.6307215
236	0x3e20ce65	0.15703733
237	0xbe91ae7c	-0.28453434
238	0xc017bd3d	-2.3709252
239	0x3e82eef2	0.25572926
240	0xbec17b2a	-0.3778928
241	0x3f773fe8	0.9658189
242	0xbfa00efc	-1.2504573
243	0xbf3a668a	-0.7281271
244	0xbf46ae02	-0.77609265
245	0x3f38fdf1	0.72262484
246	0x3fa5c310	1.2950153
247	0xbdbcbf31	-0.09216154
248	0xbe01630e	-0.12635443
249	0xbf1abecc	-0.6044738
250	0x3cb0fd0c	0.021605037
251	0x3f1bb32e	0.6082028
252	0x4008e84b	2.139178
253	0x3d3ebcf9	0.046566937
254	0xbe10e8e8	-0.14151347
255	0xbf87d3cd	-1.0611511

future_emb.embedding.3.weight f4 [2, 32]
0	0x3f9a2648	1.2042933
1	0x3ece92a6	0.4034626
2	0x3d61997c	0.055078015
3	0x3c848e6e	0.016181197
4	0xbe8d17d3	-0.2755724
5	0x3e379ccd	0.17930909
6	0xbecdc2eb	-0.40187773
7	0x3fbbf4e4	1.468411
8	0xbdac47cd	-0.084121324
9	0xbed6f040	-0.4198017
10	0x3f6c9db1	0.9242812
11	0xbfb29d6a	-1.3954289
12	0xbcc8a7bd	-0.024494046
13	0xbcc3e5e9	-0.02391334
14	0x3e8cd014	0.275025
15	0x3d82098a	0.06349476
16	0x3f231c24	0.63714814
17	0xbf3bebab	-0.73406476
18	0x3f54affa	0.8308102
19	0xbbab1c47	-0.005221877
20	0x401cbde9	2.4490912
21	0x3db55bcf	0.08855402
22	0x3ea946f4	0.33061945
23	0x3daf3028	0.08554107
24	0x3f202446	0.6255535
25	0xbf474b02	-0.7784883
26	0xbfcdec00	-1.6087646
27	0xbebff234	-0.37489474
28	0x3f4638f7	0.7743067
29	0x3b69a904	0.003565372
30	0x3fcb656c	1.5890326
31	0xbe128a04	-0.14310461
32	0x3f37e9ca	0.7184111
33	0x3cdcabe1	0.026937427
34	0x3ff7db6c	1.9363837
35	0xbb0f7c87	-0.0021894292
36	0xbfc20a24	-1.5159345
37	0x3e869bd9	0.26290777
38	0x3f496079	0.7866283
39	0x3e4c3bb1	0.19944645
40	0x3f365434	0.71222234
41	0xbfc9863f	-1.5744094
42	0xbff2984d	-1.8952729
43	0xbf3018d3	-0.6878788
44	0x3c16d13b	0.009205158
45	0x3fbb05ef	1.4611186
46	0x3ea304d9	0.31839636
47	0x3c91d447	0.017801417
48	0xbe24fde9	-0.16112484
49	0xbf4beb34	-0.79655766
50	0x3fbcb438	1.4742498
51	0xbbca178f	-0.006167359
52	0x3f62e2e7	0.88627476
53	0x3f8a502b	1.0805715
54	0x3d9ba0f6	0.0759906
55	0x3d341549	0.04396561
56	0x3f20402b	0.6259791
57	0xbf0a7825	-0.54089576
58	0xbf196d83	-0.59932727
59	0xbd9d5b05	-0.07683376
60	0xbf2c7811	-0.67370707
61	0xbef70461	-0.48245528
62	0x3e525d0a	0.20543304
63	0xbc95cd4e	-0.018286373

category_emb.embedding.0.weight f4 [32, 32]
0	0xbf18deab	-0.59714764
1	0xbf84750d	-1.0348221
2	0x3ed78fb2	0.42101818
3	0xbf0c87d8	-0.5489478
4	0xbfa083b5	-1.2540194
5	0xbfa282df	-1.2696189
6	0x3f26342f	0.64923376
7	0x3e6fa586	0.23402986
8	0xbe1f0b0d	-0.1553156
9	0xbede7357	-0.43447372
10	0xbf8c51c2	-1.096245
11	0xbf8fbdda	-1.1229813
12	0xbfeec80b	-1.8654798
13	0xc007ba72	-2.1207547
14	0xbf2c047b	-0.67194337
15	0xbf4187f9	-0.755981
16	0xbf85c1fb	-1.0449823
17	0xbe8f523d	-0.2799243
18	0x3f9ae6b8	1.210166
19	0xbf7d0fad	-0.98852044
20	0x3eb34e6b	0.35020766
21	0xbe876291	-0.26442388
22	0xbf8815d1	-1.0631658
23	0xbf3f5c10	-0.7474985
24	0x3ea73827	0.32660028
25	0xbeffa3db	-0.499297
26	0xbfbc5a3e	-1.471504
27	0x3f009af9	0.5023647
28	0x3edb21b0	0.4279914
29	0x3f808456	1.0040386
30	0x3fdaa774	1.7082353
31	0xbe888d7e	-0.2667045
32	0xbf5312f2	-0.82450783
33	0x3fbd0634	1.4767518
34	0x3f80f626	1.0075119
35	0x3e805660	0.250659
36	0x401bc2b6	2.4337592
37	0x3f4aadcb	0.7917144
38	0xbfa0aecd	-1.2553345
39	0x3e428b6a	0.18998495
40	0x3e37baee	0.17942402
41	0xbe88ce71	-0.26720002
42	0x3f972260	1.1807365
43	0x3f01690e	0.50550926
44	0x3c8903b6	0.016725402
45	0x3fcd4a55	1.6038309
46	0xbfda931a	-1.7076142
47	0x3f46c4f5	0.7764428
48	0xbf4accdb	-0.79218835
49	0xbf04e561	-0.51912504
50	0xbe73a968	-0.23795092
51	0xbedc5aa5	-0.43037906
52	0x3edf57d4	0.43621695
53	0x3f306945	0.6891063
54	0x3f1f3722	0.621935
55	0x3fa9019a	1.3203614
56	0x3eb5e168	0.35523534
57	0x3ea241df	0.3169088
58	0x3e35b6a9	0.1774546
59	0x3e7fbd18	0.24974477
60	0xbdb82d46	-0.0899301
61	0xbe88ea07	-0.2674105
62	0xbeab7fb0	-0.33495855
63	0x3f17dbee	0.5931996
64	0x3f470041	0.7773476
65	0x3f82bb55	1.0213419
66	0xbf73bfd4	-0.9521458
67	0x3e8a2cab	0.26987204
68	0x3e99446a	0.29935008
69	0x3d826cdf	0.06368422
70	0xbed4cb5b	-0.41561398
71	0x3d9ef9f9	0.07762522
72	0xbe1b2ddf	-0.15154217
73	0x3e2d0e64	0.16900021
74	0x3e4b233d	0.19837661
75	0x3f1c3f1a	0.61033785
76	0xbf91a88f	-1.1379565
77	0xbfcf0e04	-1.6176152
78	0xbf049796	-0.517938
79	0xbd97cb63	-0.0741184
80	0x3eddf184	0.43348324
81	0x3f40f861	0.75378996
82	0x3f4cdff0	0.800292
83	0xbf1a63cf	-0.60308546
84	0xbf37c2cc	-0.7178161
85	0xbe3bf5c5	-0.18355472
86	0x3dca9751	0.098921426
87	0x3f2dd3b0	0.67901134
88	0xbf00ebc0	-0.50359726
89	0x3e9d3438	0.30703902
90	0x3fc0ed5d	1.5072438
91	0x3e77fad3	0.24216776
92	0x3f838c7a	1.0277245
93	0x3f193bbb	0.59856766
94	0x3c3d0fc8	0.011539407
95	0xbf5cd35d	-0.86260015
96	0xbf987c5e	-1.1912954
97	0xbf61c78b	-0.88195103
98	0x3e94fa1b	0.29097065
99	0xbee4292b	-0.4456266
100	0x3f3f0b9a	0.7462708
101	0xbef65835	-0.48114172
102	0x3f431a6d	0.762122
103	0xbf92031e	-1.1407201
104	0xbfbe5cad	-1.4872032
105	0x3e8e1a94	0.27754653
106	0xbec65ee9	-0.38744286
107	0xbedca465	-0.43094173
108	0x3f793d20	0.97358894
109	0xbf200a8b	-0.6251609
110	0x3e95631d	0.2917718
111	0x3f222297	0.6333403
112	0xbf014d85	-0.5050891
113	0x3fc7e290	1.5616016
114	0x3d960303	0.07324793
115	0x3f8e3bcb	1.1111997
116	0xbc06a40f	-0.008217826
117	0x3f787759	0.9705711
118	0xbfa6a163	-1.3018001
119	0xbf727775	-0.94713527
120	0xbf960a0e	-1.1721818
121	0xbeacd693	-0.33757457
122	0xbcc2e883	-0.02379251
123	0x3ef624b9	0.48074892
124	0x3e61d231	0.22052838
125	0xbf620d71	-0.8830176
126	0xbed80f00	-0.42198944
127	0xbe993173	-0.2992054
128	0x3ec5700e	0.38562053
129	0x3f0f6125	0.56007606
130	0x3f55e4c9	0.83552223
131	0xbfb3f42b	-1.4058889
132	0xbde469de	-0.11153005
133	0xbef1af24	-0.47203934
134	0x3f018aae	0.50602233
135	0xbf0a7990	-0.5409174
136	0x3f91c4a6	1.1388137
137	0xbf1202a9	-0.5703531
138	0xbf6d0ffa	-0.92602503
139	0xbc2fbefd	-0.0107266875
140	0x3f4e86d4	0.8067448
141	0xbf707b44	-0.9393809
142	0x3e4d8b24	0.20072609
143	0xbf39b488	-0.72541094
144	0xbe6277fa	-0.2211608
145	0xbf20649c	-0.6265352
146	0x3c146a8b	0.009058605
147	0x3effa2cf	0.499289
148	0xbf2a5b5d	-0.6654566
149	0x3f7f60fc	0.9975736
150	0x3f825514	1.0182214
151	0xbeabf8b6	-0.3358819
152	0x3e1826f3	0.14858608
153	0x3e442c2d	0.19157477
154	0xbd807b05	-0.06273464
155	0x3e30eabb	0.17277043
156	0xbf0f05ec	-0.5586841
157	0xbfcedf7c	-1.6161952
158	0xbeb0a1bb	-0.3449839
159	0xbeebb1a5	-0.4603397
160	0xbe0b6b9c	-0.13615268
161	0xbd8402c3	-0.06445839
162	0xbf9599c4	-1.168755
163	0x3f3fc143	0.7490427
164	0x3efa8a4d	0.4893364
165	0x3f938468	1.1524782
166	0x3f2f4217	0.6846022
167	0xbfb688fc	-1.4260554
168	0x3e8e081e	0.27740568
169	0xc0081ddd	-2.1268227
170	0xbfd36131	-1.6514035
171	0xbe0862a5	-0.1331888
172	0xbf4820f8	-0.78175306
173	0x3faa88e2	1.3323023
174	0xbf0cf905	-0.55067474
175	0x3f939d21	1.1532327
176	0x3f8d646e	1.1046274
177	0xbe82088d	-0.2539715
178	0x3eb87e5f	0.36033913
179	0x3ecc049f	0.39847276
180	0xbee7fdc7	-0.45310804
181	0x3e86db85	0.26339355
182	0x3fa51882	1.2898104
183	0x3fbb120e	1.4614885
184	0xbf14f223	-0.5818197
185	0xbf8cc089	-1.0996257
186	0xbee80d70	-0.45322752
187	0xbd548492	-0.05188424
188	0xbe2388a8	-0.15970099
189	0xbd6dcc5f	-0.05805623
190	0x3e6dc6d9	0.23220386
191	0x3eb68e36	0.35655373
192	0xbf9aacd5	-1.2083994
193	0xbf52a61e	-0.82284725
194	0xbf404e06	-0.75119054
195	0x3fb6f834	1.4294496
196	0x3f89229f	1.071369
197	0x3fdc3139	1.7202522
198	0x3e1547e4	0.14578205
199	0x3e00f0f3	0.12591915
200	0xbec64415	-0.38723817
201	0xbebf39e2	-0.3734885
202	0xbf907999	-1.1287109
203	0x3f86b4eb	1.0523962
204	0x3ffbd9ac	1.9675803
205	0x3e5fbcbc	0.2184934
206	0x3f646d76	0.89229524
207	0xbfb39cd1	-1.4032232
208	0xbee7edc2	-0.45298582
209	0xbe1dd5c7	-0.15413581
210	0xbee5474f	-0.44780967
211	0xbf6335ae	-0.88753784
212	0x3f2c9ef6	0.67430055
213	0xbeee859b	-0.46586308
214	0xbf9c2887	-1.2199868
215	0x3c12cd35	0.008960058
216	0xbfb176b0	-1.3864346
217	0xbe82bf56	-0.25536603
218	0x3f5fac27	0.8737206
219	0x3f8111f5	1.0083605
220	0x3fdc3ce4	1.7206082
221	0xbf1cee36	-0.6130098
222	0xbfd7bff6	-1.6855457
223	0xbd53a835	-0.051674087
224	0xbfc55337	-1.541602
225	0x3f5ac930	0.8546324
226	0x3e9a6826	0.30157584
227	0xbfe19183	-1.7622532
228	0x3f51263c	0.81698966
229	0xbfa396fa	-1.2780449
230	0xbf26534e	-0.6497086
231	0xbf34feee	-0.7070149
232	0x3e89ecfc	0.26938617
233	0xbf1d264e	-0.61386573
234	0x3f86f311	1.0542928
235	0xbf128e25	-0.57248145
236	0xbf60df68	-0.8784089
237	0xbe93eac6	-0.28890055
238	0x3fa2dfa2	1.2724497
239	0xbee0f1c2	-0.43934447
240	0xbe4fca42	-0.20291999
241	0x3fe97db4	1.8241487
242	0xbfcd4e41	-1.6039506
243	0x3dde9cbb	0.10869738
244	0xbf0777f0	-0.52917385
245	0xbf1dac77	-0.61591285
246	0xc0410952	-3.0161939
247	0x3f8d1e5c	1.102489
248	0xbf3b99a3	-0.73281306
249	0x3d81e81a	0.06343098
250	0xbfa05993	-1.2527336
251	0xbeb736e9	-0.3578408
252	0xbef241ae	-0.47315735
253	0x3e099860	0.13437033
254	0xbe769051	-0.2407849
255	0xbe4e24b0	-0.20131183

category_emb.embedding.1.weight f4 [7, 32]
0	0xbf2743db	-0.65337914
1	0xbef1eae0	-0.47249508
2	0xbf93ba9e	-1.1541326
3	0x3e06ef5c	0.13177246
4	0x3e805fba	0.25073034
5	0x3e817002	0.25280768
6	0xbf5d3d82	-0.8642198
7	0x3ebcbd17	0.36863014
8	0x3f0117ab	0.5042674
9	0x3e581cf7	0.21104799
10	0xbe67f710	-0.2265284
11	0x3e9f67ef	0.31133983
12	0xbf82e4ae	-1.0226038
13	0x3f87f1c5	1.0620657
14	0xbf1df13e	-0.6169623
15	0x3eef93c9	0.4679244
16	0x3f1ab28e	0.604287
17	0x3ef711b1	0.48255685
18	0xbefebfa7	-0.49755594
19	0xbf9a02b2	-1.2032073
20	0xbcdb8bfb	-0.026800146
21	0xbe0d2175	-0.13782294
22	0x3f29ee50	0.6637926
23	0x3f13789f	0.5760593
24	0x3c93d030	0.018043607
25	0xbef92fe6	-0.48669356
26	0xbe18c6ab	-0.14919536
27	0xbe27c14e	-0.16382334
28	0xbd455df8	-0.04818532
29	0x3f2fce51	0.6867419
30	0x3dca24b2	0.0987028
31	0x3d929576	0.07157414
32	0x3e330e12	0.17485836
33	0x3f41042b	0.75396985
34	0xbecc8825	-0.3994762
35	0xbf178442	-0.59186184
36	0xbf899066	-1.0747192
37	0xbd0a37e0	-0.033744693
38	0x3f3c59c6	0.73574483
39	0x3e9c0571	0.304729
40	0xbec26525	-0.37967792
41	0x3d8908be	0.066911206
42	0x3f79304c	0.9733932
43	0xbf321c5d	-0.6957453
44	0x3f9375f4	1.1520371
45	0x3e42afde	0.190124
46	0xbefecfcd	-0.49767914
47	0x3dcd8822	0.10035731
48	0x3f1ad8a9	0.6048685
49	0x3f9ac543	1.209145
50	0xbe3aac99	-0.18229903
51	0xbee3ab79	-0.4446676
52	0x3e389771	0.1802652
53	0xbe240ce1	-0.16020538
54	0xbf2d729f	-0.6775302
55	0xbf0f2e09	-0.5592962
56	0x3bff66df	0.0077942456
57	0x3e5940f6	0.21216187
58	0xbe5b2537	-0.21400915
59	0x3eeae1f8	0.45875525
60	0xbde41e1a	-0.11138554
61	0x3ed10061	0.40820602
62	0xbf074acd	-0.5284851
63	0xbd03fa39	-0.032221053
64	0x3cd6f123	0.02623803
65	0x3df7758c	0.12082967
66	0xbd916274	-0.070988566
67	0xbd048f1c	-0.032363042
68	0x3eb5e3b0	0.35525274
69	0xbf3cd55c	-0.7376306
70	0xbf65c312	-0.8975078
71	0x3e45b373	0.19306736
72	0x3f4ac0d3	0.79200476
73	0xbf11f8ee	-0.5702046
74	0xbf8b3e6a	-1.0878422
75	0x3f1f494d	0.62221223
76	0xbc9bbe6b	-0.019011697
77	0xbe68c93f	-0.2273302
78	0xbf436bf0	-0.76336575
79	0x3f96aa6f	1.1770762
80	0xbe22faeb	-0.1591603
81	0x400129a6	2.018167
82	0x3f8c402c	1.0957084
83	0xbe49b4fd	-0.19697948
84	0xbc578a63	-0.013155553
85	0x3e11158c	0.14168376
86	0xbee8e31e	-0.45485777
87	0x3ed37edb	0.4130772
88	0xbe6a9e41	-0.22911932
89	0xbf8fd47e	-1.1236722
90	0xbec55035	-0.38537756
91	0xbe298d6f	-0.16557859
92	0x3de46210	0.111515164
93	0xbf0efbf1	-0.5585318
94	0x3e88a406	0.2668764
95	0xbdd52675	-0.10407726
96	0x3f79c460	0.9756527
97	0x3e4b128e	0.19831297
98	0x3f3b075e	0.73058116
99	0x3e7ae4c9	0.24501337
100	0xbe3a353a	-0.18184367
101	0xbfac8aca	-1.3479855
102	0xbe78c4f8	-0.24293888
103	0x3ee83747	0.45354673
104	0x3ec94d3e	0.39316744
105	0xbe16f05e	-0.1474013
106	0x3e5077b1	0.20358159
107	0xbf02f809	-0.5115972
108	0x3f1ae104	0.60499597
109	0x3f7ef918	0.99598837
110	0xbf0110f1	-0.50416476
111	0xbd4ede03	-0.050504696
112	0x3d1c1522	0.03810609
113	0x3f20d973	0.628318
114	0x3f859fb8	1.0439367
115	0xbf505005	-0.813721
116	0xbdf54801	-0.11976624
117	0x3d1826b5	0.03714629
118	0xbee9ea27	-0.45686457
119	0xbf90d2d2	-1.1314337
120	0x3eae4c05	0.34042373
121	0xbecc7ce6	-0.3993904
122	0xbe738489	-0.23781027
123	0xbe4cf416	-0.20014986
124	0xbce59b8a	-0.028028268
125	0xbea07a9b	-0.3134354
126	0xbe56d93e	-0.20981309
127	0x3dc78d46	0.09743743
128	0x3f93594c	1.1511626
129	0x3dc530db	0.09628459
130	0xbed2cdd5	-0.41172662
131	0x3e5c9d28	0.21544325
132	0x3d2297fd	0.03969573
133	0xbe01f5a3	-0.12691359
134	0xbea2251f	-0.31668946
135	0x3e967e90	0.29393435
136	0xbf70f721	-0.9412709
137	0xbf1215f7	-0.57064766
138	0x3f973136	1.1811893
139	0xbe052692	-0.13002995
140	0xbebcd936	-0.3688447
141	0xbf62b20b	-0.8855292
142	0xbe93b154	-0.28846228
143	0x3f4420c4	0.76612496
144	0x3e2a2597	0.16615902
145	0x3f74a7d3	0.9556858
146	0x3e2d2ea3	0.16912322
147	0xbf78f316	-0.9724592
148	0xbde4d6c2	-0.11173774
149	0x3e852e20	0.26011753
150	0xbeedffbd	-0.46484175
151	0x3f880e62	1.0629389
152	0xbb80e4fb	-0.0039335466
153	0x3eeb6386	0.45974368
154	0x3e046489	0.12928976
155	0xbf1f1fcb	-0.6215789
156	0xbda13493	-0.07871356
157	0x3e25f261	0.16205741
158	0xbe9d71d9	-0.3075092
159	0x3eaa05fa	0.33207685
160	0xbf5141ef	-0.8174123
161	0xbfa75a89	-1.3074504
162	0xbfa0601d	-1.2529331
163	0x3e33e15c	0.17566437
164	0xbde2b15f	-0.11068987
165	0x3e01b726	0.12667522
166	0x3df7cf74	0.121001154
167	0x3fddb68e	1.7321336
168	0x3ed22d77	0.41050312
169	0x3f3e06ff	0.74229425
170	0x3f9f76fa	1.2458184
171	0xbcad0cec	-0.021124326
172	0x3fab43c7	1.3380059
173	0xbf524259	-0.8213249
174	0xbfbc0384	-1.4688573
175	0xbe7686ca	-0.24074855
176	0xbed879df	-0.4228048
177	0xbf994ab9	-1.1975929
178	0x3db09199	0.086215205
179	0xbd6e8f29	-0.058241997
180	0xbb22ce78	-0.0024842303
181	0x3eef7ca9	0.46774796
182	0x3f71e75f	0.9449367
183	0xbebddabb	-0.3708094
184	0x3c871290	0.016488343
185	0xbe65dd8c	-0.22447795
186	0xbf2fbecb	-0.686505
187	0xbe5dc849	-0.21658434
188	0xbd5201eb	-0.05127136
189	0x3e983c1f	0.2973337
190	0x3db67b9c	0.08910295
191	0xbece46a0	-0.40288258
192	0x3f6b0187	0.91799206
193	0xbf129347	-0.5725598
194	0xbdff2790	-0.12458718
195	0xbec72d34	-0.38901675
196	0x3e0f0ea9	0.13970436
197	0x3f46fd61	0.77730376
198	0x3f0314c7	0.5120358
199	0xbed13ffa	-0.40869123
200	0xbee4bc9e	-0.44675153
201	0x3eba5ce5	0.36398998
202	0x400f4904	2.2388315
203	0x3f018561	0.50594145
204	0x3edbea90	0.42952394
205	0xbe6463c8	-0.22303689
206	0x3faa86bd	1.3322369
207	0x3f4f6c44	0.81024575
208	0xbf0dccbb	-0.5539052
209	0x3fb8a59f	1.4425544
210	0x3f4892ea	0.78349173
211	0xbf8eb492	-1.1148856
212	0x3dbe8bd8	0.09304017
213	0xbf49f713	-0.7889263
214	0x3eef8402	0.467804
215	0xbf9b2a6e	-1.2122324
216	0xbd9406ee	-0.07227884
217	0xbfb3a960	-1.4036064
218	0xbf4e8dbd	-0.80685025
219	0xbec42695	-0.38310686
220	0x3d9b958d	0.07596884
221	0xbedb527b	-0.42836365
222	0x3ef5b00e	0.47985882
223	0xbeb24a9b	-0.34822544

category_emb.embedding.2.weight f4 [24, 32]
0	0x3d0440a0	0.032288194
1	0xbfe80f24	-1.812962
2	0xbf075b12	-0.5287334
3	0x3cf04fc6	0.029334914
4	0x3f9a2b44	1.2044454
5	0xbfe8d28d	-1.8189255
6	0x3dc3e365	0.095648564
7	0xbf5591a5	-0.8342536
8	0xbe7133aa	-0.23554865
9	0xbe2a8c79	-0.16655149
10	0x3f1159cc	0.56777644
11	0x3ed93098	0.42419887
12	0xbeb9a608	-0.36259484
13	0x3f022393	0.5083553
14	0xbf161b06	-0.58634984
15	0xbee88801	-0.45416263
16	0x3f1fa823	0.6236593
17	0xbeae9707	-0.340996
18	0xbdbf175f	-0.093306296
19	0xbf6790cf	-0.90455335
20	0xbf660e8b	-0.8986594
21	0x3e2e9ebe	0.17052743
22	0xbf0baca6	-0.54560316
23	0x3eeaece2	0.45883852
24	0x3f778034	0.9668
25	0x3f350f5e	0.70726573
26	0xbea32383	-0.3186303
27	0xbfdde558	-1.7335615
28	0xbeaa3606	-0.33244342
29	0xbf2851ca	-0.657498
30	0xbfbe40e2	-1.4863551
31	0x3f4202ac	0.75785327
32	0xc01ac428	-2.4182224
33	0xbfdb1230	-1.7114925
34	0x3f807423	1.0035442
35	0x3e7daa9e	0.24772117
36	0x3fb9e207	1.4522103
37	0x3f27840e	0.65435874
38	0x3e1e35dc	0.15450233
39	0xbfcbf288	-1.593339
40	0x3e844f2a	0.25841647
41	0xbf16c77f	-0.58898157
42	0xbf0a4805	-0.54016143
43	0x3ead1d87	0.3381159
44	0xbe8ffd08	-0.28122735
45	0xbcf6f302	-0.030145172
46	0xbdf9e60c	-0.12202081
47	0xbf9f7625	-1.245793
48	0xbec14211	-0.37745717
49	0x3f031493	0.5120327
50	0x3e37797c	0.17917436
51	0xc0004ba5	-2.004617
52	0x3f8aac54	1.083384
53	0x3fa7d2ab	1.3111166
54	0x3f2b4e45	0.66916305
55	0xbefaecaa	-0.49008685
56	0xbe9bf9a6	-0.30463904
57	0x3eecb67f	0.46232983
58	0x3ec0ac51	0.37631467
59	0xc037b14f	-2.870197
60	0xbf696d22	-0.9118215
61	0x3f266140	0.6499214
62	0xbe9b0a53	-0.30281314
63	0xbe809361	-0.2511244
64	0xbed880a1	-0.42285636
65	0xbf1ae5b2	-0.6050674
66	0x3ecc51c8	0.39906144
67	0xbeee5748	-0.46550965
68	0x3f36cab7	0.7140307
69	0xbfa24706	-1.2677925
70	0xbdadabf7	-0.08480065
71	0xbf312b0e	-0.6920632
72	0x3f39ae77	0.7253184
73	0xbec1af2e	-0.37828964
74	0xbf6ca01b	-0.924318
75	0xbec00067	-0.37500307
76	0x3dce252c	0.10065684
77	0xbecb81c6	-0.39747447
78	0xbf803c82	-1.0018466
79	0x3f10d91e	0.56581295
80	0x3f06b08b	0.52613133
81	0x3ec170f9	0.37781504
82	0x3f8e13d6	1.1099803
83	0xbf5dfcd9	-0.8671394
84	0xbecf27af	-0.40459964
85	0xbe91dbf7	-0.28488132
86	0x3f6e3ce0	0.9306164
87	0xbfa68bbb	-1.3011392
88	0x3cc1328a	0.02358367
89	0x3f9e11b0	1.2349148
90	0x3e875c68	0.26437688
91	0xc004139b	-2.0636966
92	0x3f33b8bd	0.70203763
93	0x3ecb61a5	0.39722934
94	0xbf8e9392	-1.1138785
95	0x3f7f7873	0.99793166
96	0xbfaa33ff	-1.3297118
97	0xbf710bda	-0.9415871
98	0x3f039456	0.5139822
99	0xbe700701	-0.23440172
100	0x3ece2ded	0.40269414
101	0xbe37ebfe	-0.17961118
102	0x3f9c905c	1.2231555
103	0x3daf1c15	0.08550278
104	0x3f9e16a9	1.2350665
105	0x3dd970d2	0.10617222
106	0xbf1458bd	-0.57947904
107	0xbf84de71	-1.0380384
108	0x3f1faabe	0.62369907
109	0x3ef28606	0.47367877
110	0xbe3414f1	-0.17586114
111	0x3f4cd7a3	0.80016536
112	0x3f379af6	0.71720827
113	0x3f935634	1.1510682
114	0xbfed28f4	-1.8528123
115	0x3e857afe	0.26070398
116	0xbfa38250	-1.2774143
117	0xbed51253	-0.41615543
118	0x3f1326ac	0.57480884
119	0x3d1ddd13	0.03854091
120	0xbf9c9ab1	-1.2234708
121	0x3f1473a8	0.5798898
122	0xbee9dbcc	-0.45675504
123	0xbfc1895a	-1.5120041
124	0xbfd3a455	-1.6534525
125	0x3f53b4ce	0.8269776
126	0x3f146faa	0.57982886
127	0x3fd3e39c	1.6553836
128	0xbf75c2e2	-0.9600049
129	0xbf8f19fe	-1.1179807
130	0xbe945468	-0.28970647
131	0xbf3f191a	-0.74647677
132	0x3f9ecb52	1.2405798
133	0x3f409dd0	0.752408
134	0xbfb53269	-1.4156009
135	0xbf5d9fcb	-0.8657195
136	0x3fee1f69	1.8603336
137	0xbae19fd1	-0.0017213767
138	0xbf24e6d4	-0.64414716
139	0xbf55bc8c	-0.83490825
140	0xbeb45009	-0.35217312
141	0x3e42b2cf	0.19013523
142	0x3f525f63	0.821768
143	0x3f1fe8ad	0.6246441
144	0x3fb4917e	1.4106901
145	0xbd9d3cae	-0.07677589
146	0x3cd935ec	0.02651497
147	0xbed6dd8e	-0.41965908
148	0xbf2d4953	-0.6769001
149	0xbe4ce35f	-0.2000861
150	0x3fad772a	1.3551991
151	0xbf7ae5dd	-0.98006994
152	0xbf1d9180	-0.6155014
153	0xbf1ccbb7	-0.61248344
154	0xbf28f418	-0.6599746
155	0xbfb4af17	-1.4115933
156	0xbf0bb098	-0.54566336
157	0xbe0021f7	-0.12512957
158	0xbf3ff8cd	-0.74989015
159	0x3f7c06fe	0.9844817
160	0xbec1cbbf	-0.37850758
161	0x3f0f9089	0.5607992
162	0x3dfacb15	0.12245766
163	0xbfa1595d	-1.2605397
164	0x3dae20d4	0.08502355
165	0x3fe7c932	1.8108275
166	0x3ea9e925	0.33185688
167	0x3f6ff5d5	0.93734485
168	0x3f905aec	1.1277747
169	0x3f9ce323	1.2256817
170	0x3f847e6b	1.035108
171	0x3f02bd14	0.5106976
172	0xbf6f07d6	-0.9337133
173	0x3f13e42f	0.57770056
174	0xbf1e6c02	-0.61883557
175	0x3e53d7ca	0.20687786
176	0xbf52584e	-0.8216599
177	0x3f5feb61	0.87468535
178	0xbf109847	-0.56482357
179	0xbfae62f0	-1.3623943
180	0xbf82c170	-1.0215282
181	0xbef81bd9	-0.48458746
182	0xbf0828b9	-0.5318714
183	0xbe096e84	-0.13421065
184	0xbe8b73ac	-0.27236688
185	0x3f4a531c	0.79033065
186	0xbf3c8f7a	-0.7365643
187	0xbf84dcfd	-1.037994
188	0xbf9cccf9	-1.2250053
189	0xbe0afdef	-0.1357343
190	0x3f0b6760	0.5445461
191	0x40487db3	3.132672
192	0xbf190bc8	-0.597836
193	0x3e23adbe	0.15984246
194	0xbe46f8ac	-0.19430798
195	0xbf9b8410	-1.2149677
196	0x3d39df1d	0.045378793
197	0x3f60810c	0.8769691
198	0x3f7c0e11	0.98458964
199	0xbf17b655	-0.5926259
200	0xbf8a5e91	-1.0810109
201	0x3f1d2f70	0.6140051
202	0x3f5c3659	0.8602043
203	0x3fcd8238	1.6055365
204	0xbf2b7c4a	-0.66986525
205	0xbe1bf7ef	-0.15231298
206	0xbf4d07a6	-0.80089796
207	0x3ebaee00	0.36509705
208	0xbf571115	-0.8401044
209	0xbec72671	-0.38896516
210	0xbe1dca77	-0.15409265
211	0xbc92b22a	-0.01790722
212	0xbe4456d7	-0.19173752
213	0x3e0b911b	0.13629572
214	0x3fd7f0c5	1.6870352
215	0x3f86fc67	1.0545777
216	0xbf81388e	-1.0095384
217	0xbf89c6a4	-1.0763745
218	0xbfa4536e	-1.2837961
219	0xc0008cf2	-2.0086026
220	0x3f4464dd	0.76716405
221	0xbf221f86	-0.6332935
222	0xbef7b34c	-0.4837898
223	0x3efde8f6	0.49591798
224	0xbf1eb896	-0.62000406
225	0x402d1a9e	2.7047496
226	0xbeac81b9	-0.3369272
227	0x3f81a406	1.0128181
228	0xbe2169ac	-0.15762967
229	0xbe420f22	-0.18951085
230	0xbf5d5b3f	-0.86467355
231	0xbf01ba19	-0.5067459
232	0x3f396c26	0.72430646
233	0xbe121687	-0.14266406
234	0x3f9b67f9	1.2141105
235	0x3f09d98d	0.5384758
236	0xbf3bd5c2	-0.73373044
237	0xbf1be7fb	-0.6090085
238	0xbfa087f9	-1.2541496
239	0x3e901cab	0.28146872
240	0xbfa471f1	-1.2847272
241	0x3ebb03cb	0.3652633
242	0x3ed263cb	0.4109176
243	0xbedc34ef	-0.43009135
244	0xbed0bac3	-0.40767488
245	0xbdf573a8	-0.1198495
246	0x3f4ce4b1	0.80036455
247	0x3f3dff29	0.7421747
248	0xbf51cada	-0.8195015
249	0xbfbcd2f4	-1.4751878
250	0xbf30d4ba	-0.69074595
251	0x3f156775	0.5836099
252	0xbec85cb6	-0.39133233
253	0xbc87c4fd	-0.016573424
254	0xbf910f54	-1.1332803
255	0x3f13d2a7	0.57743305
