TFT_power/best_model/best3.pth (torch, 147258 bytes, 348 tensors)

static_cate_emb.embedding.0.weight f4 [101, 8]
00000000: 29a5 f63f 535f be3f 6795 663f dbc0 06c0
00000010: d5ac 2d3f 9105 9ebf 8667 30bd ba65 cdbf
00000020: 4ca3 afbf 7c6b 7d3f acc4 2cbf 65e5 e6be
00000030: c57e 20bf 7ed8 b83e 940d 85bf 0f18 da3f
00000040: b8de d1bd 0187 65bd d22d b7bf 1afc 773f
00000050: b2ea 71bf cdcb 8d3f a4b4 5c3f 3c11 813f
00000060: 135e d93e e81f 183f 1133 86ba 14ce cd3f
00000070: f1d8 e2be 2820 8bbf cfed b33e c1c6 0f3f
00000080: b6a3 7c3f 0537 4cbf ecb3 e5be 17e1 c93f
00000090: dd07 753f 623c 45bf cc19 96bf 79e3 80bf
000000a0: 2807 1ebf 5dd6 083f 61cb 16c0 93ed 883f
000000b0: 4848 8ebf 8324 983f cfa8 04bf 3bc3 9c3e
000000c0: 75d7 623f 7cb8 223d b056 54be 6c5c 993f
000000d0: a17d 4cbf 1f52 c13f a5d3 21bf 5ed8 b23c
000000e0: 332f 01c0 b97d 3d3e 10c8 be3e f878 41bc
000000f0: 18c8 d13f 8ecc d63f eac2 4bbf 5ff6 3d3f
00000100: 743c 2cbd 9e94 fdbe bfa0 b33f 8dad 283f
00000110: d94d dbbe d757 09c0 b305 45bd 7a6b de3f
00000120: 5075 733f add5 20be ed3a a53e 0ade f43d
00000130: c2e9 1040 1221 1ebf bc00 bdbf 23e4 cdbd
00000140: b868 7dbf 3e54 22bf 1970 68bf cb4b 80be
00000150: 6fee cabd 1de3 9fbc 80dd d43f 90aa 093e
00000160: 1d83 183f ae7b 8ebd 2b19 89bf 7618 063f
00000170: 6d05 ddbf 6707 9c3e 71f9 9f3f c4c5 553f
00000180: e7c1 1cc0 179b bd3d e36d 3e3f 4516 593f
00000190: 5ce0 993f fddb 8f3f 6041 d93d a2df 463f
000001a0: 9f02 43bf ce11 20bf ba9a c0bd cef0 ba3e
000001b0: 7ba5 013f d8aa 09be 63bf 913f 4f11 b0bd
000001c0: 62c9 a5bf a29e 5ebe 5328 7ebc ed11 40be
000001d0: dfae 54be 5f45 b2bf 3cf0 373f 0da5 4b3f
000001e0: 7788 283e d0b3 3fbf 1286 573f ca86 81bd
000001f0: 48f3 c0bd 76d5 97bf 8c76 46be 53ab 453f
00000200: fe9e 92bf fcc4 d53e 3c95 2ac0 f541 84bf
00000210: 747e 1940 9be9 7b3f 4f26 d83d c436 c8be
00000220: cd3f fb3f 4613 b73e 4d05 f23f ead5 a8bf
00000230: 9fc3 83bf b30f f13e 5abd 0e3f 4f94 8dc0
00000240: c72b 62bf 1a27 5e3f a9e7 3140 de50 7f3e
00000250: 3877 32bf 99f1 093f 8ad2 1dbf 1e03 e03e
00000260: a427 dabf 06a2 3740 2381 1540 0508 15bf
00000270: 3d0b adbf c814 463f 55b6 d5bf 5ee3 cf3f
00000280: 70b9 023f 87cd 1d3e b126 993f 3ff8 abbf
00000290: a3f2 6d3e 4817 a0be 4ac5 a53e fe93 fabf
000002a0: 1d61 1d40 6806 653d ae82 9f40 0584 383c
000002b0: 0a30 80be a6d3 53bf 7c30 b03f efcf d73c
000002c0: 56de 173f 51ff e03e f747 16bf 6e51 a0bf
000002d0: 3443 7cbf 2136 753d 59a0 10bf 1c0e 93bf
000002e0: 39bf 253f 0129 f6bf b2ea 1240 9893 6ebf
000002f0: 8903 a23a e8ae 173f 89e9 623f 7a76 da3e
00000300: cd3e a13f 9735 7cbf 2457 043f 2fbb 82be
00000310: 0794 dabf c66e 953f 2f8f eb3e 8a19 823f
00000320: 6f01 ed3f 2287 8c3e 3ff1 f5be 1f70 4c3d
00000330: c35b eabf 04ba ba3e 4a3f b73f a9ba 1d3f
00000340: bbf6 963f 8731 b8bf 7b12 80be 25fa 08bf
00000350: c3af 19c0 5cbb cebd cae0 653f 6e51 28be
00000360: 3b1d b03e 37a9 3fc0 809a fd3f 894a 47bf
00000370: 9568 d63d 7608 27bf 728e fdbd d647 723f
00000380: 958a d13f 309c 343e ebe7 38be 7a54 cdbe
00000390: 4cce ddbf 8603 97be 5df1 a33f 8d95 fc3f
000003a0: 4896 a83f 0221 8ebf 22fe 18bf 763f 89bf
000003b0: ac66 25c0 0bd3 fcbe 473a ad3f cdd3 22bd
000003c0: 0bb8 893f 220b a03e a7a3 363e 95bd 27be
000003d0: 1d8c 76bf 58ec 43be 8449 3540 9f0d 91be
000003e0: 283e 8c3f 9ed7 25bf c360 6c3f 08b4 053e
000003f0: 862f 58bf ed5b aa3e 68cf 723f 0281 413f
1.9269153 1.4872841 0.9007172 -2.105521 0.67841846 -1.2345449 -0.043067478 -1.604667
-1.3721709 0.98992133 -0.674876 -0.4509689 -0.62693435 0.3610267 -1.0394769 1.7038592
-0.10247558 -0.056036953 -1.4310858 0.9686905 -0.9449874 1.107782 0.86213136 1.0083385
0.42454585 0.59423685 -0.0010238608 1.6078515 -0.44306138 -1.0869188 0.3514237 0.5616265
0.98687303 -0.79771453 -0.44863832 1.5771817 0.95715123 -0.7704526 -1.1726623 -1.0069419
-0.6172967 0.5345209 -2.3561633 1.0697502 -1.1115808 1.1886142 -0.5182008 0.306177
0.8861001 0.03972672 -0.20736194 1.198133 -0.79879194 1.5103186 -0.6321357 0.021831688
-2.0185058 0.1850499 0.3726201 -0.011808626 1.6389189 1.6781175 -0.7959429 0.7420406
-0.04204984 -0.49527448 1.4033431 0.6588982 -0.4283283 -2.1459863 -0.04810114 1.7376549
0.9510088 -0.15706511 0.3227152 0.11956413 2.2642674 -0.6176921 -1.4765849 -0.10053279
-0.98987913 -0.63409793 -0.9079605 -0.25057825 -0.09908759 -0.019517476 1.6630096 0.1344397
0.59575063 -0.06957184 -1.0710806 0.52381074 -1.7267281 0.30474398 1.2497998 0.8350489
-2.4493349 0.09258097 0.74386424 0.84799606 1.2021594 1.123901 0.106081724 0.77684987
-0.76175874 -0.6252717 -0.09404512 0.36511844 0.5064313 -0.13444078 1.1386532 -0.08597051
-1.2952082 -0.21740201 -0.015512544 -0.18756838 -0.20769833 -1.392742 0.71850944 0.7954872
0.16458307 -0.7488375 0.8418895 -0.06324537 -0.09421402 -1.1862018 -0.1938116 0.77214545
-1.145477 0.4175185 -2.6653585 -1.0332628 2.398343 0.9840333 0.10554182 -0.39104283
1.9628845 0.35756892 1.8907868 -1.3190281 -1.0294074 0.4708229 0.5575768 -4.424354
-0.8834805 0.86778414 2.7797644 0.24933192 -0.69713163 0.53884274 -0.6164938 0.43752378
-1.7043347 2.8692641 2.3360069 -0.5821536 -1.3519055 0.7737546 -1.6696268 1.6241262
0.51064205 0.15410434 1.1964933 -1.3435134 0.2323709 -0.31267762 0.32377082 -1.9576414
2.4590523 0.055914313 4.984702 0.011261945 -0.2503665 -0.82744825 1.3764796 0.026344268
0.5932363 0.4394479 -0.5870356 -1.252485 -0.98540044 0.059866074 -0.5649467 -1.1488681
0.6474491 -1.9231263 2.2955747 -0.9319396 0.0012360673 0.5925126 0.88637596 0.42668515
1.259729 -0.9851927 0.51695466 -0.25533435 -1.7076424 1.167443 0.46007678 1.0164044
1.8516062 0.27446848 -0.4803562 0.049911615 -1.8309253 0.36470044 1.4316189 0.61612946
1.1794046 -1.4390115 -0.250141 -0.5350669 -2.4013526 -0.1009433 0.89796126 -0.16437313
0.343973 -2.994703 1.9812775 -0.77848107 0.10469166 -0.65247285 -0.12380685 0.9464086
1.6370417 0.17637706 -0.1805722 -0.40103513 -1.7328582 -0.29494876 1.2808033 1.9733139
1.3170862 -1.1103823 -0.59762776 -1.0722492 -2.5843916 -0.49379763 1.353341 -0.03975277
1.075929 0.31258494 0.17835866 -0.16380914 -0.96307546 -0.19133127 2.832612 -0.28330705
1.0956469 -0.6478213 0.92335147 0.13056958 -0.84447515 0.3327326 0.94847727 0.75587475

future_emb.embedding.0.weight f4 [32, 8]
00000000: faf8 5d3f 1a84 443e 3c7b 943f b96d 10bc
00000010: e8b8 593f 5582 59bf 9e74 b3bf 7062 303e
00000020: 1b1a 873e 6eae c63f 1924 143f f276 dabf
00000030: bb5e 7b3e fc4f e1bd c775 59bf d603 3f3f
00000040: 50b9 01bd df94 053f 5579 dabe 8fef 993e
00000050: 58a1 103f 7264 c7be fcd2 643f 6600 87bd
00000060: e763 77be de71 03bd 9d8b bbbf 685d 9c3c
00000070: ca42 8abe 3095 07c0 ae3c 6a3f 1517 2b3d
00000080: 5d66 f13d 7cfd d33f 62ea e23e 7cf4 48bf
00000090: 1d99 9e3e 41e0 9b3d 6b13 f5bf 93be 243f
000000a0: 4d5a 173e d2dc 063f 8817 95bf 94fc aebf
000000b0: a1fb adbf 4df5 1e3e 3cbd 813e 417e b5bf
000000c0: e703 ff3e 12a1 1dbe d781 2cc0 498a a63e
000000d0: cbc7 c43e 4ca6 b9be 345a 963f 3242 74bf
000000e0: 6e99 b0be 3333 763f ce0e 80bf 3a97 ecbf
000000f0: e18c 53bf c218 8bbf caf4 003f 2b51 c03f
00000100: 52c1 4a3f 4d2f 18bc 8778 bbbe 4a2f 99be
00000110: e579 0e40 b5db db3e 01f5 2a3f a339 acbe
00000120: 0ba8 97bd 39cb 98bf 1574 163f a6f7 1dbf
00000130: 6000 a0be f237 7cbe a7f5 29bf d79f 293e
00000140: cacd 5d3f 422d 70be 8e26 503f 4911 a8bf
00000150: f78b 3ebe f7f2 ab3e 46f7 133e 6ca9 f9bf
00000160: 0531 28bf 9405 3cbf 2291 41bf bc98 353f
00000170: dd7b 7a3c da5a db3b ecb5 023f fec4 a23f
00000180: 74f0 00bf 4f84 f9be dce0 343f ed85 63be
00000190: 136c 7b3f 341b 633e 24a1 93be 37c4 22bf
000001a0: 6be3 1cbe 4242 d1bd 52e8 043f 9c84 10be
000001b0: 6266 2b40 a2bb 6c3f d776 8e3f 8034 2d3f
000001c0: c629 a73f 1a09 7e3e 3604 1540 40ed 493f
000001d0: c0e6 ae3e 217c 863e 8731 7c3f 7d58 9e3d
000001e0: 36e5 a53e 5c33 0f3d 4dfd 1840 c2c2 453f
000001f0: f94a 01bf 859e 0dbf aa7a b53f 3fab 063f
00000200: 939a 3e3f ccf3 d4bf c435 833f f995 153f
00000210: 1d37 203d 0e3f 903e 50df c1bf 09e6 12bf
00000220: 35bc 943f 8769 2d3f 05e7 c53f 9bff 5f3f
00000230: b9ad 5a3f df4a 37bf ac1c 1ac0 7bd6 213f
00000240: 0ebe 66be ba57 81be 3750 39bd ad64 803f
00000250: 7709 39bf cf79 4a3e 10bb 2f3e d922 873f
00000260: 508f db3f 1cf4 a8bf cba4 30be 21fb 923f
00000270: d7a9 e9be f956 8a3e 8bd0 c5bf d130 1e3e
00000280: 8c04 88bf 5818 d93f 2f6f 483e c3fc 843f
00000290: 42ce 8fbf 4701 7abe f082 b6bf 75b4 933e
000002a0: 2771 96bf d4cc b5bf 3694 a63f 78b0 383f
000002b0: d703 413f 14ec 4fbf 5bce 7abf 7c4a 80bf
000002c0: 67f7 8ebf 5c68 9abf e044 9b3d 9df7 8e3f
000002d0: b688 173e 05cb e5bd 9e9e 66bf 4e09 13be
000002e0: 43dc 1a3f 99e8 163f bdce 8ebf 595d b53f
000002f0: f752 d13f 33e7 463e 77c5 bdbe 34e3 aabf
00000300: 1e77 a4be 6904 73bf 117f 5abd 5eed f9be
00000310: 9658 d43c b8ad 2c3f ff59 8b3c 8bf0 21bf
00000320: 90a9 1ebf fb3b 8c3f fdab 2dbf 093c cd3f
00000330: b516 14bf a5f4 08bf d6b2 433e 8dec 963f
00000340: ca82 823d f662 8abe e8c7 2dbf d42c f0bf
00000350: 3211 acbf cb4e 483f da12 6abf 096f bbbf
00000360: 92c2 8b3f 69ac 573f 0535 8cbe 09ee bf3e
00000370: 476b b0be 3057 0b3f 5a31 4cbd 6f29 4bbf
00000380: d4e5 cebe f0db 723f 3f91 edbf 2d3d 98be
00000390: c0e2 a3bd cd66 a3be fd13 2640 f39e bf3f
000003a0: 89eb 0740 1bf5 a43f 6418 b13e 2873 36bf
000003b0: fd88 48be 5532 4fbf e509 823f 965a 943a
000003c0: e2ef 66be 5591 82be c8b7 acbe 1031 e93d
000003d0: 343e bfbe aee1 40c0 b5a3 d93f dcd1 b6bf
000003e0: c852 6a3f 7178 ccbf 8e20 04bf db0c 91bf
000003f0: 14f4 d33f c209 81bf bcbf d93f c250 d13f
0.86708033 0.19191018 1.1600108 -0.008815222 0.8504777 -0.84964496 -1.4019964 0.17225051
0.26387104 1.5521982 0.5786758 -1.7067549 0.24547856 -0.11001584 -0.8494534 0.7461523
-0.03167087 0.52180284 -0.42670694 0.3006558 0.5649619 -0.3894382 0.89384437 -0.06591873
-0.24159203 -0.032091014 -1.4651982 0.019087508 -0.2700408 -2.1184807 0.9149884 0.04177006
0.11787102 1.6561732 0.44319445 -0.78498054 0.3097619 0.076111324 -1.9146551 0.64353293
0.14780541 0.52680695 -1.1647806 -1.3670831 -1.3592416 0.15523262 0.25339687 -1.4179155
0.49807665 -0.15393475 -2.6954248 0.32527378 0.3843368 -0.36259687 1.1746278 -0.95413506
-0.34492058 0.96171874 -1.0004518 -1.8483651 -0.8263684 -1.086693 0.5037352 1.502477
0.79201233 -0.009288621 -0.36615393 -0.2991889 2.2261899 0.4294106 0.66780096 -0.33637723
-0.074050985 -1.1937019 0.5877088 -0.61706007 -0.31250286 -0.24630716 -0.6639046 0.1656488
0.86642134 -0.23454764 0.8130883 -1.3130275 -0.1860808 0.33583805 0.14449796 -1.9504828
-0.656998 -0.7344601 -0.7561208 0.7093618 0.01528832 0.00669418 0.5105884 1.2716367
-0.503669 -0.48733756 0.7065561 -0.22219057 0.98211783 0.22178346 -0.28833878 -0.6358065
-0.15321128 -0.10217716 0.5191699 -0.14113086 2.678124 0.92473805 1.1130017 0.67658234
1.3059623 0.2480816 2.328382 0.7887764 0.34160423 0.26266578 0.9851307 0.077317216
0.32401437 0.03496109 2.3904603 0.772503 -0.50505024 -0.55320007 1.4178059 0.5260505
0.7445461 -1.6636901 1.0250783 0.58431965 0.03911506 0.28173107 -1.5146275 -0.57382256
1.1619936 0.67739147 1.5461127 0.874994 0.8542133 -0.7159862 -2.408 0.63217896
-0.22533438 -0.25262243 -0.045242514 1.0030724 -0.7228007 0.19773029 0.17161202 1.055751
1.715311 -1.3199496 -0.17250364 1.1482888 -0.4563739 0.2701948 -1.5454267 0.1544831
-1.0626388 1.6960554 0.19573663 1.0389637 -1.123482 -0.2441455 -1.4258709 0.28848615
-1.1753281 -1.4203134 1.301398 0.7214427 0.75396484 -0.812196 -0.97971123 -1.0022731
-1.1169251 -1.2063098 0.07581496 1.1169316 0.14798245 -0.112203635 -0.9008578 -0.14359018
0.6049234 0.58948666 -1.1156842 1.4169112 1.6353444 0.19424133 -0.37064716 -1.3350587
-0.3212213 -0.94928604 -0.053343836 -0.4881391 0.025921147 0.67452574 0.017010687 -0.63257664
-0.6197748 1.0955805 -0.6784056 1.6033946 -0.5784715 -0.534983 0.19111189 1.179094
0.06372602 -0.27028626 -0.6788316 -1.876368 -1.3442748 0.7824523 -0.91435015 -1.464326
1.0918753 0.8424745 -0.273842 0.37486294 -0.34456846 0.5442991 -0.049851753 -0.793601
-0.4040972 0.9486685 -1.855995 -0.29734173 -0.080022335 -0.31914368 2.59497 1.4970382
2.123751 1.28873 0.3458892 -0.71269464 -0.19583507 -0.80936176 1.015927 0.0011318501
-0.22552446 -0.25501505 -0.33733964 0.11386311 -0.37352145 -3.0137744 1.7003084 -1.4282794
0.91532564 -1.5974256 -0.51612175 -1.1332048 1.6558862 -1.0081103 1.7011638 1.635277

future_emb.embedding.1.weight f4 [7, 8]
00000000: b587 013e 795d df3e 66ef cfbf 5878 a8be
00000010: 180e 053f 7add 06bf 3e87 af3f f9a1 8fbf
00000020: 6b7a 873f 65dc 183f 29a7 afbf 3dad 88bf
00000030: e1b9 43be 70c1 fabf 570f 35bf 379a db3d
00000040: 4923 5ebe 3169 ca3e 1d88 96bf 9522 c1bf
00000050: a5a0 e3bb 7a56 70bf fa6a 4bbf da88 983f
00000060: fb88 403f a470 00c0 9fed 97bf a75b babf
00000070: 8909 a1be 5771 d4bc d834 8b3f 07b4 913f
00000080: 4e22 acbd c4c3 363f a8de 31bf 1342 dabe
00000090: a325 2e3f e44d f23f 572e bbbe e97c 2740
000000a0: 68f5 09bf 264a cfbe 24b2 063f 2511 533f
000000b0: e96c 9cbd fb7e aabf 272d 753f d4e4 ee3e
000000c0: b21b 89bf e7a9 543f 591b f33f a460 0abe
000000d0: 0fb7 afbf 0ea2 033e bae9 ba3e a31b 21bf
0.12649424 0.43626 -1.6244934 -0.32904315 0.5197463 -0.52681696 1.3713148 -1.1221305
1.0584234 0.59711295 -1.3722888 -1.0677868 -0.19113876 -1.9590282 -0.7072653 0.107227735
-0.21693148 0.3953338 -1.1760288 -1.5088679 -0.0069466406 -0.9388195 -0.7946011 1.1916764
0.75209016 -2.006875 -1.1869391 -1.455922 -0.31452587 -0.02593295 1.0875502 1.1383065
-0.084049806 0.71392465 -0.6948037 -0.42628536 0.6802618 1.893002 -0.36558792 2.616999
-0.53890085 -0.40486258 0.5261557 0.82448035 -0.076379605 -1.3320001 0.9577202 0.46658957
-1.0711577 0.8307175 1.8992721 -0.13513428 -1.372774 0.12854788 0.36506444 -0.62932795

future_emb.embedding.2.weight f4 [24, 8]
00000000: c8bc 19c0 d4b8 afbf d8cf de3f 0e7b b43f
00000010: 1ff5 b33f e916 1240 d43a fbbd 9a95 c1bf
00000020: 4546 12c0 1368 04c0 0149 cc3f 1339 a23f
00000030: 6f12 a03f ecde 9f3f a2ad 4a3d d9e3 cabf
00000040: 87a0 01c0 e845 17c0 e8de 973f a685 943f
00000050: a55d 543f ff21 e03f d14c cb3e 8c9e 8fbf
00000060: 20b7 88bf 12fa 30c0 46b2 653f 0535 f23e
00000070: 79cc edbe 30f9 0f40 ddf7 823f 48b6 24bf
00000080: eee5 493c 1df0 cdbf 20dd b73e a7f8 2c3e
00000090: 5dde fcbf 43a1 3640 bfda 973f d6fb ee3d
000000a0: 5fe4 4abf 6280 bdbd 17c6 a43e 2fe8 683f
000000b0: 7255 64bf c3f6 843f f46b c43f 6d5b ff3f
000000c0: effd 54bf cd23 593f 8888 943c af7c be3f
000000d0: bfa3 0ebf a4bd ffbe c3f6 283f 4602 0a40
000000e0: 75b8 cebe f144 563e 77c2 e0be 033f d53f
000000f0: db20 c8bd 6b0b 01c0 53f9 413f 3a59 1340
00000100: f536 09be 1e49 f63f 3fc7 d3bd 6587 443f
00000110: 25f5 48be 0b75 b7bf a438 823e 00fc 69bf
00000120: bfde 84bf 35f4 a23f 3248 1bc0 1796 003d
00000130: 18a1 4cbf 42c8 c63e c76b 6abd a1fb 3cbf
00000140: f147 603f 5df5 83bf 9848 29c0 f5cc 77bf
00000150: 4127 0e3f c119 87bf 1566 733f af2f a3bf
00000160: 7cae ce3e 6f69 a2be 7a5a b5bf bce0 85bf
00000170: bdeb 943d 9892 cfbe d542 843e abb3 24be
00000180: 46e8 603e e970 0b3e abfb f5be a18a 74bf
00000190: b964 1d3e 4c1a 153f 9fd6 373d 6016 843f
000001a0: de22 e2bc 14ec babe 6bb0 cfbd d0fd a5bf
000001b0: a692 dfbe 5473 86bf 5358 8c3e 1212 983f
000001c0: fd94 47bf a5ee f33e f75e 36bf 05e4 74bf
000001d0: 44a3 b0bd 61b2 47bf fada 04be 1cbe 233f
000001e0: 4e69 d13f 783e 93bf b1e9 873f 6a03 e5bf
000001f0: 6e3d 68bf 240e e5bf b894 80be 1f13 20bf
00000200: 3255 cb3e 6040 7dbe 57bc 383e 4e84 97bf
00000210: 099a 6d3f d432 78bf 5ffb 3f3f 88ec d23e
00000220: d94d 6a3f e48d 0cbf 2811 8ebd bb46 4fbf
00000230: 239b 2fbf d9f0 7e3f 168c 16bf fdbd 383f
00000240: 0cd5 ce3f 6b15 66be a2d5 8fbe 090b 7d3e
00000250: 8081 593e fa33 b23f 054f 01c0 e8ff 0c40
00000260: 542c e73f 2047 3e3d d996 0bbf f2b8 1e3f
00000270: 9d9c 233f 9dc8 093e 4922 f3bf 5b8b 2b3f
00000280: 0ed0 d03f 3eb2 1fbe 59c1 95be 658a 753e
00000290: 87f4 0c40 8ac1 1cbf 2df4 39be bda3 003f
000002a0: 6149 96bf 456e dfbe 5f3e 0740 f815 07bf
000002b0: c870 1040 0933 45bf 0016 d8bf 99c2 07c0
000002c0: 09e0 1fc0 b889 52c0 e875 b23f 1965 abbe
000002d0: b3f3 03bf 39eb d33f fd0e 0bc0 9ab9 d7bf
000002e0: 0f97 51c0 0a67 d4bf a540 da3f f910 52be
000002f0: af07 fa3f 9136 4940 1d5f 053e 9d3a abbf
-2.4021473 -1.372828 1.7407179 1.4100053 1.405918 2.2826483 -0.1226708 -1.512378
-2.285539 -2.0688522 1.5959779 1.2673668 1.2505625 1.2489905 0.049481995 -1.5850784
-2.0254228 -2.3636417 1.18649 1.1603286 0.8295539 1.7510375 0.39707044 -1.122026
-1.0680885 -2.765263 0.8972515 0.47306076 -0.46445063 2.2495842 1.0231892 -0.6434064
0.012322886 -1.6088902 0.35910892 0.16891728 -1.975536 2.8535926 1.1863631 0.11669128
-0.79254717 -0.09253003 0.3218238 0.90979284 -0.8919288 1.0387806 1.5345445 1.9949776
-0.8319997 0.8482025 0.01813151 1.48818 -0.55718607 -0.49949372 0.6600153 2.1563888
-0.40375105 0.20924737 -0.43898365 1.6659855 -0.09771892 -2.016322 0.75771064 2.302321
-0.1339987 1.9241064 -0.103407376 0.76769096 -0.19624765 -1.4332594 0.25433838 -0.91400146
-1.0380477 1.2730776 -2.4262815 0.031393137 -0.7993331 0.3882466 -0.05723169 -0.73821455
0.87609774 -1.0309254 -2.6450558 -0.96797115 0.55528647 -1.0554734 0.9507764 -1.2748927
0.40367496 -0.31721064 -1.4168236 -1.0459208 0.07271526 -0.4054153 0.2583224 -0.16084163
0.21963605 0.1361729 -0.4804357 -0.9552403 0.15370454 0.5824325 0.044882413 1.0319328
-0.027604517 -0.36508238 -0.10141071 -1.2968082 -0.4366657 -1.0503945 0.27411136 1.1880515
-0.77961713 0.4764301 -0.71238655 -0.9566043 -0.086248904 -0.7800656 -0.12974158 0.6396196
1.6360261 -1.1503439 1.0618192 -1.7891667 -0.90718734 -1.789494 -0.25113463 -0.62529176
0.39713436 -0.24731588 0.18040596 -1.1837251 0.92813164 -0.9695256 0.74992937 0.41196084
0.91525036 -0.5490401 -0.06936866 -0.809673 -0.68596095 0.99586254 -0.58807504 0.721649
1.6158767 -0.22469108 -0.28092676 0.24711241 0.21240807 1.3922112 -2.020448 2.2031193
1.8060403 0.04645455 -0.5452705 0.62000954 0.6391085 0.13455434 -1.8994838 0.67009515
1.6313493 -0.15595338 -0.29249075 0.23978575 2.2024248 -0.6123282 -0.18159552 0.50249845
-1.1741143 -0.43638816 2.1131818 -0.52767897 2.2568836 -0.77031 -1.6881714 -2.1212523
-2.498049 -3.2896557 1.3942232 -0.3347557 -0.5154373 1.6556159 -2.1727898 -1.6853516
-3.274845 -1.6593945 1.7050978 -0.20514287 1.9533595 3.1439555 0.13024564 -1.3377262

future_emb.embedding.3.weight f4 [2, 8]
00000000: e4af 89bf 0a00 bcbe eeb0 12bf 662c 25be
00000010: aebf 4b3f 5b77 d1be 3478 8ebf 0412 46bf
00000020: b663 96bf fca6 c5bd c298 a7be 31fb 9f3e
00000030: e4cf 773f eb8d e2be 1e93 f7be 4f86 bf3d
-1.0756803 -0.3671878 -0.57301223 -0.16130218 0.79589355 -0.40911373 -1.1130433 -0.7737124
-1.1749179 -0.0965099 -0.32733732 0.3124633 0.9680159 -0.442489 -0.4835443 0.09351789

category_emb.embedding.0.weight f4 [32, 8]
00000000: e343 093f 7b14 9e3f a23b 59be 8c94 b13f
00000010: 2529 53bf dc80 b53e c6bc 8fbe 0219 79be
00000020: 9d99 6d3f f401 dfbe 8d3c 0abf ea3c 023e
00000030: 0e5f 023f e8f3 ba3f 897c a4bf fab6 dbbf
00000040: ef68 ea3e 7ed1 1ac0 2e83 a03f 8cfc a8bf
00000050: 8591 bc3d b992 763e beda 1cbf 4185 983f
00000060: 6431 b0bf 287f 41bf 65cc 813f 5c57 a0bf
00000070: 17b5 373f e957 9e3f 211f b13f 898d ed3d
00000080: d8ef c3bd 7b65 ca3e 7654 4cbe 5350 68bf
00000090: 96ae 243f 7c83 91bf 60b5 793e a584 58bd
000000a0: f91c 323f 1c51 fbbe 571d 1b3f 3de1 333f
000000b0: 50f7 e93f 493a 7a3f f10e d43e d047 e33f
000000c0: 8336 b23f 0802 e6bf bf9b 01c0 2820 70be
000000d0: 5a26 11bf d4e2 993f 6ad2 28bf cf69 b1bf
000000e0: 2adf 773d 8354 11bd 60db db3f 6984 58c0
000000f0: 78f3 b5bd c63c 2fbe 256f c53e ce36 34bf
00000100: a920 8fbf 18ea 88bf 292d 433f cbbc 16bf
00000110: 98c2 ecbe b65d a0be 47b2 623f 2942 edbf
00000120: 0285 7a3e 2043 093f 0f2f 9d3f bac0 6bbf
00000130: 0185 e3be 14ba 5bbe 8c2b bc3f 7ce4 3cc0
00000140: ff5f b23f ad29 313f 6ba5 613f c4ca 91bf
00000150: 3331 a73f 9efa b63f f1da 1cc0 729e 86bf
00000160: cdf1 ad3e 94db 0740 3fc4 83bf 1062 8ebf
00000170: 14ae 3bbf 8699 b63c 090d 8abf f419 54bf
00000180: 5f07 15bf 7c82 0a3f 7cf5 2c3f 8a52 c3bd
00000190: 30cb 9dbe 7164 5f3f ae96 22bf 433e 6abf
000001a0: aadf 63be 1e4c 0340 883c 8ebf efeb 703f
000001b0: f182 283f 548e b1bf 361c 4cbf db81 cb3c
000001c0: bf34 993f a2ca b33e b874 313e 0912 ad3f
000001d0: 43bf 433f da92 01c0 fc88 15c0 50d6 40be
000001e0: 15ad 18be 0004 c2bf 3de0 a23f 3dbf 8a3f
000001f0: 3cdc 383e c35a 083f 0558 0cc0 e734 70be
00000200: d89b fc3f 8ff1 1ec0 cbab 45be 57a6 733f
00000210: d0ec 333e 520c d9be 19ec 74bf 14fc a93f
00000220: 905a f8be d035 21c0 901d ddbd bb07 34bd
00000230: c9ac f6bf 624d 553f fb4e 95bf 1c09 20bf
00000240: 4377 2bbf b1a7 28bf 466e c9bd 901d 1ebd
00000250: 6bfc 0a3f df68 8ebf 9224 adbe 837a f7be
00000260: f478 d8bf 65fe 5dbe 8483 47bf 0fdf d1bf
00000270: 63f0 813e c14c e2be 8add ccbf 23a4 ae3f
00000280: 5a3b 0dc0 f80c 61bf 567a 9ebc 1dbe aebe
00000290: f761 103f c37b ebbe 16f6 96be e5b0 e9bf
000002a0: 749c a8bf 5135 1c3f 6923 d6bf 1905 1bc0
000002b0: 9295 52bc 7992 4ebe b54c cb3e 969c f63f
000002c0: ec1e 01c0 6161 55bd a2b6 47bf 54b9 0c3e
000002d0: 7023 dc3e 1d14 8d3f e920 66bd 32b5 5ebf
000002e0: 3da0 87bf fdda 913e 1ea7 c23f 7144 debe
000002f0: ddf7 083f 89c9 3b3f 2f03 b7be 626c c2bd
00000300: 8e6a 54bf 3535 fd3e 1a95 8c3f c818 673f
00000310: 3dab 52bd 8015 7d3f 2788 943f 1df0 a03e
00000320: 93ab 26bf 8111 c1bf eaf0 85bf 1727 a33e
00000330: 6b19 1240 cc09 90bf e8ed 323f 993d 83be
00000340: 58dc b5bf e269 5ebf c265 24bf f054 39bf
00000350: b67a 913f f005 01bf f16a 0dbe dfa7 85be
00000360: 46d6 ad3e d379 1cbf cbfe c5be 9f6f 243e
00000370: c364 863f 0f2c 52bf 2a6a 7d3f 6b70 33bf
00000380: 20c8 b5bf ec66 18bf 7a11 323e 5a19 10bd
00000390: dfbb ba3d 4a44 14bf 62dc 113f cd24 bc3f
000003a0: 80e4 85bf 10f4 d83e e61d 0cbf 6d4e 1e3e
000003b0: 57e5 8e3f 0900 c23f f8f1 073f a47a 0ac0
000003c0: 0a07 a53e f7a9 523e 3b83 bbbf 411b 08bf
000003d0: bb3e 4240 1f27 3840 3d21 3d3e e37e a23f
000003e0: 2741 7c3e d649 b2bf 4751 ebbf 96df 6b3f
000003f0: 77cc ae3f 2624 dc3f 54bd ab3f 4a73 213f
0.5361921 1.235 -0.21214154 1.3873458 -0.82484657 0.35449874 -0.2807371 -0.24325946
0.9281252 -0.43556178 -0.53998643 0.1271855 0.5092629 1.4605684 -1.2850505 -1.7165215
0.45783183 -2.4190364 1.2540033 -1.3202071 0.09207443 0.24079408 -0.61271274 1.1915666
-1.3765073 -0.7558465 1.0140501 -1.252666 0.71760696 1.2370578 1.3837625 0.11599261
-0.09567231 0.39530548 -0.19954094 -0.90747565 0.64328897 -1.1368251 0.24385595 -0.052860875
0.6957546 -0.4908532 0.60591644 0.7026556 1.8278599 0.97745186 0.4141765 1.775629
1.3922886 -1.796937 -2.025131 -0.23449767 -0.56699145 1.2022347 -0.65946066 -1.3860415
0.06051556 -0.035480987 1.7176323 -3.3830817 -0.088843286 -0.17113027 0.3856136 -0.70396125
-1.1181842 -1.069644 0.76240784 -0.58881825 -0.46242213 -0.31321496 0.8855328 -1.8535815
0.24464801 0.5361805 1.2279986 -0.9209095 -0.4443741 -0.21457702 1.470079 -2.9514456
1.3935546 0.6920422 0.8814303 -1.1390004 1.306189 1.4295232 -2.4508631 -1.0517104
0.33973542 2.122777 -1.0294265 -1.1123676 -0.733125 0.022290003 -1.0785228 -0.828521
-0.5821437 0.54105353 0.6756208 -0.095372275 -0.30819082 0.87262636 -0.6351117 -0.91501254
-0.2225329 2.0515208 -1.1112223 0.94110006 0.658248 -1.387156 -0.79730546 0.024842193
1.1969222 0.35115534 0.17329681 1.3521129 0.7646372 -2.024588 -2.3364859 -0.18831754
-0.14909776 -1.5157471 1.2724682 1.0839611 0.18052763 0.5326349 -2.1928723 -0.2345768
1.973506 -2.4834936 -0.19303815 0.9517569 0.17570806 -0.42392212 -0.95672756 1.3280053
-0.48506594 -2.5189095 -0.10796654 -0.043952685 -1.927148 0.833212 -1.1664728 -0.625139
-0.66978854 -0.65880877 -0.09835486 -0.03860241 0.5429141 -1.1125754 -0.33816963 -0.48335657
-1.6911912 -0.21679075 -0.7793505 -1.6396197 0.25378713 -0.44199184 -1.6005108 1.364384
-2.2067475 -0.87910414 -0.019345444 -0.3412942 0.5639948 -0.4599286 -0.29484624 -1.8257109
-1.3172746 0.61018854 -1.6729556 -2.4221861 -0.012853043 -0.20173062 0.3970696 1.9266536
-2.0175123 -0.05209482 -0.7801305 0.13742572 0.42995787 1.1021763 -0.05618373 -0.8699523
-1.0595776 0.28487387 1.520725 -0.43411592 0.5350321 0.73354393 -0.35744616 -0.09493329
-0.8297509 0.49454656 1.0983002 0.9027219 -0.051432837 0.9886093 1.160405 0.31433192
-0.6510555 -1.5083467 -1.0464146 0.3186576 2.2828014 -1.125299 0.69894266 -0.25632933
-1.4207869 -0.86880314 -0.6421777 -0.7239523 1.1365573 -0.50399685 -0.13810326 -0.26104638
0.3395254 -0.6112339 -0.38670954 0.16058205 1.04995 -0.8209848 0.9899012 -0.7009341
-1.4201698 -0.59532046 0.1738948 -0.035180427 0.09117865 -0.579167 0.569769 1.4698731
-1.0460358 0.42373705 -0.5473312 0.15459605 1.1163739 1.5156261 0.5310359 -2.1637354
0.32231933 0.20572649 -1.4649423 -0.53166586 3.0350788 2.8773878 0.1846971 1.2694973
0.24634229 -1.3928783 -1.8384179 0.9213804 1.3656148 1.7198532 1.3417153 0.6306654

category_emb.embedding.1.weight f4 [7, 8]
00000000: 4839 1a3f 4aeb 33bf dd67 c7bf 67df 223f
00000010: 33d6 03bf c98e 893f 255d 273f ba03 213f
00000020: bc20 b3bf 20f1 453d 0e68 11c0 73db d1bc
00000030: b3b9 6bbe 0ab2 2abf dea6 acbc dd52 873f
00000040: b6be 44bf eba5 5fbf bd98 8bbf f637 c3be
00000050: 7654 f5be 6027 b83e a753 2cbd 2ca0 dd3e
00000060: a5c4 1cbf d619 3abf 9981 5abf ac83 a43e
00000070: b499 d4bd e7ab 983f de8c f3be 16fa 053f
00000080: 2b42 86bf a0ff 4ebf feca 35bf 418d 2c3f
00000090: e085 8cbf 3989 e7be 9ac0 98bf 7ff8 d13e
000000a0: 50e0 30be 77e7 6ebf b444 d2bd 121a 373f
000000b0: dd95 97bf 42f6 7fbc 1ae9 3cbf 7870 ffbf
000000c0: b5c3 f53f e32e 1cbf ed1a 45c0 e6eb 80bf
000000d0: 0f1d 1bbf d5fd 03be d389 61bf f72f e8be
0.60243654 -0.702809 -1.5578572 0.63622135 -0.5149872 1.07467 0.653765 0.6289631
-1.3994365 0.048325658 -2.271976 -0.025617337 -0.23020057 -0.66677916 -0.021075662 1.0572163
-0.768535 -0.87362546 -1.0905987 -0.38128632 -0.47916 0.3596754 -0.042071965 0.43286264
-0.61237556 -0.7269567 -0.85354 0.32131708 -0.10380879 1.192746 -0.4756841 0.52334726
-1.0488943 -0.808588 -0.71012866 0.67403036 -1.0978355 -0.4522188 -1.1933777 0.410099
-0.17273068 -0.9332194 -0.1026701 0.71524155 -1.184261 -0.015622677 -0.73793185 -1.9956198
1.920035 -0.61009043 -3.0797684 -1.007199 -0.60591215 -0.12889798 -0.8810093 -0.45349094

category_emb.embedding.2.weight f4 [24, 8]
00000000: 552e 7abf cba7 803e f419 57c0 17a0 1bbf
00000010: c64c dbbf c0a7 433c b1f8 dbbf 1950 463f
00000020: 06aa d4bf 8666 25bf 4993 38c0 f82c fb3e
00000030: 77a2 a1bf eae0 4ebd dce3 6e3b d10f 8b3f
00000040: ec50 b0bf 5bb6 0c3e e88d dbbf e926 983f
00000050: 26fd 0cc0 a366 b4bf 44c7 373f 1aae b63f
00000060: fb02 07bf f185 10bf 7bc1 17bf 317f 0840
00000070: 1f4d edbf 6605 c2bf baea 653f ad0d 3a40
00000080: 4ae4 c6bf dce6 0bbf 29de 0e3e 36ec ba3f
00000090: e6da 10c0 78fc 1ac0 8405 a63f b0fa fc3e
000000a0: 6f2e acbf 6dc2 d73d f7ed 8dbe 8dff 413f
000000b0: e971 2ac0 df84 38c0 e0f7 3a3f 26b6 6bbf
000000c0: f388 81bf e8e0 b73f c56a 02c0 8e3b a43e
000000d0: d199 a7bf 544e 08c0 2e94 63bf e69a c93c
000000e0: d7de 34bf d103 b03f e957 d1bf 28d8 c9bd
000000f0: f42b a0be 84f9 86bf a7a4 13c0 a5a0 28bf
00000100: 62cf bbbe c7c8 0d3f 23fc 83bf 7dd7 553e
00000110: 7bba 2540 c78c e2be 8ce5 efbf bb36 833f
00000120: aafe 3abf 4e50 be3f 3a95 173e d424 053b
00000130: 1b1b d83f 09ca e13e c138 02bf e916 10c0
00000140: 3a67 cabd 24f5 f93f a8f8 bfbd cf2a e3bb
00000150: 6e1d 963f 64b9 d23e 31c0 7fbf 207d 54c0
00000160: 01d1 e03e f238 ca3f b0f3 253e 1969 a93e
00000170: c398 753f 0661 843f 374d 56bf 7b3c 08c0
00000180: cbd2 213f a947 893f 74d1 a8bf 7ca9 fd3e
00000190: c81f b03f fd6b 933f 2924 04bf 722a bbbf
000001a0: 9f3c 8b3e 7c3c d13e bbfa 4abf dbf8 d13f
000001b0: 0b02 963f 2fef aa3f c2e2 623f 71f0 8cbf
000001c0: fed1 c03f 0413 2c3f 00bc 12c0 50bf 8e3f
000001d0: 7dbd 893f 61a6 613f 9626 543f b399 75bd
000001e0: 0855 d63e c889 fe3d 7754 6ebf a0f5 aa3f
000001f0: bbb3 c13f 1a0c 613e 30f5 0440 6f33 77bf
00000200: 52c8 5d3e 19cf 00bf 4db6 c63e d363 4440
00000210: 7b44 df3e af0f fc3e ca8e 0640 d3f3 82bf
00000220: 386d c93e aed6 e13d 1710 c1bd b561 3940
00000230: 333d e53f 9f06 22bf 6905 853f 97c4 babe
00000240: d419 fd3f cb67 2e3f 9d76 3cbf 19c9 1d3e
00000250: 09f5 df3f b97c 42bf 731e e3bf 9db9 06c0
00000260: d425 1e40 e1da c23d 0ce4 a0bf 8c96 13bf
00000270: 6c3c 713f d0d9 033d c0bf 0ac0 02e9 e5bf
00000280: f3f4 1240 75c1 e6be 4844 a53e 4607 0bbd
00000290: 191c e53d cdfc c13f bc46 8dbf 620e dd3e
000002a0: f371 6ebe 9a8d b7bf 65d5 d83c 927e 05ba
000002b0: 5873 c8bf e93d 0240 4478 43c0 9dfb c3be
000002c0: 65fc 4fc0 ea61 31c0 1c1c 1abf 5114 8dbe
000002d0: d6ea 14bf 6f2f b1be 74c1 1ac0 62cd b5bd
000002e0: 26ec 33c0 36a9 2cc0 5cfd e7bf 62fe 00bf
000002f0: 4cd8 55bf 192c b0bf eae1 e3bf 8ff5 3d3e
-0.9772695 0.25128016 -3.360959 -0.6079115 -1.7132804 0.01194185 -1.718527 0.7746597
-1.6614387 -0.64609563 -2.8839896 0.49057746 -1.2627705 -0.050507464 0.0036451733 1.0864202
-1.3774695 0.13741438 -1.7152681 1.1886874 -2.202951 -1.4093822 0.7178843 1.4271882
-0.5273892 -0.5645438 -0.592796 2.1327631 -1.853916 -1.5157897 0.8981129 2.9070847
-1.5538418 -0.5464914 0.13951935 1.4603336 -2.2633605 -2.4216595 1.2970433 0.4941001
-1.345167 0.10535131 -0.27720615 0.75780565 -2.6632025 -2.8831098 0.7303448 -0.9207481
-1.0119919 1.4365511 -2.0377667 0.32076687 -1.3093816 -2.1297808 -0.8889798 0.024609994
-0.70652527 1.3751165 -1.6354953 -0.09855682 -0.31283534 -1.0544896 -2.3069246 -0.65870124
-0.36681658 0.55384487 -1.0311321 0.20882984 2.5895069 -0.4424803 -1.8741927 1.0251077
-0.73044837 1.4868257 0.14803019 0.002031614 1.6883272 0.44099453 -0.5086785 -2.2513983
-0.0988297 1.9527936 -0.09373599 -0.0069325934 1.1727731 0.41157067 -0.99902636 -3.320137
0.43909457 1.5798628 0.1620624 0.33087996 0.9593622 1.0342109 -0.8371157 -2.1286914
0.6321227 1.0724994 -1.318892 0.4954337 1.3759699 1.151733 -0.51617676 -1.4622328
0.27194688 0.40866458 -0.79288834 1.640407 1.1719373 1.3354243 0.88627255 -1.1010877
1.5064085 0.67216516 -2.2927246 1.1152134 1.0760952 0.881445 0.8287138 -0.059961032
0.4186175 0.124286234 -0.93097633 1.3356209 1.5132974 0.21977273 2.077465 -0.96562856
0.21658447 -0.50316006 0.3881096 3.0685928 0.43606934 0.49230716 2.1024652 -1.0230659
0.3934114 0.11027275 -0.09426897 2.8965886 1.7909302 -0.63291353 1.0392276 -0.3647811
1.9773507 0.68127126 -0.7361849 0.15408744 1.7496654 -0.7597156 -1.7743667 -2.105079
2.4710588 0.09514404 -1.2569594 -0.5765159 0.9423282 0.032190144 -2.1679535 -1.7961733
2.2962005 -0.4506947 0.32278657 -0.033942483 0.11187 1.5155274 -1.1037211 0.43175036
-0.23285656 -1.4340088 0.026468942 -0.0005092408 -1.56602 2.0350287 -3.0542154 -0.38277903
-3.24978 -2.7716012 -0.6019914 -0.27554563 -0.5817083 -0.346065 -2.4180574 -0.08877064
-2.8112884 -2.6978278 -1.8124194 -0.5038816 -0.8353317 -1.3763458 -1.7803319 0.18550704

category_emb.embedding.3.weight f4 [2, 8]
00000000: afdc 18bf 56f7 0cbf ef3a 82be 0eb5 5c3f
00000010: e2f6 0140 4d26 8abf fee7 abbf 373c 5e3f
00000020: 4270 a9be 922d 1a3f 7fd8 e7bf d6ea a3bf
00000030: d844 863f c1a5 18be e193 40be 6639 1b3f
-0.59711736 -0.55064905 -0.25435588 0.8621377 2.0306935 -1.0792938 -1.3430173 0.8681063
-0.33093458 0.60225785 -1.8112944 -1.2806041 1.048976 -0.1490698 -0.18806411 0.6063446

continuous_emb.embedding.0.weight f4 [8, 1]
00000000: 8a88 fb3d d3e4 0ebe 8feb 293f d635 b8be
00000010: b39b 423e 8b55 c8be 1bd2 f1ba 336b 303e
0.12281902 -0.13954477 0.6637506 -0.35978574 0.19004707 -0.39127764 -0.0018449457 0.17228393

continuous_emb.embedding.0.bias f4 [8]
00000000: c8ab 793f 8db6 583f e626 bfbf 954f 7c3f
00000010: 7000 aabf 386b b23f 92ce 2fbf dc41 80bf
0.9752774 0.8465355 -1.4933746 0.9855893 -1.3281384 1.393897 -0.68674576 -1.0020099

continuous_emb.embedding.1.weight f4 [8, 1]
00000000: 8a88 fb3d d3e4 0ebe 8feb 293f d635 b8be
00000010: b39b 423e 8b55 c8be 1bd2 f1ba 336b 303e
0.12281902 -0.13954477 0.6637506 -0.35978574 0.19004707 -0.39127764 -0.0018449457 0.17228393

continuous_emb.embedding.1.bias f4 [8]
00000000: c8ab 793f 8db6 583f e626 bfbf 954f 7c3f
00000010: 7000 aabf 386b b23f 92ce 2fbf dc41 80bf
0.9752774 0.8465355 -1.4933746 0.9855893 -1.3281384 1.393897 -0.68674576 -1.0020099

continuous_emb.embedding.2.weight f4 [8, 1]
00000000: 8a88 fb3d d3e4 0ebe 8feb 293f d635 b8be
00000010: b39b 423e 8b55 c8be 1bd2 f1ba 336b 303e
0.12281902 -0.13954477 0.6637506 -0.35978574 0.19004707 -0.39127764 -0.0018449457 0.17228393

continuous_emb.embedding.2.bias f4 [8]
00000000: c8ab 793f 8db6 583f e626 bfbf 954f 7c3f
00000010: 7000 aabf 386b b23f 92ce 2fbf dc41 80bf
0.9752774 0.8465355 -1.4933746 0.9855893 -1.3281384 1.393897 -0.68674576 -1.0020099

continuous_emb.embedding.3.weight f4 [8, 1]
00000000: 8a88 fb3d d3e4 0ebe 8feb 293f d635 b8be
00000010: b39b 423e 8b55 c8be 1bd2 f1ba 336b 303e
0.12281902 -0.13954477 0.6637506 -0.35978574 0.19004707 -0.39127764 -0.0018449457 0.17228393

continuous_emb.embedding.3.bias f4 [8]
00000000: c8ab 793f 8db6 583f e626 bfbf 954f 7c3f
00000010: 7000 aabf 386b b23f 92ce 2fbf dc41 80bf
0.9752774 0.8465355 -1.4933746 0.9855893 -1.3281384 1.393897 -0.68674576 -1.0020099

continuous_emb.embedding.4.weight f4 [8, 1]
00000000: 8a88 fb3d d3e4 0ebe 8feb 293f d635 b8be
00000010: b39b 423e 8b55 c8be 1bd2 f1ba 336b 303e
0.12281902 -0.13954477 0.6637506 -0.35978574 0.19004707 -0.39127764 -0.0018449457 0.17228393

continuous_emb.embedding.4.bias f4 [8]
00000000: c8ab 793f 8db6 583f e626 bfbf 954f 7c3f
00000010: 7000 aabf 386b b23f 92ce 2fbf dc41 80bf
0.9752774 0.8465355 -1.4933746 0.9855893 -1.3281384 1.393897 -0.68674576 -1.0020099

continuous_emb.embedding.5.weight f4 [8, 1]
00000000: 8a88 fb3d d3e4 0ebe 8feb 293f d635 b8be
00000010: b39b 423e 8b55 c8be 1bd2 f1ba 336b 303e
0.12281902 -0.13954477 0.6637506 -0.35978574 0.19004707 -0.39127764 -0.0018449457 0.17228393

continuous_emb.embedding.5.bias f4 [8]
00000000: c8ab 793f 8db6 583f e626 bfbf 954f 7c3f
00000010: 7000 aabf 386b b23f 92ce 2fbf dc41 80bf
0.9752774 0.8465355 -1.4933746 0.9855893 -1.3281384 1.393897 -0.68674576 -1.0020099

continuous_emb.embedding.6.weight f4 [8, 1]
00000000: 8a88 fb3d d3e4 0ebe 8feb 293f d635 b8be
00000010: b39b 423e 8b55 c8be 1bd2 f1ba 336b 303e
0.12281902 -0.13954477 0.6637506 -0.35978574 0.19004707 -0.39127764 -0.0018449457 0.17228393

continuous_emb.embedding.6.bias f4 [8]
00000000: c8ab 793f 8db6 583f e626 bfbf 954f 7c3f
00000010: 7000 aabf 386b b23f 92ce 2fbf dc41 80bf
0.9752774 0.8465355 -1.4933746 0.9855893 -1.3281384 1.393897 -0.68674576 -1.0020099

static_variable_selection.grn_v.linear1.weight f4 [8, 8]
00000000: 684f 783e 7f17 a6be 8396 acbe f5e2 833d
00000010: f584 463d 5b6c 84bd 7a11 9e3e bffa 59be
00000020: 59c9 5bbe c14e 87be 61c4 86bd c1c9 b8bd
00000030: a302 603e f99f a2bc 983c e73d 9572 16be
00000040: 6dd7 923e 4a9a 983e 841d a2be 6d16 babd
00000050: 2d98 99be c3cd 193e 4f27 9ebe 192d 2bbe
00000060: 9ade b43e dddb acbe 908e 853e 76ad f43c
00000070: d5bf 903e 13bb 37be 1dcc 6d3e adb9 2e3d
00000080: 1ac3 de3c 611a 773e 5510 acbe 60cd 91be
00000090: 65d2 ae3e 2967 59be e97a 82be 309d 8dbc
000000a0: 68c7 e7bd ee1f 46bd 888f 72be 61a1 023e
000000b0: 89c3 9bbe a294 ea3c 8c43 533e 111f 8b3d
000000c0: 846a 403d 21d0 533d 6b1e d4bd 7aef 89bd
000000d0: 57ab 18be 4491 74be 00af 3fbe d6f2 b23e
000000e0: ab5b 72bd 33a4 fd3d 8b5e 7a3e e240 e2bc
000000f0: 76c4 42be 9a4b 75be 5260 05be 8c39 013e
0.24249041 -0.324398 -0.3370858 0.06439773 0.04846664 -0.0646598 0.3087271 -0.21287058
-0.21463527 -0.26427272 -0.06580425 -0.090228565 0.21876006 -0.019851672 0.11290854 -0.14692147
0.28679982 0.29805213 -0.31663144 -0.09086309 -0.29998913 0.15019898 -0.30889365 -0.16716422
0.35326082 -0.33761492 0.2608533 0.029867869 0.28271356 -0.17942457 0.23222394 0.042657543
0.027192641 0.24131157 -0.3360621 -0.28477 0.34144893 -0.21230759 -0.25484398 -0.017286867
-0.113173306 -0.048370294 -0.23687565 0.12756874 -0.3042262 0.028635327 0.20631236 0.06793035
0.04697658 0.05171216 -0.10357364 -0.0673513 -0.14909111 -0.2388354 -0.18719101 0.34950894
-0.059169453 0.12384834 0.24450128 -0.02761883 -0.19020256 -0.23954621 -0.13025025 0.12619609

static_variable_selection.grn_v.linear1.bias f4 [8]
00000000: 6d72 98be a5d0 30bd f4b6 093e 80af 933e
00000010: 9fe5 d93d c832 8f3d 2ad9 773e 2e4b 273e
-0.297748 -0.04316773 0.13448697 0.28844833 0.106395 0.06992108 0.24203935 0.16337273

static_variable_selection.grn_v.linear2.weight f4 [8, 8]
00000000: 1df7 f43d 687f e0bd c128 91be f866 9cbd
00000010: 4952 83bd 67b2 d43c b444 1fbd 3a5e 123e
00000020: c397 703e 20c7 12be 1ac3 abbe 57bf 39be
00000030: 1a3a 2dbe d337 4d3e de87 69be 8e35 08bd
00000040: d675 99bd a3bb 5bbe 4d1b 243e 28cf 16be
00000050: 18d5 95bc 3a8b 7ebe 7f0f 12bd 20c3 4d3d
00000060: c9b7 6bbc 6146 07be 8c1c d73d 4f9b bbbd
00000070: beb6 48be 547d 85be 8761 99bd 4c01 abbe
00000080: ea3f 963e b7f4 2cbe 1109 16be b5dd 053d
00000090: 75b4 bb3d cc8c 08bd e75d 783e e10c 53be
000000a0: 6abf 013e 0307 51ba 0641 93be 3a37 0cbe
000000b0: b544 b83d 3d54 8a3d 25a0 833e 8a33 723e
000000c0: d276 45be e799 1abe cc88 99bd 9caf 81be
000000d0: 587e c3bd 6521 94be d5b2 093e f914 803e
000000e0: c651 e53c 9796 81be 5f16 89be fcf0 0cbe
000000f0: b099 d23d 2a4b 0d3c 35a7 833d 7a9b aa3e
0.119611956 -0.10961801 -0.28351405 -0.07636827 -0.06412179 0.025963975 -0.03888388 0.14293757
0.23495393 -0.14333773 -0.33547288 -0.18139397 -0.16916695 0.20040826 -0.22805735 -0.0332542
-0.074931785 -0.21458296 0.1602604 -0.14727461 -0.018290088 -0.24857798 -0.03565931 0.050234914
-0.0143870795 -0.13210441 0.10503492 -0.09160482 -0.1960096 -0.2607218 -0.07489305 -0.33399427
0.29345638 -0.16890226 -0.14651896 0.03268214 0.09165279 -0.0333374 0.24254571 -0.20610382
0.12670675 -0.0007973762 -0.28760546 -0.13692942 0.0899748 0.067543484 0.25708118 0.23652473
-0.19283608 -0.15097772 -0.07496795 -0.25329292 -0.095455825 -0.28931728 0.13447125 0.25016
0.027993094 -0.25310203 -0.2677488 -0.13763803 0.1028322 0.008623878 0.064283766 0.33321744

static_variable_selection.grn_v.linear2.bias f4 [8]
00000000: 5e25 283e 66b1 9b3d 277f 92bd 1343 2b3e
00000010: cc72 043e 98ef a2be 07dc 55be 036f 423c
0.16420504 0.076021954 -0.07153159 0.16724806 0.12934417 -0.3182342 -0.20884715 0.011867288

static_variable_selection.grn_v.linear3.weight f4 [8, 8]
00000000: 705f 093e 0322 303e 8d83 57be 8597 b3be
00000010: 96df 96bc 948c 25bd dc1c d23d 3c20 c7bd
00000020: b664 8a3e fe40 c13c 5630 843e bc17 7cbe
00000030: 18d4 103e 768e 2c3d b212 35be d97a 333e
00000040: 6520 b2be 2159 923e 7768 e93c b8d2 0b3d
00000050: 566c 273e ef6d f03c 3e30 1b3e 8955 663e
00000060: 2f47 8dbe ad82 6f3e 4dd8 58bd 2e62 a8bd
00000070: 50be 913d a795 8d3e 4acf 44be 37fd 73be
00000080: 0faf 603e b709 2abe e41d e93d db59 55bd
00000090: ee4d c73d 7a23 8a3e 187b 37be 27af 2fbe
000000a0: a99f 313e 8194 9e3c 9b61 1fbd 5701 9fbe
000000b0: c15e 993e 205f 5bbc ae5d 85bd fc9c 14be
000000c0: 5de3 8ebd 94f6 2f3e 3122 05bc 2ecf 9a3e
000000d0: b737 a7bc c1bf 4fbd 725a 4c3e 26e3 15bc
000000e0: 4f85 90bd 8301 f23d e8c1 8e3e 72b1 b43d
000000f0: 1718 7c3e 6b9d 6a3e 7ac4 cc3d dfc0 fb3d
0.13415313 0.17200474 -0.21046276 -0.35076538 -0.018417161 -0.04041727 0.10259411 -0.09722945
0.2702996 0.023590561 0.25818127 -0.24618429 0.14143407 0.04212805 -0.17682913 0.17527331
-0.3479034 0.28583625 0.028492196 0.034136504 0.1634992 0.029349295 0.15155122 0.22493567
-0.2759337 0.23389693 -0.052940655 -0.08221851 0.07116377 0.27653238 -0.192197 -0.23827063
0.2194178 -0.16605268 0.11382654 -0.052087646 0.09731661 0.2698019 -0.1791805 -0.17156659
0.17346062 0.019357922 -0.038911443 -0.3105571 0.29955104 -0.013389379 -0.065120086 -0.1451301
-0.0697696 0.17183906 -0.008125828 0.3023619 -0.02041231 -0.05071998 0.19956377 -0.009148395
-0.070566766 0.118166946 0.27882314 0.088229075 0.24618565 0.22911613 0.099984124 0.122926466

static_variable_selection.grn_v.skip_layer.weight f4 [1, 8]
00000000: f6a5 e93d 5e36 163d eeff 993e 351b a73e
00000010: b4e1 003e 34a3 90bc 054d a23e 1de4 8cbe
0.11408608 0.036672942 0.3007807 0.32637945 0.12586099 -0.017655946 0.31699386 -0.27517787

static_variable_selection.grn_v.glu.linear4.weight f4 [1, 8]
00000000: 3dd1 3f3e 647a 683e 2e8a debc e30e 87be
00000010: cd20 813e ae4d 1ebe 8a83 be3d 7a1c 4d3e
0.18732162 0.22702938 -0.027165499 -0.26378545 0.25220338 -0.1545932 0.09302433 0.20030394

static_variable_selection.grn_v.glu.linear5.weight f4 [1, 8]
00000000: e135 c03c 0f9b 00be bc7a 803e b382 66be
00000010: a5d1 5b3e a6c1 613e fcbd 473e e2c7 ad3e
0.023463191 -0.1255915 0.2509364 -0.22510795 0.21466692 0.22046527 0.19506067 0.3394156

static_variable_selection.grn_ksi.0.linear1.weight f4 [8, 8]
00000000: 2323 0dbf 048e 783e e600 d5bd b0c5 b3be
00000010: bbab 9d3e 4f15 a83e 58ab 92be 5720 b73e
00000020: c63d 59be fb58 0e3f d76a 8f3e d605 59be
00000030: 8f7b 1cbe a591 10bd b6db 823d 0a87 523f
00000040: 59b1 083f a6dc b33e b8dc b43e 7fd5 0bbf
00000050: 7b69 1fbe cc09 02be fc94 7d3e b15c 0b3f
00000060: 3d0f a2be 6fe5 22be 22f3 a8be df75 fb3e
00000070: ab1a 16be abe3 be3e 23d6 e0be 0548 e1be
00000080: cecd 7c3e ca96 59be 3314 87be 167b 03bf
00000090: d7e0 473e 857b c33e ae9e 62be 1461 4e3e
000000a0: ee45 6c3e 6b31 80be 3589 c7be 91ea 26bf
000000b0: c84c ba3e f34b f73e 6111 98be 025e 973e
000000c0: 8cd8 2dbf f81f 8fbd 33de a9bd 0423 ca3e
000000d0: d746 873d 058a ad3e 3451 c6be 7551 04bf
000000e0: 28cb e9bd 575c a1bd ea2a 8fbe 74ba 2abf
000000f0: 8927 8d3e fc45 ad3e 747a c1be 446e 8b3e
-0.5513174 0.24272925 -0.10400562 -0.3511176 0.30795082 0.32828757 -0.2864635 0.3576686
-0.21214971 0.55604523 0.280112 -0.21193632 -0.15281509 -0.035295147 0.06389563 0.82237303
0.5339561 0.3512928 0.35324645 -0.54622644 -0.15567581 -0.1269905 0.24763864 0.5443831
-0.3165225 -0.15907834 -0.32997996 0.49113366 -0.1465861 0.37283072 -0.43913373 -0.4400026
0.24687883 -0.21248928 -0.26382598 -0.5135969 0.19519363 0.38180175 -0.22130844 0.2015422
0.23073551 -0.25037703 -0.38971868 -0.6520167 0.36386704 0.48300132 -0.2970076 0.2956391
-0.6790855 -0.069885194 -0.08294334 0.3947984 0.066053085 0.33894363 -0.38733828 -0.51686794
-0.11415702 -0.078789406 -0.27962428 -0.66690755 0.27569225 0.33842456 -0.37788737 0.27232563

static_variable_selection.grn_ksi.0.linear1.bias f4 [8]
00000000: 0fda a03e 23c0 143d 6d92 6f3e 453f 30be
00000010: e995 09be d6e9 68bd ea16 5fbe 2179 b7bc
0.31416366 0.03631605 0.23395701 -0.17211635 -0.13436092 -0.05686363 -0.21786085 -0.022396626

static_variable_selection.grn_ksi.0.linear2.weight f4 [8, 8]
00000000: cc06 a33c c26b 833e 63c2 c23d 6574 a0bd
00000010: 88af 50bf 5d46 17bf 65a4 123e b02a 7fbe
00000020: 6a74 68bd f268 0b3d 5f04 52be dd88 b0be
00000030: e1db 6fbf 00e2 8abd d184 51be b83f 023d
00000040: 5132 2abf 2595 083f bf71 cc3e 7024 02bf
00000050: 5b3b 25bf 22f1 40bd 8c11 82bd 7e62 79be
00000060: de19 653c 035c 353f 8505 c2bd fa89 2cbf
00000070: 9112 bcbe a53e 333f 7f23 b6be 142b 18bf
00000080: e3a7 5cbd da7c f83d 9dcd 08bf 1a88 e53e
00000090: e10e a63e 67b9 2abd 2276 35be b0a3 97bc
000000a0: db14 1abe e2e7 00be 51fb 78be 44cc e63e
000000b0: dbe3 2f3f 5303 793e 975a 3abf 3bce f73d
000000c0: bb6b 51bf d670 74bd c034 e93e 31e3 8fbe
000000d0: 16b8 88bd 6b7d df3d 4d00 4a3f 03ec 0bbf
000000e0: 5cd8 a4be 7a66 a8be 6638 76bf 9c8d 063e
000000f0: 5edb 27bf 2de4 53be 0c3a 45be f37b 43bf
0.019900702 0.2566815 0.095097326 -0.078347005 -0.8151784 -0.5909174 0.14320524 -0.24918628
-0.056751646 0.03403563 -0.2050948 -0.34479418 -0.93694884 -0.06781387 -0.20460822 0.03179905
-0.66483027 0.53352576 0.3993053 -0.5083685 -0.64543694 -0.047104962 -0.06351003 -0.24353978
0.013983218 0.70843524 -0.09473709 -0.67398036 -0.36732915 0.7001746 -0.35573956 -0.5944073
-0.053871047 0.121331885 -0.5343874 0.448304 0.32433227 -0.04168072 -0.17720845 -0.01851067
-0.15047018 -0.12588456 -0.2431462 0.45077717 0.68707055 0.24317674 -0.7279448 0.12099882
-0.8180501 -0.05967792 0.45548058 -0.2810302 -0.066757366 0.109125935 0.7890671 -0.54657
-0.3219632 -0.32890683 -0.9617981 0.13139957 -0.655691 -0.20692511 -0.19260424 -0.76361006

static_variable_selection.grn_ksi.0.linear2.bias f4 [8]
00000000: 6e44 3ebd 4abe f8bd 54fd 81be e831 57bd
00000010: b88e f5bd f768 5dbe 00b0 9ebd 9ed9 4a3e
-0.04645198 -0.1214567 -0.25388587 -0.05253783 -0.11990112 -0.21622072 -0.07748413 0.19809577

static_variable_selection.grn_ksi.0.linear3.weight f4 [8, 8]
00000000: 0b22 26bd 27f3 81be a49f 35be 2c68 383d
00000010: 6f39 543e 313d 343e b3de 1fbe 3021 abbe
00000020: 246b 9ebe a65e e6bd b753 913b 729e 22be
00000030: 0822 8fbe 209e 183d b3ae 8fbe 5602 8bbe
00000040: b028 93be ab34 c4bd 05e3 9f3e 2587 0d3e
00000050: ceb4 2bbd f505 953d c62a 103e 23ff 063b
00000060: 6c01 92be 7c0e 5fbe b4f3 75be 7f16 13bc
00000070: 95b4 a5be 0da7 83bd 2d63 04be 9fa5 b13e
00000080: 0b23 933e a04a 523e 796e a23c c16f eabd
00000090: d4b0 b83d ac24 7abe 3469 1abe e274 91bd
000000a0: 1920 aabd e27a abbe eeeb 0f3e f010 953e
000000b0: dfb0 47be d52f c33d e0f2 27bd 5c45 53bc
000000c0: 6dd3 a83c 42de 9c3e fc09 423d b60d 65be
000000d0: ef3a 02be a3dd 303e 9cf3 e13d a32a e13b
000000e0: 801f 3fbd 61dc 0cbe 537f 00be 67f8 3ebe
000000f0: 134c 6d3d f459 cb3d 5a9d 8a3e 2b94 a3bd
-0.04055981 -0.25380823 -0.1773668 0.04502122 0.20725034 0.17601468 -0.15612297 -0.33423758
-0.30941117 -0.112485215 0.0044350284 -0.15880755 -0.2795565 0.037260175 -0.28062972 -0.2715022
-0.2874198 -0.09580358 0.3122789 0.13821085 -0.041920476 0.07276527 0.14078817 0.002059885
-0.2851671 -0.21782869 -0.24018747 -0.008977531 -0.32364336 -0.06428347 -0.12928458 0.3469667
0.28737673 0.2053628 0.019828068 -0.114470966 0.09018102 -0.24428052 -0.15079194 -0.07102372
-0.083069034 -0.3349219 0.14054844 0.29114485 -0.19501065 0.095306076 -0.041003108 -0.0128949545
0.020608628 0.3063832 0.047372803 -0.22368512 -0.12717794 0.17272048 0.11032793 0.006871538
-0.0466609 -0.13755943 -0.1254857 -0.18649445 0.05793388 0.099292666 0.27073175 -0.07987245

static_variable_selection.grn_ksi.0.layernorm.weight f4 [8]
00000000: ec05 8d3f 0489 0540 87ca 793f fb47 593f
00000010: 2910 da3f 7e09 c73f e6c0 ab3f 7e83 783f
1.1017432 2.0864878 0.9757466 0.8487546 1.7036182 1.5549772 1.3418243 0.9707564

static_variable_selection.grn_ksi.0.layernorm.bias f4 [8]
00000000: b163 763d d669 80be 758d cd3c 1f18 efbe
00000010: 7a3e a8bd a944 f8bc 2f3b 583e ae2e 133e
0.060153667 -0.25080746 0.025091866 -0.4669809 -0.082150415 -0.030306177 0.21116327 0.14373276

static_variable_selection.grn_ksi.0.glu.linear4.weight f4 [8, 8]
00000000: fcab 5cbe b37b 43be eb10 bf3e 28aa 0bbf
00000010: d88f b6be 76b9 4cbe 8188 0fbf bce5 d3be
00000020: 7e63 0dbf c486 1dbe e4e9 0e3d 0e61 d03d
00000030: ef0c a6bf a483 e0bf 55df 2d3e 3011 07c0
00000040: 35ae 4dbf 96ac 1d3e 4d68 1c3d 99ea 8bbe
00000050: 6c94 44bf 022b 83bf c73d 4bbe e864 87bf
00000060: 155f abbe 38c1 ab3d a66b d13f 957f 62c0
00000070: 996c 9bbd 1cc0 94bd 1173 2ac0 b88a f1bd
00000080: 2418 d63e 833d 9d3e ea45 f33d f517 21be
00000090: bc75 d83e 9207 4f3e 2349 30bd 54d0 453e
000000a0: 2574 093e 9af6 2540 639d 0f40 748b 9fbf
000000b0: c57d 8f3c 4c07 fa3a 356e bbbf 7c9c d83d
000000c0: aa8d b33d 9241 0d3f d82c 883e c3e4 adbe
000000d0: 713f e7be 6bb2 b0be f78a 8fbe 191d cabe
000000e0: 9013 2bbf 619e 37be dcd0 e03d a7a7 f1be
000000f0: 8089 8dbf 71c7 b0bf 48f7 d3be ea03 8cbf
-0.21549982 -0.19090156 0.37317595 -0.5455651 -0.3565662 -0.19992623 -0.56067663 -0.4138621
-0.5522994 -0.1538344 0.034891024 0.10174762 -1.2972697 -1.7540174 0.16979726 -2.110424
-0.80343944 0.15397868 0.038185406 -0.2732742 -0.76788974 -1.02475 -0.19847785 -1.0577669
-0.3347098 0.08386463 1.6360977 -3.539037 -0.07589073 -0.072632045 -2.663273 -0.117940366
0.41815293 0.30710992 0.118785694 -0.15731795 0.42277324 0.20217732 -0.0430385 0.19317752
0.13423212 2.5931764 2.2439811 -1.2464433 0.017516026 0.0019075661 -1.4643008 0.10576722
0.08767255 0.5517818 0.26596713 -0.33963594 -0.4516559 -0.34511122 -0.2803571 -0.39475325
-0.66826725 -0.1793151 0.10977337 -0.4719822 -1.1057587 -1.3810865 -0.41399598 -1.0938694

static_variable_selection.grn_ksi.0.glu.linear4.bias f4 [8]
00000000: 18f2 2d3f ac73 bbbd 0838 843b 5a63 0a3f
00000010: bf56 473f b6cf bf3e 2dc8 f13e 2fc1 f03e
0.6794753 -0.09152922 0.0040349998 0.5405785 0.7786674 0.37463158 0.47223035 0.47022387

static_variable_selection.grn_ksi.0.glu.linear5.weight f4 [8, 8]
00000000: cbd4 353e 2d5d 513e cc1f d7bd 073c 2f3d
00000010: 3fd0 6fbe 697a 0ebd 4b81 753d 7cf0 cbbd
00000020: 4138 8a3e 9253 06bd aa70 26be d7d1 533e
00000030: 065c 4fbd ae73 863d 7c76 313e ece2 b73d
00000040: e149 85be 62a6 9d3e efb2 8b3d 4fff f9bd
00000050: 36c0 46be c5dd 02be 78dd 01be c47f 38be
00000060: 054b 493f 9ac9 af3e e6d6 c4bb 9565 ee3c
00000070: 99af ca3e 01eb 023f 5a0c 183d 9dea 343f
00000080: 40a3 183e cf4b 693e 1381 be3d dead 09be
00000090: dc19 a43e 9354 473e 4597 84bd 8321 6e3e
000000a0: 42a0 16bd 27c1 043e b815 733d a1f7 98bd
000000b0: b561 6cbf 4506 0fbf 665f 213a 20f1 00bf
000000c0: 4110 fb3c fe24 623d f5d7 1c3e fdb6 36be
000000d0: 4c2e 763c d518 6c3d eefd 85be ab02 e03d
000000e0: 04bd 863e a342 aa3e 1715 913d 9cab 1abe
000000f0: 943d ffbd 46ec 1abd cded 57bd 7663 aabd
0.17756955 0.204457 -0.10504112 0.042781856 -0.23419283 -0.03478471 0.059937757 -0.09957978
0.26996043 -0.032794543 -0.16253915 0.20685516 -0.05062487 0.06565033 0.17330354 0.08978829
-0.26032928 0.30791003 0.06821238 -0.122068994 -0.1940926 -0.12779911 -0.1268214 -0.18017489
0.78630096 0.34333497 -0.006007063 0.029101172 0.39587095 0.5113984 0.037121154 0.7067049
0.14906025 0.22782825 0.09301963 -0.13445231 0.3205098 0.19465856 -0.06474165 0.23254971
-0.036773928 0.12964307 0.059346884 -0.074691065 -0.9233659 -0.5586894 0.0006155878 -0.5036793
0.030647399 0.05521106 0.15316756 -0.17843242 0.0150256865 0.05764087 -0.26170295 0.10938009
0.26316082 0.33253965 0.07084101 -0.15104526 -0.12462917 -0.037822984 -0.05271702 -0.08319752

static_variable_selection.grn_ksi.0.glu.linear5.bias f4 [8]
00000000: bd54 9bbe ee4a 04bf 7143 c7be 4f65 063f
00000010: 2897 48bf df92 ed3d 244b d83e 79c7 32be
-0.30338088 -0.51676834 -0.3891864 0.52498335 -0.78355646 0.11600279 0.42244828 -0.17458905

encoder_variable_selection.grn_v.linear1.weight f4 [8, 8]
00000000: 4683 95be 3e30 0a3f 2b68 18bf 355d 0fbf
00000010: 0a6c bd3e 1a8b eabe 8cac c7be 6061 a5be
00000020: 724c ae3d ed66 33be 2161 113e a134 6b3e
00000030: 48c2 f6be f749 603e df36 1c3f f699 e43e
00000040: e82f 753d 8487 013e 3da0 89bd 9048 7c3f
00000050: b163 463f 3ced 333f 3748 cfbc 18b9 39bf
00000060: 9587 3e3f b8ef b7bd 55a5 19bf b863 27be
00000070: 6f1f f43c b9bc 8e3f ce97 66bf 86fc 76bc
00000080: d76a 82bd 6793 133d 7338 b93e 6849 273f
00000090: 094f 14bf 1cbd b43e fb5b 873f 55de 793e
000000a0: 302c bcbe 6569 b93e 55f4 3b3e ada6 00bf
000000b0: 6420 723f 75b5 32be 0236 2c3e eb4a c8be
000000c0: 5a16 eb3c 33f3 d3be 1566 173f 7778 823e
000000d0: c0e6 a6bf c9a3 b43e 8dbb 0d3e 78ef 013e
000000e0: 3c78 a8be 4f54 923e 2ce1 263f ef2b 163f
000000f0: abdb 12bf c78b 05bf dc12 ef3e 3172 cf3e
-0.29201716 0.5397986 -0.5953395 -0.560016 0.3699649 -0.4580925 -0.3899883 -0.32300854
0.085106745 -0.17519732 0.14197208 0.22969295 -0.481951 0.21903215 0.61021227 0.44648713
0.05986014 0.12649351 -0.06720016 0.9854822 0.77495867 0.70283866 -0.02530299 -0.72548056
0.7442563 -0.089812696 -0.600179 -0.16346633 0.029800145 1.1151344 -0.90075386 -0.015074855
-0.06368034 0.036029246 0.3617588 0.65346384 -0.579331 0.3530053 1.0574945 0.24401219
-0.36752462 0.36213222 0.18354924 -0.5025433 0.94580674 -0.17452033 0.16817477 -0.39119658
0.028697181 -0.41396484 0.5914014 0.25482532 -1.3039169 0.35281208 0.13841076 0.12689006
-0.32904232 0.28579947 0.65187335 0.5866079 -0.57366437 -0.5216641 0.46694076 0.4051681

encoder_variable_selection.grn_v.linear1.bias f4 [8]
00000000: 793d 993e c762 05bf 71e5 8bbe 0222 cfbe
00000010: 40d1 92bd f23c f83e 4f1a 53bd f268 fd3b
0.29929712 -0.5210385 -0.27323487 -0.40455633 -0.071688175 0.48483998 -0.05153876 0.0077334577
