TFT_power/best_model/best1.pth (torch, 235002 bytes, 348 tensors)

static_cate_emb.embedding.0.weight f4 [101, 16]
1.9269153 1.4872841 0.9007172 -2.105521 0.67841846 -1.2345449 -0.043067478 -1.604667
-0.7521353 1.648723 -0.39247864 -1.4036071 -0.7278813 -0.5594302 -0.7688389 0.7624454
0.30328476 -0.55228186 -1.2170675 1.2055355 0.11823259 1.2341665 1.449907 1.541454
-0.32916236 2.1965992 -0.5498221 1.9132743 -0.3924829 -0.4509981 0.2633943 1.2591248
-0.4833283 -0.1578338 -0.39990112 2.2084038 -0.05761693 0.47020522 -0.6837461 -0.18539794
-2.2730033 -0.37352538 0.1544992 1.1219467 -1.5815039 1.9477348 -1.265945 -0.27768177
0.13206197 -1.1150091 -0.2417144 0.74213094 0.7544413 0.84852296 0.063860446 -1.850802
-0.861942 1.0819259 -0.16834731 -0.11450607 -0.9921171 0.74126273 -0.60698044 -0.16379634
0.13536623 0.3328376 0.382643 1.7526714 1.2185693 -0.4754802 -2.9736536 0.5039337
-1.2932984 0.110621825 -1.7740314 1.6063677 0.52262 -0.6459856 -0.4870832 -0.8840787
0.62980586 -0.62017876 -1.1978012 0.20675272 1.05708 1.2699802 0.4984186 0.06806623
0.2361548 -0.47452697 -1.2109982 -0.1569741 -1.5006613 -1.5059613 0.9200746 -0.03530475
-4.2102866 1.0402786 0.5164834 -0.041535683 -0.3116122 0.75842524 1.4225591 -0.0049823923
-0.4497474 0.44081926 -0.29685676 0.61332583 0.31610683 0.6309511 -0.078143634 0.38020176
-0.08154539 -0.51932746 -0.54303616 -0.34874675 0.1800273 -0.21020012 0.11173215 -0.03814283
0.26071203 -0.29581195 -0.07767589 1.7090429 0.9394135 0.37752858 1.8188016 -0.67946345
1.7407274 1.3347816 -1.9452246 -1.5449065 -0.5394125 0.6383318 0.6543477 1.2750044
1.4387716 -0.24967347 -1.6018584 0.086529456 -2.4651902 0.07079073 0.86448234 -0.24955902
-0.92427045 0.9971299 3.5317426 -1.1357833 -0.60940963 -0.58403933 0.794662 -0.49804252
0.7881757 1.6812115 0.070024736 0.73864377 -2.269023 0.7914487 -1.1008133 -0.16088513
-1.3229305 -0.20928344 -1.8385546 1.5873035 0.23942786 -0.9149391 -0.72280025 1.6826376
-0.34805268 0.5963421 1.0170643 -1.3499693 -1.5805397 -1.4789547 0.12201452 0.6086947
-1.0481361 0.30963132 -0.8558317 2.5754724 0.1054421 -0.39497527 -2.113054 0.32234487
-0.9617894 -0.7832999 -1.2828668 1.6155314 0.14955582 -0.52110326 0.04693224 0.09922413
3.733659 -0.46146733 -0.60645694 -1.175496 -0.9870829 0.07062523 0.6115512 1.8602675
-0.51405466 1.1070954 -0.39299738 -0.23198113 -1.0606188 0.16923767 0.7800375 0.10318792
-0.75743806 0.28268805 -2.6042824 0.2872473 0.3832857 -0.30367565 -1.033292 0.4111634
0.7086624 0.07714544 0.3448492 -2.1310291 -0.76630294 -1.6406581 -0.25878555 0.74339217
-0.6319324 0.7693783 -0.29242766 -0.15577652 -0.3156897 0.19710252 -0.28338623 4.007118
0.2736928 -1.2924498 -0.6174724 -1.5242956 -0.78252596 -0.392063 -1.0054394 -0.27247304
-0.71090466 1.0341473 -0.849359 0.788116 -0.1138365 -0.040525842 -0.6262463 0.54437757
1.2863127 -0.6068427 2.0450737 -0.79125464 -0.5768334 -0.108772986 -0.52478164 -0.5050757
00000000: 29a5 f63f 535f be3f 6795 663f dbc0 06c0
00000010: d5ac 2d3f 9105 9ebf 8667 30bd ba65 cdbf
00000020: f08b 40bf 5b09 d33f f6f2 c8be 66a9 b3bf
00000030: 6e56 3abf d136 0fbf a0d2 44bf 9f2f 433f
00000040: 2448 9b3e 5862 0dbf dec8 9bbf fd4e 9a3f
00000050: ee23 f23d 2bf9 9d3f 8d96 b93f 5d4e c53f
00000060: f887 a8be 1595 0c40 24c1 0cbf 2ce6 f43f
00000070: 85f3 c8be 39e9 e6be 9edb 863e 002b a13f
00000080: cf76 f7be 2f9f 21be d7bf ccbe 7d56 0d40
00000090: bbff 6bbd bdbe f03e fc09 2fbf f5d8 3dbe
000000a0: e378 11c0 b83e bfbe 0a35 1e3e f39b 8f3f
000000b0: b86e cabf 604f f93f 7c0a a2bf 4e2c 8ebe
000000c0: 413b 073e 9eb8 8ebf fb83 77be 4bfc 3d3f
000000d0: 1123 413f cd38 593f 44c9 823d 14e7 ecbf
000000e0: 3ba8 5cbf 8c7c 8a3f 3d63 2cbe 2982 eabd
000000f0: 63fb 7dbf 65c3 3d3f 1263 1bbf 3aba 27be
00000100: 729d 0a3e b169 aa3e c9e9 c33e 8957 e03f
00000110: 14fa 9b3f 2472 f3be 5750 3ec0 cd01 013f
00000120: cd8a a5bf b28d e23d 7613 e3bf 759d cd3f
00000130: 6dca 053f 505f 25bf f862 f9be fb52 62bf
00000140: f53a 213f 09c4 1ebf 8d51 99bf fcb6 533e
00000150: 664e 873f b68e a23f b930 ff3e 4f66 8b3d
00000160: 90d2 713e 33f5 f2be fd01 9bbf d2bd 20be
00000170: ab15 c0bf 57c3 c0bf 028a 6b3f b79b 10bd
00000180: abba 86c0 d927 853f 4238 043f 5221 2abd
00000190: a28b 9fbe 2828 423f 6b16 b63f 5643 a3bb
000001a0: 4b45 e6be 10b3 e13e 9cfd 97be ec02 1d3f
000001b0: c1d8 a13e 0386 213f c509 a0bd cea9 c23e
000001c0: 4501 a7bd a5f2 04bf 6b04 0bbf ef8e b2be
000001d0: 1459 383e b33e 57be d3d3 e43d a83b 1cbd
000001e0: 0c7c 853e aa74 97be 8914 9fbd ebc1 da3f
000001f0: 677d 703f 6d4b c13e 7ece e83f 51f1 2dbf
00000200: 28d0 de3f 20da aa3f 1ffd f8bf 7fbf c5bf
00000210: f016 0abf b669 233f 5583 273f 5833 a33f
00000220: ab29 b83f 67aa 7fbe b209 cdbf 5b36 b13d
00000230: adc5 1dc0 bbfa 903d b74e 5d3f 668c 7fbe
00000240: fd9c 6cbf e843 7f3f 1208 6240 5961 91bf
00000250: 4502 1cbf 9a83 15bf f86e 4b3f 6eff febe
00000260: e2c5 493f f031 d73f 2169 8f3d c217 3d3f
00000270: ac37 11c0 629c 4a3f 73e7 8cbf 12bf 24be
00000280: c955 a9bf 664e 56be c255 ebbf c32c cb3f
00000290: 942c 753e 7339 6abf 7009 39bf ab60 d73f
000002a0: f633 b2be e0a9 183f 2a2f 823f cbcb acbf
000002b0: 204f cabf 634e bdbf c0e2 f93d 6ad3 1b3f
000002c0: 5329 86bf ff87 9e3e c917 5bbf 8ad4 2440
000002d0: 07f2 d73d 333a cabe 473c 07c0 630a a53e
000002e0: d537 76bf 5886 48bf fb34 a4bf bcc9 ce3f
000002f0: 2925 193e 0667 05bf 053c 403d 0536 cb3d
00000300: 45f4 6e40 7245 ecbe c340 1bbf a776 96bf
00000310: 77b1 7cbf f6a3 903d 9f8e 1c3f 3f1d ee3f
00000320: 1699 03bf 4db5 8d3f f436 c9be 768c 6dbe
00000330: 5bc2 87bf a44c 2d3e 8ab0 473f 3054 d33d
00000340: 76e7 41bf 7dbc 903e 90ac 26c0 1412 933e
00000350: 063e c43e 607b 9bbe ea42 84bf 0284 d23e
00000360: e66a 353f 6efe 9d3d 1390 b03e c862 08c0
00000370: 6e2c 44bf 1601 d2bf 8a7f 84be f34e 3e3f
00000380: 52c6 21bf faf5 443f 14b9 95be e183 1fbe
00000390: 15a2 a1be 3ed5 493e 0018 91be 503a 8040
000003a0: 7621 8c3e ff6e a5bf ac12 1ebf 1e1c c3bf
000003b0: 9f53 48bf 7bbc c8be 3db2 80bf 9681 8bbe
000003c0: d9fd 35bf f05e 843f 976f 59bf f8c1 493f
000003d0: 1c23 e9bd 6dfe 25bd ad51 20bf 545c 0b3f
000003e0: e5a5 a43f 0b5a 1bbf 7de2 0240 aa8f 4abf
000003f0: 5bab 13bf 5fc4 debd 1758 06bf a44c 01bf

future_emb.embedding.0.weight f4 [32, 16]
0.8866237 -0.8611427 -0.27264783 0.9804211 -0.17533334 -0.12276918 0.7414069 0.3539519
-0.5345798 0.64536744 -2.989066 0.18370742 -0.47269785 -0.95882463 -1.5123531 1.5067633
0.055968318 0.11706516 1.6655174 -0.46053356 -0.1896684 -0.21387571 0.31422505 0.9607311
0.9918046 -0.9097943 1.4319755 0.11970224 0.60367525 0.13320184 -1.4832383 0.0051596006
0.64653534 -0.09395971 -0.33712894 -0.7021719 -1.9284301 -0.60763854 0.18250075 0.2298525
-1.1212116 -0.88067716 -0.64602643 0.2935223 -0.5493086 0.22109771 -1.0213854 0.23350002
0.04110766 0.19422102 0.07056027 1.1804075 -0.014171873 1.0068468 0.84455913 -0.644523
0.7372697 -0.5742742 1.2413982 -1.8402598 -1.2756302 0.5803527 -0.70467347 1.2148081
0.7099417 -0.7957616 0.0842958 -0.36588103 -0.074615754 1.1104462 -0.8158465 1.1516137
0.17053677 0.0662018 1.1393654 1.8973013 -0.98736674 -0.10603142 -1.215475 0.14573684
-0.14409795 0.1947444 0.58825076 -0.0397112 0.14633998 0.5300757 0.16826132 1.4766856
-0.91134274 -1.443842 1.536507 0.77533424 0.063132 -0.5037138 -2.8565319 -0.48243955
0.3702394 -1.0888017 1.3207172 1.5134279 -0.28088987 0.2697424 1.0504582 0.43469867
-0.31894523 -1.7180393 0.716402 -0.33811316 1.1104599 -0.50190127 -1.3207632 0.25604734
0.100435555 0.9130832 0.2938485 1.5391175 -3.2302704 0.7861797 0.26814577 -0.54906553
-1.0065446 0.3455543 1.1991028 -1.2032052 -1.5579524 0.41405344 0.4462178 -1.4475162
-0.79948455 1.4448322 -0.34622 -1.523847 0.89276254 -1.006285 2.0771792 1.3398238
1.2567419 0.24119957 -1.4599283 1.5215402 -0.042064693 2.1191921 -1.7901076 -0.2053293
-0.8847798 0.58613044 -0.9331068 -0.31621078 0.7522791 -0.87842137 0.8355609 -0.035255592
-1.226765 -0.3785697 0.77666664 0.86064553 0.11592829 0.28584233 -0.5330641 0.11785555
-1.9030064 -0.10156941 -1.1981251 0.4754228 2.0748305 0.32418138 -0.10485224 1.5978627
0.3308162 0.15446605 -0.6535778 -0.06262328 0.05589899 0.007572018 -0.4381264 0.35834813
0.73793596 1.3591405 -0.058390643 -0.39283448 -0.8541417 -0.880744 0.03842143 -0.23996538
-0.38749167 1.1183276 -0.0976611 0.8697404 -0.56089425 -0.558004 0.64882046 -0.91207755
-2.2039316 0.4591902 0.3357416 0.51245505 0.46483308 -0.35839653 -0.46439672 -0.6251695
0.4912124 0.28408507 1.8726132 0.1341498 0.7185884 -1.6195923 0.1313072 -1.571793
-0.89097077 0.06566539 0.62010866 -0.77188873 0.03393558 -0.53644073 0.81252265 -0.039329384
-0.036382277 1.6971189 -2.4056027 -0.38681722 0.34715793 -1.8708827 -0.30519053 -0.91740423
1.4380805 1.3910979 -0.17514984 -0.2573794 -0.46030253 0.93249136 -0.8130377 1.3362814
-1.1279546 1.4860221 -1.1267682 0.42820957 0.4564909 -1.7209795 -1.7696701 -2.0778682
1.4995011 -0.921999 -0.4449351 -1.1832546 2.2772162 -0.7728947 -0.16536616 -0.02650611
-1.3909346 1.7271723 1.6524751 -0.4520926 -0.7635203 -0.10579586 -1.7734946 -1.5472729
00000000: c5f9 623f d973 5cbf 7f98 8bbe e1fc 7a3f
00000010: 958a 33be 686e fbbd d8cc 3d3f 2f39 b53e
00000020: 39da 08bf cd36 253f db4c 3fc0 cc1d 3c3e
00000030: 7405 f2be 8875 75bf c994 c1bf 9fdd c03f
00000040: 093f 653d dcbf ef3d ad2f d53f 0ecb ebbe
00000050: 6f38 42be 3c02 5bbe 1be2 a03e 79f2 753f
00000060: e8e6 7d3f 47e8 68bf f94a b73f 7326 f53d
00000070: 768a 1a3f 1066 083e c1da bdbf de11 a93b
00000080: 5783 253f f36d c0bd 2a9c acbe 8ac1 33bf
00000090: ccd6 f6bf 338e 1bbf 7ae1 3a3e 745e 6b3e
000000a0: dd83 8fbf 0f74 61bf fd61 25bf 8e48 963e
000000b0: 7d9f 0cbf 7067 623e c2bc 82bf a11a 6f3e
000000c0: 8160 283d e0e1 463e e781 903d 9817 973f
000000d0: 2531 68bc 5be0 803f 0735 583f 76ff 24bf
000000e0: b5bd 3c3f a203 13bf 23e6 9e3f a28d ebbf
000000f0: da47 a3bf ff91 143f 7b65 34bf d57e 9b3f
00000100: bdbe 353f 08b7 4bbf 47a3 ac3d c254 bbbe
00000110: 25d0 98bd 1a23 8e3f 51db 50bf 1468 933f
00000120: 31a1 2e3e cf94 873d bad6 913f c5da f23f
00000130: 11c4 7cbf 0027 d9bd af94 9bbf 0a3c 153e
00000140: 6a8e 13be 136b 473e 9a97 163f 36a8 22bd
00000150: 26da 153e 0bb3 073f b24c 2c3e 0904 bd3f
00000160: c24d 69bf d1cf b8bf 43ac c43f 4e7c 463f
00000170: 5a4b 813d 63f3 00bf 6bd1 36c0 5102 f7be
00000180: 0590 bd3e db5d 8bbf 430d a93f 01b8 c13f
00000190: ccd0 8fbe ad1b 8a3e 6a75 863f d390 de3e
000001a0: ca4c a3be b6e8 dbbf 1f66 373f 2b1d adbe
000001b0: 8d23 8e3f 9a7c 00bf c50e a9bf a318 833e
000001c0: 28b1 cd3d d2bf 693f 5073 963e cd01 c53f
000001d0: c0bc 4ec0 1343 493f 674a 893e 8f8f 0cbf
000001e0: 74d6 80bf 7eec b03e 337c 993f a102 9abf
000001f0: fc6a c7bf d0fe d33e a976 e43e 3648 b9bf
00000200: 05ab 4cbf 43f0 b83f bf43 b1be 6b0d c3bf
00000210: 168c 643f f2cd 80bf 81f0 0440 597f ab3f
00000220: ebdc a03f 05fd 763e eede babf d4c1 c23f
00000230: 074c 2cbd d8a0 0740 3f22 e5bf d841 52be
00000240: ee80 62bf a50c 163f 16e0 6ebf 61e6 a1be
00000250: 5d95 403f 39e0 60bf 52e7 553f 2b68 10bd
00000260: a306 9dbf e3d3 c1be a0d3 463f 4453 5c3f
00000270: d06b ed3d ed59 923e e476 08bf 405e f13d
00000280: b795 f3bf 9f03 d0bd 2a5c 99bf 9e6a f33e
00000290: 06ca 0440 1afb a53e c5bc d6bd c486 cc3f
000002a0: be60 a93e 592c 1e3e e050 27bf a240 80bd
000002b0: 57f6 643d b11e f83b 1a52 e0be 6879 b73e
000002c0: 5fe9 3c3f 51f8 ad3f 072b 6fbd 9a21 c9be
000002d0: 08a9 5abf 7078 61bf ca5f 1d3d 7cb9 75be
000002e0: 4f65 c6be 5c25 8f3f 8b02 c8bd 4fa7 5e3f
000002f0: c496 0fbf 5ad9 0ebf 1919 263f ea7d 69bf
00000300: 370d 0dc0 fa1a eb3e 53e6 ab3e 4130 033f
00000310: 9afe ed3e c07f b7be 68c5 edbe 1c0b 20bf
00000320: 3180 fb3e 9973 913e cab1 ef3f 915e 093e
00000330: 69f5 373f cd4e cfbf 6575 063e 8330 c9bf
00000340: a916 64bf 937b 863d 71bf 1e3f 809a 45bf
00000350: 0900 0b3d 2e54 09bf 7c01 503f d917 21bd
00000360: 9505 15bd 313b d93f 65f5 19c0 e80c c6be
00000370: afbe b13e 1679 efbf ef41 9cbe 01db 6abf
00000380: 0613 b83f 7f0f b23f 7b5a 33be 3cc7 83be
00000390: c6ac ebbe c1b7 6e3f 3d23 50bf 450b ab3f
000003a0: d160 90bf f935 be3f f139 90bf 493e db3e
000003b0: 2db9 e93e 0e49 dcbf 8d84 e2bf cbfb 04c0
000003c0: a7ef bf3f 2008 6cbf 89ce e3be e374 97bf
000003d0: e9bd 1140 6ddc 45bf bf55 29be 5723 d9bc
000003e0: 250a b2bf fb13 dd3f 4e84 d33f ae78 e7be
000003f0: 1176 43bf 80ab d8bd df01 e3bf 0a0d c6bf

future_emb.embedding.1.weight f4 [7, 16]
-0.02369047 0.9039358 -1.0739375 -0.40125296 -0.3032321 0.9199218 0.7978508 0.4900966
-2.2521439 0.010311176 -0.68869424 1.054625 -0.55307186 1.342673 -0.38946855 -1.1538025
-1.133161 -0.024469763 0.9224638 -0.8152902 1.8347166 1.5574421 0.6691231 -0.002839337
0.40971547 1.6830935 -0.0805001 -0.17493634 -1.3919532 -0.30005834 0.04574945 -0.015984412
-0.71792674 -0.5788325 -0.16358681 -1.3093057 2.0877123 0.7185595 -0.390191 -0.17436942
-0.9531498 -0.07342316 -1.2247902 0.94672704 0.12761581 0.7722854 -0.20904554 0.81958395
-1.0401193 -0.70102245 0.32853252 0.06670912 1.4466076 1.1665218 0.5998161 0.16871725
-1.694573 -0.57571095 1.2820407 -2.0891757 0.5450783 0.57978386 0.56519943 -0.39734936
0.597304 -0.06804467 0.96321684 -0.6411144 0.47375873 -0.04011026 -1.0090194 2.282152
-1.1806694 1.0554746 1.1738534 -1.0473802 1.372391 -0.43596482 -0.10644729 -2.238485
1.1318787 0.1976457 -1.0841622 0.11019847 0.40676564 -1.6712152 -1.1495435 -0.74714404
1.2637539 0.4560419 0.7957714 -1.0284574 -0.4894828 -0.834803 0.05971229 0.54336107
-0.15161669 0.4179309 -0.8020815 1.7475785 1.0053515 -0.57932025 -0.8151062 0.06313005
1.0373415 0.26887742 -0.510877 1.6588278 0.6028237 -0.49515963 1.0719484 0.51065296
00000000: 8412 c2bc 5668 673f c976 89bf 0771 cdbe
00000010: 3d41 9bbe ff7f 6b3f f33f 4c3f f1ed fa3e
00000020: 2023 10c0 35f0 283c 444e 30bf f4fd 863f
00000030: 1e96 0dbf b5dc ab3f 6c68 c7be cdaf 93bf
00000040: 6b0b 91bf d074 c8bc 9626 6c3f dcb6 50bf
00000050: fed7 ea3f 435a c73f a74b 2b3f 2c14 3abb
00000060: 3ac6 d13e 9c6f d73f 3ddd a4bd 8322 33be
00000070: 862b b2bf 3fa1 99be c663 3b3d bef1 82bc
00000080: 0cca 37bf 5e2e 14bf 4d83 27be 5497 a7bf
00000090: 149d 0540 84f3 373f 1dc7 c7be e68d 32be
000000a0: a001 74bf e25e 96bd edc5 9cbf b45c 723f
000000b0: b8ad 023e 7fb4 453f 0910 56be 41d0 513f
000000c0: a122 85bf 3576 33bf 6a35 a83e cb9e 883d
000000d0: 702a b93f 9650 953f 8c8d 193f 37c4 2c3e
000000e0: c5e7 d8bf cb61 13bf e919 a43f 0eb5 05c0
000000f0: 408a 0b3f b76c 143f e9b0 103f 6071 cbbe
00000100: eae8 183f 015b 8bbd 6195 763f 1320 24bf
00000110: 8190 f23e a84a 24bd 8c27 81bf c70e 1240
00000120: 2d20 97bf cb19 873f d440 963f 8e10 86bf
00000130: 82aa af3f c836 dfbe 0901 dabd 5743 0fc0
00000140: 67e1 903f a263 4a3e d4c5 8abf bcaf e13d
00000150: 9643 d03e 61ea d5bf 3e24 93bf d544 3fbf
00000160: b0c2 a13f 537e e93e adb7 4b3f 7ea4 83bf
00000170: 7d9d fabe a6b5 55bf e094 743d b619 0b3f
00000180: 6841 1bbe 0afb d53e 3755 4dbf a7b0 df3f
00000190: 5caf 803f 554e 14bf cdaa 50bf 544a 813d
000001a0: 9bc7 843f 4daa 893e d6c8 02bf 7854 d43f
000001b0: a752 1a3f 9085 fdbe 9b35 893f 27ba 023f

future_emb.embedding.2.weight f4 [24, 16]
0.5295615 -2.0249538 -0.056171 1.4239562 -0.34602928 0.4283804 -0.36642906 -1.7035509
-0.40387842 2.237069 -1.3162932 0.56330407 1.9525317 0.013086479 -1.0337943 -2.4764812
0.27342996 -2.1888816 0.86897826 1.8310823 0.4470069 0.72875816 -0.9642127 -0.5213695
-0.07083332 2.8820503 -1.3018816 0.3009557 1.2092663 0.008719113 -1.7220855 -1.7900958
0.053230446 -1.7833285 1.5168899 1.1693107 -0.037263323 0.35464248 -0.52013844 -0.66079044
0.32937264 3.3244262 -0.9527663 0.10942307 1.6943021 -0.5120356 -1.7805076 -0.69146544
-0.5152099 -1.432165 1.4630473 1.5766256 0.025893774 -0.42874852 -0.75849813 -1.4917353
-0.30826363 2.956496 -0.7951431 -0.06465599 2.4236124 -0.17939696 -1.5365143 -0.33510917
-0.82796484 0.9174236 1.1814647 0.44126037 0.6117168 -1.3449743 -1.5474715 -3.482405
-1.1384169 2.922126 -0.08371458 0.603815 3.7120397 1.1441255 -2.760681 -0.1336416
-0.6704681 1.8359611 -2.9067693 -1.0906621 1.8082905 -1.8005233 0.4458145 -3.7526648
0.30142695 2.5562186 1.533792 2.9158697 2.4299407 0.7265571 -1.4319881 -0.9319485
0.29056555 0.90038174 -2.53147 -1.7750623 2.2419662 0.3249199 0.94890136 0.8741045
-1.4192171 -0.9440685 1.5145139 -0.8779884 0.7519873 0.2562916 -0.40274832 -0.9566405
-0.6561249 1.8810297 -0.8416516 -3.727292 1.687354 1.9232776 -0.1750292 1.3997629
0.46238306 0.093028836 0.52645177 -0.050673205 -1.2376163 -1.1743252 -0.5943103 -0.07632295
0.16858628 -0.085603885 -0.1845402 -2.5283325 0.2478033 0.54584664 0.8702013 -0.09096008
0.08133006 -1.623622 0.8396553 -0.08577744 0.08807541 0.21477394 0.43644592 0.5658047
0.062802374 2.1542618 0.99189544 -1.0570505 1.2878085 -0.03336473 0.44977382 0.03567318
0.7528918 -0.6134298 0.58639705 0.34204984 -0.5708876 -0.29124174 0.77489376 1.1901953
-0.4896686 -0.049488816 1.0381893 -0.21986413 1.0417162 -0.27052817 -0.10519816 -0.43518102
0.5368892 -1.1900065 -0.04806389 -1.074437 -0.8702445 -0.22380555 1.7271503 -0.20860632
-0.12508819 0.9195368 0.35354298 -0.010406923 -0.3204935 -0.7999223 -0.8664343 1.053967
0.35926524 -1.6459132 -0.9741076 -0.3766776 -0.6845901 -0.23569073 0.1970005 0.2749873
-0.36609608 -0.26576266 0.62957793 1.0149615 -0.547861 0.29672584 -0.6748588 1.1165884
0.09970688 -1.3013974 0.42591867 0.31061628 -0.85269 0.9710057 -0.12959601 0.12702669
0.5508728 0.44071344 0.23300865 1.006402 0.71747535 -0.7240096 0.3992519 0.8031761
0.19223669 -1.397443 0.00062475214 0.6241087 -1.6248952 0.3322919 -0.07162217 0.6256052
0.66526586 -0.7459229 1.0971338 1.3993111 0.34685078 -0.37746423 -0.17969565 0.629561
0.5429144 -0.9338703 0.5295257 0.23269556 -2.0475702 0.068772785 0.44357365 0.7913595
1.2121543 -0.1622113 0.66014874 0.46116343 -0.7500299 -0.1691886 0.35516474 -0.27898616
-0.21943441 -1.0222428 0.93642676 0.0035654241 -1.5223937 0.4473168 0.025936054 0.8954685
00000000: 5891 073f d898 01c0 9013 66bd 3244 b63f
00000010: c02a b1be ad54 db3e 979c bbbe f50d dabf
00000020: 27c9 cebe 232c 0f40 4c7c a8bf b234 103f
00000030: 8fec f93f ac68 563c 5f53 84bf ab7e 1ec0
00000040: 03ff 8b3e a316 0cc0 5c75 5e3f e860 ea3f
00000050: 17de e43e e58f 3a3f a5d6 76bf 7978 05bf
00000060: 0f11 91bd 8373 3840 0ea4 a6bf de16 9a3e
00000070: 3dc9 9a3f 9cda 0e3c 4c6d dcbf dc21 e5bf
00000080: 2b08 5a3d 1c44 e4bf 7329 c23f f9ab 953f
00000090: 6da1 18bd b393 b53e cb27 05bf 9029 29bf
000000a0: 88a3 a83e 66c3 5440 7ee8 73bf 3419 e03d
000000b0: e4de d83f c414 03bf ace7 e3bf e103 31bf
000000c0: cce4 03bf 2f51 b7bf 2245 bb3f dece c93f
000000d0: 2e1f d43c ed84 dbbe ef2c 42bf 2ff1 bebf
000000e0: bbd4 9dbe 3b37 3d40 808e 4bbf 5c6a 84bd
000000f0: 771c 1b40 d6b3 37be 80ac c4bf 6e93 abbe
00000100: 81f5 53bf 46dc 6a3f 3c3a 973f e1ec e13e
00000110: 7999 1c3f 1e28 acbf 8c13 c6bf b9df 5ec0
00000120: a5b7 91bf 1d04 3b40 8d72 abbd 9f93 1a3f
00000130: 0f92 6d40 b472 923f ffae 30c0 58d9 08be
00000140: cca3 2bbf c600 eb3f 8208 3ac0 d19a 8bbf
00000150: 1076 e73f 8c77 e6bf cc41 e43e a92b 70c0
00000160: a254 9a3e 1699 2340 4c53 c43f 9c9d 3a40
00000170: 2684 1b40 a5ff 393f 634b b7bf 2d94 6ebf
00000180: 02c5 943e 6b7f 663f 9b03 22c0 3e35 e3bf
00000190: 607c 0f40 e75b a63e 33eb 723f 50c5 5f3f
000001a0: e8a8 b5bf 79ae 71bf 97db c13f d9c3 60bf
000001b0: 3d82 403f a738 833e 0735 cebe 64e6 74bf
000001c0: cdf7 27bf 95c5 f03f 7b76 57bf f48b 6ec0
000001d0: 37fb d73f f62d f63f db3a 33be 6e2b b33f
000001e0: 79bd ec3e e785 be3d 8bc5 063f b58e 4fbd
000001f0: 366a 9ebf 4a50 96bf b824 18bf 354f 9cbd
00000200: e2a1 2c3e 1751 afbd 1bf8 3cbe 33d0 21c0
00000210: 26c0 7d3e 9bbc 0b3f 83c5 5e3f 4749 babd
00000220: 6090 a63d d8d2 cfbf a6f3 563f 15ac afbd
00000230: e160 b43d b3ed 5b3e d775 df3e 94d8 103f
00000240: 889e 803d 6ddf 0940 dcec 7d3f 6e4d 87bf
00000250: e9d6 a43f 75a9 08bd c148 e63e 0a1e 123d
00000260: 84bd 403f bc09 1dbf 1e1e 163f 2821 af3e
00000270: b125 12bf a31d 95be 705f 463f 5258 983f
00000280: d8b5 fabe c9b4 4abd 63e3 843f 1024 61be
00000290: f556 853f ab82 8abe 2272 d7bd 0cd0 debe
000002a0: 9271 093f 2252 98bf a4de 44bd 2787 89bf
000002b0: 58c8 5ebf 482d 65be 4313 dd3f e59c 55be
000002c0: 1e17 00be c466 6b3f 9603 b53e cc81 2abc
000002d0: b917 a4be b5c7 4cbf a3ce 5dbf 64e8 863f
000002e0: 9df1 b73e 49ad d2bf 1e5f 79bf e3db c0be
000002f0: 4c41 2fbf e958 71be 80ba 493e 23cb 8c3e
00000300: f270 bbbe 0b12 88be 052c 213f 42ea 813f
00000310: 9e40 0cbf 73ec 973e 8cc3 2cbf 5eec 8e3f
00000320: 1f33 cc3d 3194 a6bf 0312 da3e 1909 9f3e
00000330: e449 5abf d493 783f d1b4 04be 4913 023e
00000340: 0006 0d3f 31a5 e13e d299 6e3e c8d1 803f
00000350: 77ac 373f b158 39bf bf6a cc3e f39c 4d3f
00000360: b2d9 443e 6adf b2bf 68c6 233a 96c5 1f3f
00000370: 91fc cfbf 2a22 aa3e a5ae 92bd aa27 203f
00000380: dd4e 2a3f cef4 3ebf e16e 8c3f a01c b33f
00000390: 6d96 b13e fe42 c1be 2302 38be e92a 213f
000003a0: 70fc 0a3f 2012 6fbf ff8e 073f bf47 6e3e
000003b0: 640b 03c0 bfd8 8c3d 161c e33e 8996 4a3f
000003c0: df27 9b3f b81a 26be 82ff 283f 9d1d ec3e
000003d0: f601 40bf c73f 2dbe 27d8 b53e 46d7 8ebe
000003e0: 6ab3 60be dad8 82bf aab9 6f3f e4a9 693b
000003f0: ccdd c2bf b506 e53e d977 d43c 6c3d 653f

future_emb.embedding.3.weight f4 [2, 16]
0.6856177 1.1646771 -0.9151665 -0.7191688 1.2166731 0.27679342 -0.9107553 0.5025172
-1.1676407 0.71015793 0.90968484 0.10016798 -0.50778604 0.7127371 0.32080153 -0.108208686
0.040305033 -0.52263296 -0.15238857 -1.0523956 0.079670034 0.14303598 -0.026147455 0.53575236
-0.85305595 0.7761632 1.3667101 0.005146837 -0.25694147 1.321529 0.2433927 -0.0152471345
00000000: a484 2f3f 2414 953f 5a48 6abf 721b 38bf
00000010: f2bb 9b3f deb7 8d3e 4227 69bf f8a4 003f
00000020: 4075 95bf e9cc 353f 1be1 683f df24 cd3d
00000030: 44fe 01bf f075 363f 1940 a43e 849c ddbd
00000040: e416 253d 46cb 05bf c00b 1cbe e6b4 86bf
00000050: 0b2a a33d 0678 123e 3033 d6bc 1127 093f
00000060: e061 5abf a2b2 463f 5bf0 ae3f cca6 a83b
00000070: d58d 83be dd27 a93f f03b 793e 1ecf 79bc

category_emb.embedding.0.weight f4 [32, 16]
-1.4018466 0.561129 1.1513165 0.69885784 -0.5897563 -0.164609 -0.49309614 0.50408536
0.13771948 0.27507976 0.46829712 -0.7029952 -0.17960517 0.8973854 0.05169386 -0.5315346
0.089948356 1.6260641 -0.41029894 -0.9677555 0.26621145 -1.3955567 2.5495467 -0.91397107
-0.047202963 1.2528921 0.21157965 -1.4524192 1.3136424 0.53023535 1.1891732 -0.81560934
0.33697298 -0.16493836 -0.19164144 0.8312012 0.6796498 -2.04662 2.1068077 -1.1787691
-0.5934825 0.70658606 2.4387667 1.5675265 -0.9064229 0.016429128 2.7591302 -0.17394866
-0.16945778 0.49920473 1.4145955 -0.5896002 1.8095248 0.20387535 -1.1085539 -0.2631016
-0.5016771 -0.62947625 -0.5638455 -0.29103208 -3.0190446 -0.83585674 -1.6026096 -0.6711248
-0.49569994 -1.900074 -0.8666429 -1.746237 -0.088832945 0.7586108 -1.5889007 -0.9742193
-1.5394738 0.4845646 -1.7874414 -0.19305082 1.1461112 0.14366852 -1.3649215 0.4353296
-0.7948076 -1.312731 1.0056183 1.1176224 -0.5173474 0.41116038 0.100075506 0.9689256
-2.0990434 -2.1881866 0.46976843 -0.31061515 2.3171673 -1.5478733 -0.26348367 -0.5729727
2.7615993 1.1287887 0.6234155 -0.384624 2.9039266 1.8580418 2.985191 -0.7599759
-1.4177535 -1.6943369 2.2951527 -0.2136572 0.92858005 -0.090800226 1.4257615 0.17494597
-0.3371754 0.8963202 -0.08823571 1.5761024 0.20317002 0.48104638 1.6260902 -0.25555915
0.43696326 0.0136925625 1.7061638 1.9850007 -0.091075145 0.5601957 -1.3398091 0.36555165
-0.7583743 1.4013399 0.30196792 -2.6204064 0.052630994 0.3996628 0.833414 -1.2113192
0.28579223 0.3160891 -0.6943361 0.6226761 -0.79767054 -1.2895759 -1.2099627 -0.3058102
2.0552788 -2.884681 -1.9155091 1.5746782 1.7871802 0.75279635 0.4031842 -0.95097065
-0.710682 -1.4293023 1.0688149 1.2624462 0.0030113177 0.009640929 0.64216495 0.2198861
1.3082734 -2.6291597 0.49197996 -1.4248353 2.5353785 -0.76181614 3.2824707 -1.4348583
-0.63982046 2.5229032 -0.044387057 -0.3104346 -0.14776495 0.15925026 -1.2271584 1.2497225
0.038534634 -2.478608 1.1248804 -0.728001 -1.2703528 -0.3918316 0.4090273 0.11601405
-0.63771874 0.8711369 -1.2477977 -1.7084893 -1.193164 0.9988197 -0.16923776 -1.5504519
-0.019534077 0.6468244 0.2937612 -0.1292958 -0.6102259 0.33113384 2.015123 -1.8998244
-0.17576757 2.3340957 0.513721 0.4440184 1.0253346 1.4771681 -0.29534987 -1.8008459
0.54442275 1.179994 -1.7549948 -0.35954428 0.8668698 -0.69373643 -0.5827917 -3.472255
-0.71204984 -0.34264788 0.80356616 -1.1832924 -2.9364226 -1.9529525 -0.055708636 -1.6310669
0.9217408 -0.7088344 -0.807881 -1.0983884 0.5823384 0.72230196 -0.7634159 -2.2151673
0.93268645 -0.6027173 0.30920485 0.48501644 0.15643676 2.248376 -0.093264386 -0.4646852
-2.0975337 -0.91707116 3.234302 -1.528723 -0.66502786 1.0172548 -0.9977783 -1.3878747
-0.070415765 0.44441828 1.4875398 -1.3733746 -1.1141115 1.6990123 1.5738665 -0.5878663
00000000: b66f b3bf 26a6 0f3f 575e 933f 59e8 323f
00000010: 45fa 16bf 438f 28be 1977 fcbe bd0b 013f
00000020: 5606 0d3e 41d7 8c3e a4c4 ef3e 7ef7 33bf
00000030: 6bea 37be 0dbb 653f f1bc 533d a712 08bf
00000040: d836 b83d de22 d03f b412 d2be d3be 77bf
00000050: de4c 883e 9aa1 b2bf c62b 2340 02fa 69bf
00000060: e557 41bd c55e a03f 56a8 583e dfe8 b9bf
00000070: 6f25 a83f 81bd 073f d436 983f c6cb 50bf
00000080: b987 ac3e 9ae5 28be a73d 44be 9ac9 543f
00000090: 87fd 2d3f d2fb 02c0 f0d5 0640 e8e1 96bf
000000a0: 78ee 17bf d3e2 343f c114 1c40 b5a4 c83f
000000b0: 550b 68bf 6196 863c 9795 3040 991f 32be
000000c0: 5786 2dbe c397 ff3e 7711 b53f 0af0 16bf
000000d0: 829e e73f b3c4 503e 18e5 8dbf 41b5 86be
000000e0: e96d 00bf 5b25 21bf 2e58 10bf 2802 95be
000000f0: 0738 41c0 b5fa 55bf 5022 cdbf d6ce 2bbf
00000100: 62cc fdbe a035 f3bf 4fdc 5dbf b284 dfbf
00000110: 0cee b5bd 5134 423f 1961 cbbf 7066 79bf
00000120: 7a0d c5bf da18 f83e e1ca e4bf 1daf 45be
00000130: c6b3 923f d71d 133e bfb5 aebf 85e3 de3e
00000140: 8378 4bbf 9207 a8bf 1ab8 803f 400e 8f3f
00000150: e170 04bf 9d83 d23e 63f4 cc3d 820b 783f
00000160: ba56 06c0 400b 0cc0 7d85 f03e f308 9fbe
00000170: 784c 1440 b620 c6bf 55e7 86be 57ae 12bf
00000180: 0bbe 3040 267c 903f 2998 1f3f 70ed c4be
00000190: efd9 3940 50d4 ed3f 5f0d 3f40 c88d 42bf
000001a0: f278 b5bf 08e0 d8bf c8e3 1240 f4c8 5abe
000001b0: 6cb7 6d3f 78f5 b9bd 5a7f b63f 0925 333e
000001c0: 41a2 acbe 3e75 653f edb4 b4bd b9bd c93f
000001d0: cd0b 503e b64b f63e b923 d03f a6d8 82be
000001e0: a6b9 df3e c556 603c 9363 da3f 8114 fe3f
000001f0: 9b85 babd fc68 0f3f dd7e abbf 9629 bb3e
00000200: d124 42bf 1b5f b33f 8a9b 9a3e bdb4 27c0
00000210: 9993 573d 9aa0 cc3e 9f5a 553f 820c 9bbf
00000220: 5c53 923e 6ed6 a13e 03c0 31bf b367 1f3f
00000230: 2334 4cbf d310 a5bf 0fe0 9abf 2893 9cbe
00000240: b089 0340 9d9e 38c0 672f f5bf 0e8f c93f
00000250: 52c2 e43f 43b7 403f 296e ce3e d072 73bf
00000260: 41ef 35bf 61f3 b6bf edce 883f d697 a13f
00000270: 8759 453b fdf4 1d3c ec64 243f d229 613e
00000280: 8175 a73f 2744 28c0 cce4 fb3e 0161 b6bf
00000290: a443 2240 6206 43bf 0014 5240 70a9 b7bf
000002a0: 46cb 23bf 3f77 2140 34cf 35bd 49f1 9ebe
000002b0: b24f 17be 8012 233e 8713 9dbf e8f6 9f3f
000002c0: 7ed6 1d3d 83a1 1ec0 15fc 8f3f 465e 3abf
000002d0: ec9a a2bf 279e c8be 076c d13e c698 ed3d
000002e0: 8941 23bf d402 5f3f d6b7 9fbf c7af dabf
000002f0: 99b9 98bf a6b2 7f3f aa4c 2dbe 3575 c6bf
00000300: ee05 a0bc 4996 253f de67 963e 1e66 04be
00000310: c437 1cbf 608a a93e c6f7 0040 722d f3bf
00000320: 6afc 33be d361 1540 3883 033f 6156 e33e
00000330: 2a3e 833f d813 bd3f 1938 97be 1e82 e6bf
00000340: 4a5f 0b3f 0b0a 973f aba3 e0bf 3016 b8be
00000350: 2eeb 5d3f b698 31bf d631 15bf 6d39 5ec0
00000360: e648 36bf 8b6f afbe 83b6 4d3f 2076 97bf
00000370: 59ee 3bc0 59fa f9bf bd2e 64bd cdc6 d0bf
00000380: 34f7 6b3f 2c76 35bf 4ad1 4ebf fe97 8cbf
00000390: 2114 153f c8e8 383f 396f 43bf 4dc5 0dc0
000003a0: 8ac4 6e3f ae4b 1abf 1950 9e3e 1354 f83e
000003b0: f530 203e 64e5 0f40 6601 bfbd 38eb edbe
000003c0: fe3d 06c0 2dc5 6abf cefe 4e40 32ad c3bf
000003d0: 443f 2abf 6835 823f 666e 7fbf e1a5 b1bf
000003e0: 2436 90bd cb8a e33e b467 be3f bdca afbf
000003f0: 359b 8ebf 3c79 d93f 7574 c93f 687e 16bf

category_emb.embedding.1.weight f4 [7, 16]
-1.7523819 1.2901299 -0.41289055 -2.0856893 0.11598989 0.11979199 -0.238059 -0.5977898
-0.7892886 0.99049366 -2.0015254 0.2070732 2.2314959 -0.26129213 -1.389754 -0.20913526
1.2951709 1.4946431 -1.3326477 0.106063835 1.7114183 0.12386253 0.21993859 -1.6224594
1.1777276 -0.5955759 0.905383 -0.8066155 0.17320669 0.8497442 -0.6015851 -0.89870554
-0.21121646 0.081299186 0.4085725 2.0981998 0.00010368534 -2.0528982 1.1356082 2.7403126
-0.022998758 1.6550444 -0.39799535 -1.1409 0.22065999 1.6254343 -1.1870664 -1.3691281
-0.89444137 1.6421949 -0.46629632 0.74823695 0.5119243 -0.9136597 -0.9832153 -0.078436814
0.88235605 1.4795128 -0.010553144 -0.85438305 1.5243828 -0.8738822 0.09952928 0.53362244
1.1144484 -1.3553838 -1.1341699 -1.6420274 1.8192502 -0.5725834 0.08159547 1.0786582
1.4892436 1.4636055 0.45535275 -1.6579288 -0.28721052 -1.4174465 -0.04564179 0.67259073
-0.651345 0.46307102 0.08075699 -0.37370646 -0.3583673 -1.1309397 0.049645465 1.8897778
-1.5223532 2.195748 1.3682923 0.44259462 -0.07139093 1.2595255 -0.42247754 -0.6596929
0.79482776 -0.46175477 1.2394592 0.41042176 1.2051157 -0.5941079 -1.2425133 0.2386787
0.5940787 0.5511054 0.54110414 0.4560779 1.1662642 -1.5772179 -0.31845522 -2.532892
00000000: 0d4e e0bf fa22 a53f 6466 d3be ef7b 05c0
00000010: 1c8c ed3d 8155 f53d bdc5 73be c108 19bf
00000020: d10e 4abf fe90 7d3f fe18 00c0 ff0a 543e
00000030: d4d0 0e40 15c8 85be 76e3 b1bf 8e27 56be
00000040: 29c8 a53f 7750 bf3f 3394 aabf ff37 d93d
00000050: c10f db3f a3ab fd3d 9537 613e c0ac cfbf
00000060: c7bf 963f aa77 18bf 2ec7 673f 5a7e 4ebf
00000070: 185d 313e d688 593f 7b01 1abf 9111 66bf
00000080: 2149 58be 3080 a63d 6a30 d13e e848 0640
00000090: a571 d938 af62 03c0 9c5b 913f 4861 2f40
000000a0: e467 bcbc 7fd8 d33f 0cc6 cbbe 0309 92bf
000000b0: b1f4 613e 3b0e d03f cbf1 97bf 973f afbf
000000c0: 1cfa 64bf 7133 d23f 64be eebe 758c 3f3f
000000d0: 790d 033f 9ae5 69bf ffb3 7bbf 7ba3 a0bd
000000e0: 16e2 613f ad60 bd3f 18e7 2cbc d9b8 5abf
000000f0: fa1e c33f beb6 5fbf 02d6 cb3d 7b9b 083f
00000100: 3fa6 8e3f 377d adbf 7b2c 91bf f42d d2bf
00000110: 31dd e83f d394 12bf 871b a73d 7911 8a3f
00000120: 899f be3f 6d57 bb3f ff23 e93e 0337 d4bf
00000130: 420d 93be e36e b5bf e3f2 3abd e82e 2c3f
00000140: 8cbe 26bf a517 ed3e ec63 a53d 7456 bfbe
00000150: eb7b b7be a2c2 90bf 0b59 4b3d 3de4 f13f
00000160: 78dc c2bf 2387 0c40 3424 af3f c39b e23e
00000170: 6835 92bd 2238 a13f fa4e d8be a2e1 28bf
00000180: d579 4b3f 1f6b ecbe 99a6 9e3f cd22 d23e
00000190: 3b41 9a3f 7517 18bf ad0a 9fbf 3068 743e
000001a0: 8b15 183f 3e15 0d3f cd85 0a3f 0b83 e93e
000001b0: 2548 953f 47e2 c9bf 900c a3be e71a 22c0

category_emb.embedding.2.weight f4 [24, 16]
0.67997843 0.21476477 -0.3158653 -2.258091 0.17421216 -0.9867531 -1.1512113 -0.445944
-0.90112424 -0.78806186 -0.006707001 1.1720291 -0.7048965 -1.1821374 -0.31385463 -1.1947544
0.8723732 -0.76043147 0.0072477967 -0.94563127 -0.5512933 -1.8037956 0.51852727 0.39970118
-1.6028261 0.27342454 0.65962064 -0.15335767 0.24084465 -0.26324025 -0.83243686 0.6603906
0.8949294 -0.6015832 0.23623496 -0.3187013 -0.52896667 -1.0742712 -0.48596197 0.5503848
-1.836241 -0.44210303 0.56513935 0.29515368 0.95139587 1.4889147 -0.38455623 0.72799575
1.6535522 -0.93388295 -0.73846096 0.6504455 -0.7374328 -0.89609975 -0.3066386 -0.13441004
-1.971003 0.30599907 1.3382701 0.06896028 1.0349485 -0.015315094 -0.82691675 1.5000106
1.4074721 -1.6430157 -1.2306519 1.2558422 -0.64643687 -1.0449783 1.5210108 0.015565659
-0.6200989 -0.258345 1.1393343 -0.013263907 0.9211156 1.328977 -1.6217144 0.77290255
1.0345411 -0.6490699 -1.6499958 0.6543985 -1.253973 0.53792036 -0.7311553 -0.9807279
-0.05018621 -0.67432517 -1.4356055 0.59684604 0.6343922 2.614617 -0.16074544 0.2195744
0.07418184 0.50347906 -0.908581 -0.66854155 0.14467736 0.03674712 -1.273448 -1.6481086
1.0832738 2.4133496 -0.56795496 0.28858033 0.13904555 0.82629454 1.0566585 1.2453907
-0.43951 0.678189 0.17182316 0.09973612 0.18390128 -0.52297014 -1.1530572 -0.36859432
1.4670262 1.3757758 -1.2989321 0.7369496 -1.0652581 -1.1534247 0.34876952 1.2834105
-1.3883224 0.32478988 -0.19416761 -1.27901 0.5281586 0.82912827 -0.5223438 -1.0782737
1.762559 1.0976124 -0.24985127 2.3205826 -0.27756643 -0.21307842 0.09682279 -0.15185577
-1.163931 0.42653707 2.1805139 -0.17612946 0.6179934 0.90097284 0.2805682 0.40881473
-0.019036284 0.8043218 -0.79909945 0.88517886 -1.7112231 -0.22396126 1.2347126 -1.0411308
-0.939835 2.1151412 1.7129248 0.22397831 -0.34745893 1.4570327 0.90661544 -0.60956216
0.37114564 0.5686881 -0.7851477 0.9905876 0.2877154 0.570973 1.6871096 -1.4357954
-0.44026127 1.0181375 2.6268518 -0.23236331 -0.4395008 0.9676539 1.4998577 -1.211517
-0.83434606 1.0149819 -0.23935582 0.5385122 0.027607705 -0.95360994 0.28808892 -1.8371602
-1.2415369 0.44578025 2.7120318 1.2087563 0.13321829 0.7648688 0.5501822 -0.76404774
-1.531656 0.7261888 -1.1616269 0.69954634 -0.22343187 -1.0211833 0.37425828 -0.77521944
-1.7186384 -0.6034193 3.0907702 0.7609568 1.6206449 0.43465388 1.4002379 -0.908359
-1.694267 0.99205756 -0.25785065 0.1459699 1.0919656 -0.13373439 -0.10352277 -0.49498034
-0.65039 -0.3208976 3.0511787 0.9288056 1.5888271 2.3137162 0.6508732 -1.2498072
-0.66687787 0.051567826 -0.44371808 0.6066687 1.7322698 -0.32782724 -0.13741964 0.062372454
-1.0622908 -2.1422698 2.2673724 0.2208968 0.54756045 1.0683489 1.724593 -1.1290224
-0.47206005 1.7129302 0.20154698 0.43968663 0.23392047 -0.94505554 -1.285805 -0.53941655
00000000: 1113 2e3f 4ceb 5b3e 19b9 a1be 9084 10c0
00000010: ac64 323e da9b 7cbf e45a 93bf c652 e4be
00000020: 14b0 66bf 6cbe 49bf 67c6 dbbb 0d05 963f
00000030: 1974 34bf 4750 97bf 8eb1 a0be b6ed 98bf
00000040: da53 5f3f a3ab 42bf ed7e ed3b e414 72bf
00000050: 8f21 0dbf c6e2 e6bf 34be 043f a2a5 cc3e
00000060: 6829 cdbf 4dfe 8b3e e6dc 283f cb09 1dbe
00000070: fb9f 763e 6dc7 86be 951a 55bf 5c0f 293f
00000080: 181a 653f 5b01 1abf 94e7 713e d12c a3be
00000090: 5c6a 07bf b881 89bf 02d0 f8be 05e6 0c3f
000000a0: f209 ebbf 545b e2be f9ac 103f 621e 973e
000000b0: ae8e 733f c294 be3f 8ee4 c4be ee5d 3a3f
000000c0: 99a7 d33f f412 6fbf c70b 3dbf 9983 263f
000000d0: 65c8 3cbf cb66 65bf bcff 9cbe c9a2 09be
000000e0: d449 fcbf e9ab 9c3e 6f4c ab3f 0c3b 8d3d
000000f0: 3179 843f 29ec 7abc d1b0 53bf 5900 c03f
00000100: 0c28 b43f 574e d2bf 0086 9dbf 70bf a03f
00000110: e37c 25bf d9c1 85bf 7bb0 c23f 1b07 7f3c
00000120: cdbe 1ebf cc45 84be b5d5 913f dc50 59bc
00000130: 3bce 6b3f eb1b aa3f 5694 cfbf f1dc 453f
00000140: d86b 843f 7229 26bf 1033 d3bf a986 273f
00000150: 3082 a0bf 26b5 093f fe2c 3bbf fc10 7bbf
00000160: 0e90 4dbd 93a0 2cbf ecc1 b7bf e7ca 183f
00000170: 8767 223f e355 2740 749a 24be 1dd8 603e
00000180: a6ec 973d 01e4 003f c498 68bf 8a25 2bbf
00000190: 4d26 143e 2684 163d 5800 a3bf 39f5 d2bf
000001a0: b7a8 8a3f 5274 1a40 7f65 11bf cdc0 933e
000001b0: f561 0e3e 0a88 533f 9640 873f f668 9f3f
000001c0: 7407 e1be cb9d 2d3f 69f2 2f3e 7342 cc3d
000001d0: 9e50 3c3e 5fe1 05bf 6197 93bf 65b8 bcbe
000001e0: 84c7 bb3f 6c19 b03f 6843 a6bf bba8 3c3f
000001f0: 615a 88bf 6ca3 93bf eb91 b23e cc46 a43f
00000200: 8cb4 b1bf dc4a a63e e0d3 46be 9ab6 a3bf
00000210: 6735 073f c041 543f 53b8 05bf df04 8abf
00000220: 899b e13f 907e 8c3f 03d9 7fbe 6d84 1440
00000230: 301d 8ebe 3b31 5abe 074b c63d 1480 1bbe
00000240: b1fb 94bf 1163 da3e 8a8d 0b40 485b 34be
00000250: d134 1e3f 28a6 663f a3a6 8f3e 2a50 d13e
00000260: fbf1 9bbc 09e8 4d3f c891 4cbf 159b 623f
00000270: 5c09 dbbf 1a56 65be 100b 9e3f c643 85bf
00000280: 0799 70bf 795e 0740 1f41 db3f 925a 653e
00000290: 23e6 b1be 0c80 ba3f f317 683f 440c 1cbf
000002a0: cd06 be3e 8b95 113f 71ff 48bf 2697 7d3f
000002b0: 6f4f 933e 492b 123f 35f3 d73f 25c8 b7bf
000002c0: ed69 e1be 5452 823f 571e 2840 a6f0 6dbe
000002d0: 4006 e1be 2ab8 773f 56fb bf3f fd12 9bbf
000002e0: b497 55bf edea 813f b119 75be efdb 093f
000002f0: 8e29 e23c c81f 74bf 6480 933e 1128 ebbf
00000300: aeea 9ebf 4f3d e43e ee91 2d40 87b8 9a3f
00000310: 606a 083e 71ce 433f bed8 0c3f a298 43bf
00000320: 4e0d c4bf 82e7 393f 31b0 94bf 7815 333f
00000330: 53cb 64be 22b6 82bf c89e bf3e c874 46bf
00000340: 58fc dbbf b079 1abf 2ecf 4540 11ce 423f
00000350: 4b71 cf3f f48a de3e ff3a b33f 378a 68bf
00000360: bedd d8bf 7cf7 7d3f 0005 84be 2279 153e
00000370: 87c5 8b3f abf1 08be bf03 d4bd 106e fdbe
00000380: f67f 26bf b14c a4be 8346 4340 34c6 6d3f
00000390: b05e cb3f ed13 1440 a09f 263f aff9 9fbf
000003a0: 82b8 2abf c938 533d 042f e3be a44e 1b3f
000003b0: 04bb dd3f f9d8 a7be bcb7 0cbe 427a 7f3d
000003c0: 25f9 87bf f31a 09c0 a11c 1140 c532 623e
000003d0: ec2c 0c3f a8bf 883f 77bf dc3f ce83 90bf
000003e0: dbb1 f1be 4c41 db3f 5562 4e3e 9b1e e13e
000003f0: d988 6f3e 29ef 71bf 4295 a4bf 3417 0abf

category_emb.embedding.3.weight f4 [2, 16]
0.63479567 0.96493244 -1.3993099 -1.3292295 -0.95556253 0.17944779 -1.5677038 1.0703561
0.3497394 1.9472785 -1.3200811 0.25335053 -0.044561252 2.3025463 -0.86120737 0.076954186
-0.5387246 0.9622082 -1.1393257 -1.3130901 1.094005 1.1921481 -2.2983656 2.1587324
0.25980565 0.8315404 -1.096517 -1.2899091 0.5756755 0.69175124 -1.0312891 -0.22507782
00000000: f881 223f d005 773f 961c b3bf 3124 aabf
00000010: bf9f 74bf 29c1 373e 85aa c8bf 6e01 893f
00000020: 0b11 b33e 6c40 f93f 6bf8 a8bf 29b7 813e
00000030: dc85 36bd eb5c 1340 1678 5cbf 289a 9d3d
00000040: dbe9 09bf 4753 763f 6dd5 91bf 5613 a8bf
00000050: 5b08 8c3f 4f98 983f 6c18 13c0 ac28 0a40
00000060: 3f05 853e d5df 543f ab5a 8cbf be1b a5bf
00000070: 785f 133f 9c16 313f 4801 84bf cd7a 66be

continuous_emb.embedding.0.weight f4 [16, 1]
-0.018731458 -0.0045888405 -0.32983607 -0.14389996 -0.019418493 0.14932008 0.12685096 -0.40576726
-0.15480354 -0.0053703655 0.012595912 -0.53382945 -0.002251528 -0.4068227 0.0027086602 0.0029852013
00000000: b772 99bc fc5d 96bb 46e0 a8be 835a 13be
00000010: 8813 9fbc 5de7 183e 38e5 013e bac0 cfbe
00000020: d284 1ebe e4f9 afbb 165f 4e3c 0ca9 08bf
00000030: 5f8e 13bb 114b d0be c783 313b 5ea3 433b

continuous_emb.embedding.0.bias f4 [16]
-0.50270456 0.047606792 1.5929623 0.9135934 0.14531839 -0.37578708 -0.3789456 1.0147485
0.86784774 -0.42616174 0.97507876 0.7196128 -0.0035141488 1.3531066 -0.010327218 0.580971
00000000: 3fb1 00bf 57ff 423d 30e6 cb3f 42e1 693f
00000010: 58ce 143e 2a67 c0be 2805 c2be 47e3 813f
00000020: 452b 5e3f df31 dabe c39e 793f 8b38 383f
00000030: a24d 66bb 9932 ad3f 7e33 29bc 84ba 143f

continuous_emb.embedding.1.weight f4 [16, 1]
-0.018731458 -0.0045888405 -0.32983607 -0.14389996 -0.019418493 0.14932008 0.12685096 -0.40576726
-0.15480354 -0.0053703655 0.012595912 -0.53382945 -0.002251528 -0.4068227 0.0027086602 0.0029852013
00000000: b772 99bc fc5d 96bb 46e0 a8be 835a 13be
00000010: 8813 9fbc 5de7 183e 38e5 013e bac0 cfbe
00000020: d284 1ebe e4f9 afbb 165f 4e3c 0ca9 08bf
00000030: 5f8e 13bb 114b d0be c783 313b 5ea3 433b

continuous_emb.embedding.1.bias f4 [16]
-0.50270456 0.047606792 1.5929623 0.9135934 0.14531839 -0.37578708 -0.3789456 1.0147485
0.86784774 -0.42616174 0.97507876 0.7196128 -0.0035141488 1.3531066 -0.010327218 0.580971
00000000: 3fb1 00bf 57ff 423d 30e6 cb3f 42e1 693f
00000010: 58ce 143e 2a67 c0be 2805 c2be 47e3 813f
00000020: 452b 5e3f df31 dabe c39e 793f 8b38 383f
00000030: a24d 66bb 9932 ad3f 7e33 29bc 84ba 143f

continuous_emb.embedding.2.weight f4 [16, 1]
-0.018731458 -0.0045888405 -0.32983607 -0.14389996 -0.019418493 0.14932008 0.12685096 -0.40576726
-0.15480354 -0.0053703655 0.012595912 -0.53382945 -0.002251528 -0.4068227 0.0027086602 0.0029852013
00000000: b772 99bc fc5d 96bb 46e0 a8be 835a 13be
00000010: 8813 9fbc 5de7 183e 38e5 013e bac0 cfbe
00000020: d284 1ebe e4f9 afbb 165f 4e3c 0ca9 08bf
00000030: 5f8e 13bb 114b d0be c783 313b 5ea3 433b

continuous_emb.embedding.2.bias f4 [16]
-0.50270456 0.047606792 1.5929623 0.9135934 0.14531839 -0.37578708 -0.3789456 1.0147485
0.86784774 -0.42616174 0.97507876 0.7196128 -0.0035141488 1.3531066 -0.010327218 0.580971
00000000: 3fb1 00bf 57ff 423d 30e6 cb3f 42e1 693f
00000010: 58ce 143e 2a67 c0be 2805 c2be 47e3 813f
00000020: 452b 5e3f df31 dabe c39e 793f 8b38 383f
00000030: a24d 66bb 9932 ad3f 7e33 29bc 84ba 143f

continuous_emb.embedding.3.weight f4 [16, 1]
-0.018731458 -0.0045888405 -0.32983607 -0.14389996 -0.019418493 0.14932008 0.12685096 -0.40576726
-0.15480354 -0.0053703655 0.012595912 -0.53382945 -0.002251528 -0.4068227 0.0027086602 0.0029852013
00000000: b772 99bc fc5d 96bb 46e0 a8be 835a 13be
00000010: 8813 9fbc 5de7 183e 38e5 013e bac0 cfbe
00000020: d284 1ebe e4f9 afbb 165f 4e3c 0ca9 08bf
00000030: 5f8e 13bb 114b d0be c783 313b 5ea3 433b

continuous_emb.embedding.3.bias f4 [16]
-0.50270456 0.047606792 1.5929623 0.9135934 0.14531839 -0.37578708 -0.3789456 1.0147485
0.86784774 -0.42616174 0.97507876 0.7196128 -0.0035141488 1.3531066 -0.010327218 0.580971
00000000: 3fb1 00bf 57ff 423d 30e6 cb3f 42e1 693f
00000010: 58ce 143e 2a67 c0be 2805 c2be 47e3 813f
00000020: 452b 5e3f df31 dabe c39e 793f 8b38 383f
00000030: a24d 66bb 9932 ad3f 7e33 29bc 84ba 143f

continuous_emb.embedding.4.weight f4 [16, 1]
-0.018731458 -0.0045888405 -0.32983607 -0.14389996 -0.019418493 0.14932008 0.12685096 -0.40576726
-0.15480354 -0.0053703655 0.012595912 -0.53382945 -0.002251528 -0.4068227 0.0027086602 0.0029852013
00000000: b772 99bc fc5d 96bb 46e0 a8be 835a 13be
00000010: 8813 9fbc 5de7 183e 38e5 013e bac0 cfbe
00000020: d284 1ebe e4f9 afbb 165f 4e3c 0ca9 08bf
00000030: 5f8e 13bb 114b d0be c783 313b 5ea3 433b

continuous_emb.embedding.4.bias f4 [16]
-0.50270456 0.047606792 1.5929623 0.9135934 0.14531839 -0.37578708 -0.3789456 1.0147485
0.86784774 -0.42616174 0.97507876 0.7196128 -0.0035141488 1.3531066 -0.010327218 0.580971
00000000: 3fb1 00bf 57ff 423d 30e6 cb3f 42e1 693f
00000010: 58ce 143e 2a67 c0be 2805 c2be 47e3 813f
00000020: 452b 5e3f df31 dabe c39e 793f 8b38 383f
00000030: a24d 66bb 9932 ad3f 7e33 29bc 84ba 143f

continuous_emb.embedding.5.weight f4 [16, 1]
-0.018731458 -0.0045888405 -0.32983607 -0.14389996 -0.019418493 0.14932008 0.12685096 -0.40576726
-0.15480354 -0.0053703655 0.012595912 -0.53382945 -0.002251528 -0.4068227 0.0027086602 0.0029852013
00000000: b772 99bc fc5d 96bb 46e0 a8be 835a 13be
00000010: 8813 9fbc 5de7 183e 38e5 013e bac0 cfbe
00000020: d284 1ebe e4f9 afbb 165f 4e3c 0ca9 08bf
00000030: 5f8e 13bb 114b d0be c783 313b 5ea3 433b

continuous_emb.embedding.5.bias f4 [16]
-0.50270456 0.047606792 1.5929623 0.9135934 0.14531839 -0.37578708 -0.3789456 1.0147485
0.86784774 -0.42616174 0.97507876 0.7196128 -0.0035141488 1.3531066 -0.010327218 0.580971
00000000: 3fb1 00bf 57ff 423d 30e6 cb3f 42e1 693f
00000010: 58ce 143e 2a67 c0be 2805 c2be 47e3 813f
00000020: 452b 5e3f df31 dabe c39e 793f 8b38 383f
00000030: a24d 66bb 9932 ad3f 7e33 29bc 84ba 143f

continuous_emb.embedding.6.weight f4 [16, 1]
-0.018731458 -0.0045888405 -0.32983607 -0.14389996 -0.019418493 0.14932008 0.12685096 -0.40576726
-0.15480354 -0.0053703655 0.012595912 -0.53382945 -0.002251528 -0.4068227 0.0027086602 0.0029852013
00000000: b772 99bc fc5d 96bb 46e0 a8be 835a 13be
00000010: 8813 9fbc 5de7 183e 38e5 013e bac0 cfbe
00000020: d284 1ebe e4f9 afbb 165f 4e3c 0ca9 08bf
00000030: 5f8e 13bb 114b d0be c783 313b 5ea3 433b

continuous_emb.embedding.6.bias f4 [16]
-0.50270456 0.047606792 1.5929623 0.9135934 0.14531839 -0.37578708 -0.3789456 1.0147485
0.86784774 -0.42616174 0.97507876 0.7196128 -0.0035141488 1.3531066 -0.010327218 0.580971
00000000: 3fb1 00bf 57ff 423d 30e6 cb3f 42e1 693f
00000010: 58ce 143e 2a67 c0be 2805 c2be 47e3 813f
00000020: 452b 5e3f df31 dabe c39e 793f 8b38 383f
00000030: a24d 66bb 9932 ad3f 7e33 29bc 84ba 143f

static_variable_selection.grn_v.linear1.weight f4 [16, 16]
-0.2122733 0.224406 0.23567262 -0.18680301 -0.22376168 -0.07276118 -0.15370318 0.06679538
0.11128318 -0.031854033 0.17542881 0.009473413 -0.073477924 -0.2133927 0.079455316 -0.23555142
-0.0008549094 0.03654164 -0.14001206 0.07510504 0.048597693 0.16730562 0.15636188 -0.20231903
-0.1854955 -0.09175587 -0.1798499 0.07838446 -0.16379744 -0.1908687 0.07281548 0.15087956
-0.07268059 -0.24911413 0.03533286 0.12811598 0.19529289 0.023720503 0.17355725 -0.22353446
0.23916954 -0.16143396 -0.17064354 0.17941836 -0.05555299 0.15428373 -0.17510605 0.18914351
0.23709881 0.07569891 0.20167351 -0.17853156 -0.05520323 0.07609469 0.14127252 -0.13348964
0.15908363 -0.08228013 -0.13343877 0.048903227 -0.19912693 -0.22944963 0.08312604 0.08515301
0.096137226 -0.03278464 -0.18283385 -0.20083424 0.23922467 -0.21673253 0.07534826 0.20304513
0.19099388 -0.15762606 -0.08060965 -0.1998832 0.15681723 -0.23460981 -0.23014674 -0.1669003
0.20392466 0.16204682 0.16751137 0.19182181 -0.11659524 -0.13942182 -0.15358377 0.08248958
0.09724647 0.051876515 -0.19232982 0.022208154 -0.13266021 -0.049161762 -0.03870228 0.012426913
-0.21920478 0.21339968 -0.10638037 0.07811302 0.17216098 0.10074243 0.17507991 0.14117077
0.18306038 0.052764565 0.1596747 -0.108668536 -0.13471115 0.11937633 0.06559622 -0.009374946
-0.21087721 0.08169097 0.16193831 -0.028863639 0.057435185 0.111295134 -0.24689475 -0.041132122
-0.09274125 -0.1277796 0.15280208 0.24787188 0.03988999 0.15559596 -0.18547049 0.04404342
-0.032332987 -0.15419 0.05126068 0.07958138 -0.012074977 0.10616091 0.120027244 0.22676048
0.014492124 0.00890705 -0.0035782754 0.034500808 -0.16210458 -0.030772299 -0.21140811 -0.17535728
-0.21294695 0.18539986 -0.143675 -0.020175397 0.0267272 0.22080415 0.113459975 -0.17803329
0.2445189 -0.23679665 0.03250444 0.2284263 0.216813 -0.057943553 -0.1668404 0.109775186
0.19271559 -0.13327494 -0.039560348 -0.15203804 0.09547183 0.053212523 0.12392339 -0.08577451
-0.24132758 -0.10528231 -0.1955207 -0.060227394 0.09085515 -0.20798308 -0.011669546 -0.24459505
-0.17716235 -0.17503467 -0.08512133 -0.12666947 0.038481057 0.15282607 0.18850693 0.078769356
-0.0016542673 -0.044550896 0.16975069 -0.1431826 0.1807023 -0.24070302 -0.18659261 0.06631607
-0.10296744 0.04664272 0.21782508 0.11418289 0.24469224 -0.10589233 -0.11938256 -0.03174287
-0.05034995 -0.10996744 -0.015521556 0.225855 -0.13703942 0.14039573 0.11613643 0.14477947
0.06744531 -0.09235376 0.10317838 -0.117748916 -0.1534543 0.23369876 0.2072219 -0.18067583
0.20306337 0.051839978 0.06408167 0.24096662 -0.013126969 -0.07951206 0.15694392 -0.06457847
-0.06001541 -0.100813806 0.2460722 0.11929014 -0.04052776 -0.0049875975 0.017496943 -0.14819911
0.070981145 -0.1940321 -0.011656284 -0.046908736 -0.10207912 0.23122212 0.07001507 0.12043294
-0.16456398 0.03984335 0.0669938 0.12977973 -0.07376939 -0.04909402 -0.20297286 0.15194422
0.16688919 0.11727211 0.12705398 0.14973745 0.23565117 0.081872225 0.09024587 0.078633696
00000000: 2c5e 59be b0ca 653e 2a54 713e 4a49 3fbe
00000010: c821 65be d003 95bd 5e64 1dbe 04cc 883d
00000020: 70e8 e33d 6079 02bd 9ca3 333e 6036 1b3c
00000030: 987b 96bd 9e83 5abe 78b9 a23d 6434 71be
00000040: 001c 60ba b0ac 153d 525f 0fbe acd0 993d
00000050: 600e 473d 2a52 2b3e 541d 203e b82c 4fbe
00000060: 88f2 3dbe 80ea bbbd 922a 38be 0888 a03d
00000070: 84ba 27be 1673 43be 4820 953d 2c80 1a3e
00000080: 90d9 94bd c617 7fbe 30b9 103d d630 033e
00000090: dcfa 473e 8051 c23c feb8 313e 38e6 64be
000000a0: dce8 743e f24e 25be 2ebd 2ebe 72b9 373e
000000b0: 888b 63bd 8efc 1d3e 004f 33be d6ae 413e
000000c0: 08ca 723e 0808 9b3d 8083 4e3e fad0 36be
000000d0: c81c 62bd 88d7 9b3d bea9 103e 82b1 08be
000000e0: d2e6 223e 7c82 a8bd 2ca4 08be c04e 483d
000000f0: eee7 4bbe d8f4 6abe fc3d aa3d b464 ae3d
00000100: 98e3 c43d 3049 06bd cc38 3bbe 7ea7 4dbe
00000110: 50f7 743e 22ef 5dbe 3050 9a3d 10eb 4f3e
00000120: e693 433e ba68 21be ac16 a5bd 2eae 4cbe
00000130: b294 203e 8e3d 70be 96ab 6bbe eae7 2abe
00000140: a0d1 503e 9aef 253e 1a88 2b3e f06c 443e
00000150: 7cc9 eebd 98c4 0ebe 1045 1dbe 4cf0 a83d
00000160: 2829 c73d 787c 543d 1cf2 44be e0ed b53c
00000170: 14d8 07be d85d 49bd 4886 1ebd 409a 4b3c
00000180: 3877 60be 7285 5a3e f4dd d9bd b8f9 9f3d
00000190: f84a 303e 0c52 ce3d 2648 333e 128f 103e
000001a0: 2e74 3b3e a81f 583d c481 233e 9c8d debd
000001b0: b8f1 09be 947b f43d 5057 863d 6099 19bc
000001c0: 32f0 57be 984d a73d 28d3 253e 7073 ecbc
000001d0: 2841 6b3d b4ee e33d fad1 7cbe 287a 28bd
000001e0: 20ef bdbd a8d8 02be 2678 1c3e 20d2 7d3e
000001f0: b063 233d 8c54 1f3e faeb 3dbe e066 343d
00000200: 986f 04bd fce3 1dbe b8f6 513d 90fb a23d
00000210: 20d6 45bc e46a d93d d8d0 f53d e633 683e
00000220: 6070 6d3c e0ee 113c 8081 6abb b850 0d3d
00000230: befe 25be 3016 fcbc 5e7b 58be dc90 33be
00000240: c40e 5abe 76d9 3d3e 8a1f 13be e046 a5bc
00000250: 00f3 da3c 7c1a 623e b45d e83d 5c4e 36be
00000260: 2a63 7a3e d27a 72be 6023 053d 96e8 693e
00000270: 3a04 5e3e 3856 6dbd 36d8 2abe d0d1 e03d
00000280: 3c57 453e 3a79 08be 080a 22bd dcaf 1bbe
00000290: bc86 c33d 60f5 593d 8ccb fd3d 8caa afbd
000002a0: 941e 77be 409e d7bd 9436 48be 00b1 76bd
000002b0: 4412 ba3d 84f9 54be a031 3fbc 2077 7abe
000002c0: 0c6a 35be 4a3c 33be 1854 aebd a4b5 01be
000002d0: 509e 1d3d 707e 1c3e f607 413e d451 a13d
000002e0: 00d4 d8ba 007b 36bd 20d3 2d3e 769e 12be
000002f0: 060a 393e da7a 76be 2212 3fbe b8d0 873d
00000300: 98e0 d2bd 700c 3f3d 8a0d 5f3e b8d8 e93d
00000310: 9a90 7a3e 14de d8bd d87e f4bd d004 02bd
00000320: c03b 4ebd 9c36 e1bd 204e 7ebc 8846 673e
00000330: 1054 0cbe e6c3 0f3e f0d8 ed3d 1241 143e
00000340: c420 8a3d f823 bdbd 304f d33d 5826 f1bd
00000350: 2023 1dbe ba4e 6f3e fa31 543e 1603 39be
00000360: d8ef 4f3e 2856 543d 403d 833d f4bf 763e
00000370: 8012 57bc 38d7 a2bd e8b5 203e b841 84bd
00000380: b8d2 75bd 7877 cebd 5afa 7b3e 644e f43d
00000390: 7000 26bd 006f a3bb c055 8f3c 82c1 17be
000003a0: 905e 913d 5ab0 46be 00fa 3ebc 6023 40bd
000003b0: dc0e d1bd 7ec5 6c3e 1064 8f3d 8ca5 f63d
000003c0: 7683 28be c832 233d 0c34 893d fae4 043e
000003d0: 6814 97bd d016 49bd 1ed8 4fbe 4497 1b3e
000003e0: 00e5 2a3e 5c2c f03d 701a 023e c654 193e
000003f0: 8a4e 713e a0ac a73d d4d2 b83d b40a a13d

static_variable_selection.grn_v.linear1.bias f4 [16]
-0.14118019 0.06272444 0.075322956 -0.1989882 -0.073988974 -0.15424863 -0.15973976 0.17373538
0.19667158 -0.034463286 0.07662669 -0.058551103 0.053004593 -0.04185173 -0.13005361 -0.10518393
00000000: 8a91 10be ac75 803d ec42 9a3d 90c3 4bbe
00000010: 8887 97bd 5af3 1dbe d292 23be b0e7 313e
00000020: 4664 493e 6029 0dbd 74ee 9c3d 48d3 6fbd
00000030: 581b 593d b86c 2bbd c62c 05be ac6a d7bd
