TFT_power/best_model/best4.pth (torch, 235002 bytes, 348 tensors)

static_cate_emb.embedding.0.weight f4 [101, 16]
1.9269153 1.4872841 0.9007172 -2.105521 0.67841846 -1.2345449 -0.043067478 -1.604667
-0.7521353 1.648723 -0.39247864 -1.4036071 -0.7278813 -0.5594302 -0.7688389 0.7624454
1.9946856 1.0512742 1.0302364 0.9442236 3.3406785 -1.0309514 -0.798677 2.657399
-0.9187018 -0.35618794 -2.5733626 2.5121722 1.9819989 -1.225045 -1.9345453 0.9947726
0.5719645 -0.059094425 0.16285795 3.2117875 -1.1301495 0.19357245 -0.90369844 -1.5361209
-0.23660396 -1.5776465 -0.55769384 -1.834358 -2.365899 1.1059275 -0.80247265 -1.0766162
1.4384586 0.10021674 -0.7222153 1.4006685 -1.0480578 -1.8040986 -0.5984363 -1.2985249
0.31753016 -2.3686085 0.36786819 -0.5473359 -1.9817966 -1.7894949 -1.8775178 0.021427143
2.0948648 2.0910194 0.52861124 1.4040629 2.56572 -1.7074013 -0.16451718 5.13102
-1.5493006 -0.7976768 0.3484431 0.2581218 0.14614949 -3.6917374 -1.5653492 -1.3137051
1.0566156 0.44016945 0.12108293 0.28085703 1.4613755 -1.0921737 1.339298 -1.2757486
0.3554595 -0.45597675 -1.994263 -0.89854276 -3.3276937 -0.27974218 0.58804846 -0.62113684
-0.46646634 1.9999907 -0.72718525 2.0696723 3.072194 -1.6610588 2.0330403 3.2458417
-0.9213488 -1.2089161 1.0705856 0.23717304 0.5380424 -1.5580992 0.91435295 -1.2746458
-0.24706767 0.94704694 0.30783275 1.2301904 3.9762487 -1.7031379 -1.3919022 1.3776165
-1.7417363 -1.1192739 -2.1460452 1.3203843 2.0225635 -0.896255 -0.47518098 0.14566553
1.880683 1.0812784 -1.4740562 -0.44450328 -1.9231972 0.4453266 1.4224072 0.73940533
1.9681865 -1.6142645 -0.21380413 -0.99665815 -2.8666286 0.09517421 0.3995155 -0.8376491
2.1054351 1.8183047 1.5001929 2.6178803 0.09686944 1.327415 -0.92956305 -0.45303562
0.27167147 -1.3813238 -1.2121234 -0.2896584 -2.25001 -0.6418874 -0.47359398 0.052048232
-0.20524502 1.7912004 0.085960254 0.62873626 -0.9030266 -1.3787366 0.14415751 -1.9405404
0.099826746 -0.029234257 1.3910189 -2.6805384 -4.4146447 -0.5457287 1.615519 0.6602912
1.505864 0.93368703 -3.4624765 0.37390605 0.686659 -2.2709694 -0.4595641 1.4873546
-0.6314099 -1.0420139 -0.46566406 0.73311716 1.3705587 -2.8566325 1.9506917 -0.20767875
4.1260676 1.2419388 1.7561201 2.3021107 -0.35936794 -0.29709423 -0.61461353 1.8673886
0.23673543 0.35003972 -0.6726884 -2.3234875 -0.6022781 0.04805131 0.5653916 -2.8806877
0.4134543 0.11599499 -1.1021188 -0.23645918 -2.3041966 -1.0387541 -0.6501252 -2.4813738
1.629304 -0.71475226 -1.3506792 0.1911624 -2.1525784 -1.0926038 2.620766 2.3880525
-3.3376067 0.14981423 0.70514137 -1.3709002 -2.0730038 -0.7918058 1.6518818 4.0170064
1.2760444 -0.15051925 1.058908 -0.6328586 1.1113474 -0.28118134 3.0954292 -0.7993333
0.230812 1.6689781 -0.38443762 2.4283736 -2.0281472 -0.24900453 -1.1136229 0.7915673
1.1743002 -0.87575775 -0.35634068 -0.2420878 -1.0675149 0.9247998 -0.77423024 0.79658383
00000000: 29a5 f63f 535f be3f 6795 663f dbc0 06c0
00000010: d5ac 2d3f 9105 9ebf 8667 30bd ba65 cdbf
00000020: f08b 40bf 5b09 d33f f6f2 c8be 66a9 b3bf
00000030: 6e56 3abf d136 0fbf a0d2 44bf 9f2f 433f
00000040: dc51 ff3f 2790 863f c9de 833f a3b8 713f
00000050: adcd 5540 37f6 83bf 1976 4cbf d312 2a40
00000060: 0b30 6bbf 445e b6be f9b1 24c0 6ec7 2040
00000070: 24b2 fd3f 46ce 9cbf 2e9f f7bf 6ba9 7e3f
00000080: 446c 123f ff0c 72bd 3cc4 263e ed8d 4d40
00000090: bda8 90bf db37 463e c858 67bf 9c9f c4bf
000000a0: 4f48 72be 52f0 c9bf 06c5 0ebf 3ecc eabf
000000b0: e46a 17c0 088f 8d3f d96e 4dbf 8fce 89bf
000000c0: 691f b83f 6f3e cd3d 1ae3 38bf 1b49 b33f
000000d0: c226 86bf b4ec e6bf 1f33 19bf 1036 a6bf
000000e0: 5093 a23e 4897 17c0 3859 bc3e 351e 0cbf
000000f0: 83ab fdbf 2b0e e5bf 8152 f0bf fa87 af3c
00000100: 4412 0640 43d3 0540 1153 073f 55b8 b33f
00000110: c234 2440 208c dabf 3177 28be 5131 a440
00000120: 7b4f c6bf 8c34 4cbf 2267 b23e 8a28 843e
00000130: 36a8 153e 6d45 6cc0 5d5d c8bf 7d27 a8bf
00000140: 2e3f 873f e45d e13e 54fa f73d 7ecc 8f3e
00000150: 5a0e bb3f 59cc 8bbf 1e6e ab3f bb4b a3bf
00000160: cafe b53e c975 e9be 0344 ffbf e606 66bf
00000170: eff8 54c0 5e3a 8fbe 588a 163f d302 1fbf
00000180: add4 eebe b2ff ff3f d028 3abf 8375 0440
00000190: d49e 4440 939d d4bf 551d 0240 dfbb 4f40
000001a0: 84dd 6bbf c3bd 9abf f308 893f 7ddd 723e
000001b0: 26bd 093f cb6f c7bf 0913 6a3f 9827 a3bf
000001c0: 4fff 7cbe ab71 723f 419c 9d3e e176 9d3f
000001d0: dc7a 7e40 6c00 dabf da29 b2bf bd55 b03f
000001e0: 37f1 debf 5e44 8fbf ce58 09c0 5a02 a93f
000001f0: ae71 0140 f870 65bf ec4a f3be 5829 153e
00000200: 38ba f03f 5567 8a3f e0ad bcbf ef95 e3be
00000210: 532b f6bf d901 e43e 7011 b63f ab49 3d3f
00000220: 89ed fb3f 38a0 cebf 78ef 5abe fd24 7fbf
00000230: d876 37c0 b2ea c23d 4c8d cc3e 2c70 56bf
00000240: 73bf 0640 35be e83f 5206 c03f 5a8b 2740
00000250: 7c63 c63d bce8 a93f d8f7 6dbf 49f4 e7be
00000260: 8618 8b3e 38cf b0bf dc26 9bbf 1b4e 94be
00000270: 2a00 10c0 bc52 24bf e97a f2be 8730 553d
00000280: c02b 52be 0e46 e53f ee0b b03d dcf4 203f
00000290: c02c 67bf 717a b0bf 079e 133e a163 f8bf
000002a0: f771 cc3d ae7c efbc e80c b23f f18d 2bc0
000002b0: c544 8dc0 e0b4 0bbf 54c9 ce3f d808 293f
000002c0: 27c0 c03f 1d06 6f3f 3799 5dc0 9d70 bf3e
000002d0: e2c8 2f3f 9057 11c0 fc4b ebbe a361 be3f
000002e0: 14a4 21bf b660 85bf 856b eebe 91ad 3b3f
000002f0: 786e af3f 11d3 36c0 44b0 f93f bda9 54be
00000300: bf08 8440 daf7 9e3f 8bc8 e03f c855 1340
00000310: 13ff b7be bc1c 98be 5057 1dbf 9706 ef3f
00000320: c66a 723e 6838 b33e 4f35 2cbf 05b4 14c0
00000330: e62e 1abf 73d1 443d 81bd 103f 305d 38c0
00000340: 48b0 d33e c88e ed3d 3b12 8dbf 5b22 72be
00000350: f577 13c0 e5f5 84bf 9b6e 26bf d4ce 1ec0
00000360: 098d d03f 01fa 36bf 0ee3 acbf 14c0 433e
00000370: d8c3 09c0 71da 8bbf a1ba 2740 dad5 1840
00000380: 599b 55c0 e768 193e 2584 343f a879 afbf
00000390: 18ac 04c0 c9b3 4abf dd70 d33f 518b 8040
000003a0: 6c55 a33f b821 1abe 4c8a 873f 0503 22bf
000003b0: a240 8e3f 00f7 8fbe 831b 4640 1ba1 4cbf
000003c0: fb59 6c3e 13a1 d53f 02d5 c4be 796a 1b40
000003d0: 2acd 01c0 0bfb 7ebe 328b 8ebf 28a4 4a3f
000003e0: 784f 963f a931 60bf 4972 b6be dde5 77be
000003f0: 54a4 88bf aebf 6c3f f433 46bf ebec 4b3f

future_emb.embedding.0.weight f4 [32, 16]
0.8866237 -0.8611427 -0.27264783 0.9804211 -0.17533334 -0.12276918 0.7414069 0.3539519
-0.5345798 0.64536744 -2.989066 0.18370742 -0.47269785 -0.95882463 -1.5123531 1.5067633
2.6988926 -1.3947148 0.66743267 1.413932 0.22575529 -0.44101414 1.1511773 -0.5998062
-0.11374456 -1.0871419 -0.7130123 -0.6544968 -3.5958061 -2.461829 1.4930799 4.1238494
-0.12031722 1.4659475 -1.2434667 -2.1567097 -2.894527 0.6165425 0.5836129 1.9479532
-1.2062881 -1.6477935 -1.7801931 0.51394105 0.13654682 1.6853266 -1.8169521 -0.83683795
1.0062964 -0.059476297 0.23628162 0.53343475 -1.8316752 1.4460449 0.1645544 -1.1822051
-1.3061131 -0.94665307 -1.9884305 -2.4592211 -2.0615504 -0.8426626 0.1672236 0.6055279
0.20642152 -0.38650414 -0.021708252 -1.0109076 0.8725915 0.11905804 0.4617136 -0.32551327
0.35479644 1.2236657 0.07467186 0.22920303 -3.153062 -1.680082 0.14376472 0.5645402
-0.3080143 1.4493738 0.9141383 0.80154026 0.18751459 0.16201684 -1.2598493 -0.50859874
-1.6059154 -0.98449695 -0.6680636 -0.98909676 -2.6462498 -3.3854313 -1.2379767 1.2721609
2.346531 0.35782707 2.0710857 -0.6596593 1.0819848 -0.23436394 1.0479797 1.313075
-1.0301433 -0.41830418 1.419579 -1.8677065 -1.8227406 -1.67431 -0.31392708 2.3696532
1.2588671 0.73766273 1.0377574 -1.0697721 -0.33157417 1.8700464 0.061219186 0.006416512
-1.2643429 -0.3430588 1.4117229 -2.2818584 -4.467981 -2.064766 2.3515294 0.5840687
0.7755499 1.5751275 -0.3858718 -2.2675498 2.1318796 1.3472955 0.38497576 0.73666507
-0.27310666 -0.0482374 0.73286873 -1.3490565 1.4380959 -1.6797632 -1.2001288 -0.8233799
-0.2810572 -0.22792925 -0.45740122 -0.38984323 -0.49279895 0.477439 1.6769494 -0.291298
-1.8390404 -0.21886322 -1.5766433 2.7958493 -0.1555773 1.2879487 -0.9741222 0.35826764
-3.4608827 0.3412146 -1.8971725 1.614216 0.90398246 -1.4500791 -0.19529307 -0.43165556
0.12975411 -1.4704058 -0.38099748 0.5015898 2.442608 -0.6991045 -1.9172288 -0.8057377
1.128655 0.28150308 0.46393058 -1.196025 -1.8094267 -1.4731076 0.5899604 -0.1803732
-0.9559461 2.3853018 1.0163594 1.5113521 0.6520071 0.49619874 0.46773055 -0.793332
-3.3520224 -0.0075514494 -2.2361696 -1.4931649 -0.25639772 -2.0133765 -1.7914058 0.9245777
0.6379847 0.94477016 1.3672814 0.14942746 3.7330964 -2.3570719 -3.272751 -1.8187275
-1.6318643 -0.09734539 -0.45379362 -1.9516432 -1.4888257 -0.9533688 0.48115996 -1.8015239
2.1101964 1.0615636 -0.7039913 1.0659729 2.3808084 -1.8335584 -2.6438632 -2.9286506
1.5090967 0.49040565 -1.1018543 -0.35527238 -0.1488383 3.2777486 -4.572347 1.8911878
0.07978276 0.66193783 -1.0692935 2.2366476 1.8699702 -1.519331 -5.5414357 -3.0751576
1.204981 -1.3490257 -1.2692318 -0.95389044 -0.7467932 3.0292294 -1.3413233 1.6431001
-1.7270522 1.9480821 -2.178144 -0.28777567 0.4619022 0.7368585 -5.677691 -1.4190366
00000000: c5f9 623f d973 5cbf 7f98 8bbe e1fc 7a3f
00000010: 958a 33be 686e fbbd d8cc 3d3f 2f39 b53e
00000020: 39da 08bf cd36 253f db4c 3fc0 cc1d 3c3e
00000030: 7405 f2be 8875 75bf c994 c1bf 9fdd c03f
00000040: a8ba 2c40 0486 b2bf dedc 2a3f b9fb b43f
00000050: 652c 673e 9bcc e1be c759 933f e68c 19bf
00000060: e8f2 e8bd 7727 8bbf f987 36bf 1a8d 27bf
00000070: b021 66c0 9b8e 1dc0 3e1d bf3f 93f6 8340
00000080: e068 f6bd 2ba4 bb3f eb29 9fbf 8807 0ac0
00000090: ee3f 39c0 bbd5 1d3f a867 153f 8856 f93f
000000a0: a667 9abf e6ea d2bf 5edd e3bf a491 033f
000000b0: eed2 0b3e c8b8 d73f e391 e8bf 033b 56bf
000000c0: 52ce 803f 6b9d 73bd cff3 713e 2e8f 083f
000000d0: 5574 eabf 0018 b93f f380 283e 7f52 97bf
000000e0: b72e a7bf db57 72bf e484 febf e163 1dc0
000000f0: 71f0 03c0 bcb8 57bf aa3c 2b3e e003 1b3f
00000100: 2a60 533e dfe3 c5be 81d5 b1bc 6c65 81bf
00000110: 2862 5f3f b4d4 f33d ba65 ec3e ada9 a6be
00000120: e1a7 b53e 14a1 9c3f 8fed 983d 33b4 6a3e
00000130: c5cb 49c0 ed0c d7bf 0f37 133e b585 103f
00000140: 0db4 9dbe 1585 b93f f804 6a3f be31 4d3f
00000150: d303 403e bee7 253e be42 a1bf 8733 02bf
00000160: a38e cdbf fe07 7cbf 3706 2bbf 7235 7dbf
00000170: 285c 29c0 e8aa 58c0 0576 9ebf 2bd6 a23f
00000180: 902d 1640 1c35 b73e ab8c 0440 6fdf 28bf
00000190: 7a7e 8a3f 1afd 6fbe 3324 863f d712 a83f
000001a0: bcdb 83bf f72b d6be c4b4 b53f 0211 efbf
000001b0: 904f e9bf ca4f d6bf 0dbb a0be 66a8 1740
000001c0: 8f22 a13f 77d7 3c3f 3cd5 843f 4bee 88bf
000001d0: 17c4 a9be ae5d ef3f f8c0 7a3d 9b41 d23b
000001e0: fdd5 a1bf 67a5 afbe 56b3 b43f f809 12c0
000001f0: b3f9 8ec0 2025 04c0 757f 1640 8785 153f
00000200: 708a 463f c79d c93f fd90 c5be 891f 11c0
00000210: b770 0840 2e74 ac3f 8b1b c53e 1596 3c3f
00000220: a3d4 8bbe 9494 45bd 499d 3b3f e2ad acbf
00000230: 8713 b83f 7b02 d7bf d29d 99bf 06c9 52bf
00000240: bbe6 8fbe 4966 69be 7e30 eabe 8899 c7be
00000250: 2550 fcbe e272 f43e 47a6 d63f 0325 95be
00000260: ad65 ebbf ae1d 60be 73cf c9bf 32ef 3240
00000270: a84f 1fbe 81db a43f 1360 79bf db6e b73e
00000280: 1a7f 5dc0 aeb3 ae3e 8cd6 f2bf a19e ce3f
00000290: 656b 673f 319c b9bf e8fa 47be f501 ddbe
000002a0: 43de 043e 4236 bcbf 1a12 c3be 3068 003f
000002b0: b153 1c40 83f8 32bf c167 f5bf d344 4ebf
000002c0: c477 903f 2c21 903e 4f88 ed3e 5917 99bf
000002d0: 4b9b e7bf ca8e bcbf a507 173f c1b3 38be
000002e0: e2b8 74bf c9a8 1840 1118 823f fc73 c13f
000002f0: f0e9 263f c30d fe3e 617a ef3e ce17 4bbf
00000300: 8987 56c0 2672 f7bb 671d 0fc0 0720 bfbf
00000310: 9046 83be 29db 00c0 c94c e5bf 20b1 6c3f
00000320: f752 233f 75dc 713f 1403 af3f 8303 193e
00000330: 0deb 6e40 44da 16c0 c174 51c0 10cc e8bf
00000340: eee0 d0bf 055d c7bd a357 e8be 72cf f9bf
00000350: d791 bebf fa0f 74bf 995a f63e 5698 e6bf
00000360: 750d 0740 51e1 873f c638 34bf cd71 883f
00000370: 2a5f 1840 0bb2 eabf 0e35 29c0 036f 3bc0
00000380: 152a c13f 7316 fb3e 9009 8dbf 43e6 b5be
00000390: 1169 18be a2c6 5140 ab50 92c0 7112 f23f
000003a0: 2565 a33d c274 293f 9cde 88bf 3c25 0f40
000003b0: 2f5b ef3f 7079 c2bf 7153 b1c0 62cf 44c0
000003c0: d13c 9a3f e0ac acbf 3076 a2bf 2a32 74bf
000003d0: d72d 3fbf e5de 4140 7bb0 abbf 1b51 d23f
000003e0: 0c10 ddbf c15a f93f b666 0bc0 5557 93be
000003f0: 727e ec3e c2a2 3c3f a5af b5c0 fea2 b5bf

future_emb.embedding.1.weight f4 [7, 16]
-0.49489605 3.1461408 -2.057759 -0.08500421 -1.0541542 0.30259758 1.7284739 -0.25835508
-0.8394197 1.1427575 1.1648898 0.70381254 0.6363015 0.8377088 -1.4439998 -1.8768387
-1.1973152 1.468998 -0.34067285 -2.1813855 2.8832617 2.0801246 2.614623 1.5964986
-0.18395619 0.88837296 -0.31519547 2.8749988 -2.7606738 0.44830874 -0.60659736 0.80613124
-0.6873018 -0.5099964 -1.3243674 -2.2980185 2.6539478 1.7639749 1.3776839 1.4971055
-1.8964654 0.42835152 0.8895282 2.375085 0.8895584 0.217259 -1.8012587 0.19611268
-2.3716478 0.06955372 -2.1171217 -1.6839985 -0.5011099 1.2023996 1.9248029 -0.22788018
-0.90725756 0.3846522 2.2280273 0.32214502 1.7464907 -0.22735685 0.38699615 -2.140447
-1.3709056 0.58229566 -1.0195664 -1.2068017 -0.3288611 1.0412772 1.2671325 3.6508033
-0.66618794 -0.55582327 1.5733755 -1.6354387 -0.16368164 0.3970658 0.28564265 -1.5740975
-0.08511976 0.08500626 -1.5758207 0.40832677 2.920165 -1.306554 -0.6048725 0.3964601
1.6445214 0.62000126 -2.2509003 -0.9978465 -1.672261 -1.8225225 3.473948 2.8228676
0.958279 0.27499682 -1.0153573 2.3423846 -0.29124624 -0.41349098 0.09252781 -0.4616246
0.30108958 0.50954133 -1.8773249 0.37108874 0.4887846 -3.6312833 -0.42867327 0.8965885
00000000: 0463 fdbe 5f5a 4940 53b2 03c0 b016 aebd
00000010: 86ee 86bf 12ee 9a3e a23e dd3f 1e47 84be
00000020: 36e4 56bf e145 923f 1c1b 953f 0f2d 343f
00000030: a8e4 223f 1574 563f fcd4 b8bf 403c f0bf
00000040: a041 99bf 2008 bc3f ac6c aebe d29b 0bc0
00000050: 5c87 3840 c320 0540 fc55 2740 115a cc3f
00000060: 035f 3cbe 696c 633f 4d61 a1be fbff 3740
00000070: e1ae 30c0 b988 e53e f749 1bbf 9e5e 4e3f
00000080: 03f3 2fbf 208f 02bf df84 a9bf bc12 13c0
00000090: 48da 2940 eec9 e13f f257 b03f 27a1 bf3f
000000a0: 61bf f2bf e450 db3e 1fb8 633f 6501 1840
000000b0: 19ba 633f 2579 5e3e a58f e6bf c3d1 483e
000000c0: 14c9 17c0 2e72 8e3d ec7e 07c0 438d d7bf
000000d0: bd48 00bf 3be8 993f f15f f63f 6c59 69be
000000e0: 0842 68bf 22f1 c43e 0098 0e40 31f0 a43e
000000f0: 028d df3f 3cd0 68be 5c24 c63e 15fd 08c0
00000100: d679 afbf 5411 153f 2781 82bf 7a78 9abf
00000110: 7b60 a8be 9248 853f 6631 a23f c3a6 6940
00000120: 4b8b 2abf 6f4a 0ebf 5e64 c93f 0e56 d1bf
00000130: 299c 27be 354c cb3e c13f 923e 077c c9bf
00000140: 4553 aebd c317 ae3d 7eb4 c9bf 3510 d13e
00000150: fce3 3a40 293d a7bf edd8 1abf d1fc ca3e
00000160: ad7f d23f 67b8 1e3f c00e 10c0 de72 7fbf
00000170: a60c d6bf 6b48 e9bf 2a55 5e40 dda9 3440
00000180: c651 753f 62cc 8c3e 3af7 81bf a1e9 1540
00000190: 3a1e 95be 17b5 d3be 387f bd3d 0f5a ecbe
000001a0: 6a28 9a3e 4d71 023f 2f4c f0bf 58ff bd3e
000001b0: fa41 fa3e f266 68c0 107b dbbe d386 653f

future_emb.embedding.2.weight f4 [24, 16]
-2.0817492 -5.9177866 2.9478817 3.0063417 0.14441858 -2.025163 -1.7417653 -0.11971768
0.6051658 3.7065754 -0.9450094 -1.1436793 6.5141377 2.8290725 -3.3649392 -1.8223524
-2.5617871 -5.421062 1.0949421 2.1734557 -0.27491 -2.9154341 -1.0896897 1.1686347
1.707618 4.2975373 0.9369345 -0.50610983 5.447745 3.0109015 -3.042361 -0.42658994
0.14842212 -4.014824 1.2479491 3.4256191 0.4079424 -2.841679 -0.8808705 -0.7434099
2.0102916 4.415792 -1.7841442 0.8150344 2.9679255 0.5851052 -1.4965583 -1.4781595
1.0557103 -3.2670069 1.1483116 3.5742092 0.48734722 -1.7196827 -3.317992 -2.585966
0.84406084 6.276327 -1.2484888 0.8386476 1.9079994 0.022145195 0.065936536 -0.8666263
-0.16456503 -3.0191846 1.7207721 2.8716528 -0.8080934 -3.0943165 -3.432327 -0.35378176
2.0735023 4.9632134 1.9180682 0.36752328 3.5682535 0.7779828 -2.5982232 -0.895906
-0.4356936 0.8795361 1.287699 -2.121325 -0.053209536 -1.2200236 0.19457981 -0.57924217
2.1577766 1.2363478 3.3900204 0.74615425 3.6234536 -1.8689865 -1.4723324 1.9999392
-2.563489 1.6337197 -3.1625252 -4.593875 1.4703765 1.1741067 3.3776252 0.07718335
-2.6369588 -1.6211344 1.0856963 3.8558164 4.1232786 -0.016631851 -1.3132904 -3.6773798
-6.953473 0.754615 0.25516704 -6.090955 6.2358522 -1.0238938 0.8060297 2.985712
-3.457621 -0.6312342 -1.313437 -0.18871482 0.35998055 2.380827 -1.9838967 -2.65305
-0.29475904 -1.362133 -0.15739757 -2.1059594 3.006213 0.5929447 0.6574535 0.5280764
-0.5874132 -2.6092095 4.456627 -0.8163867 -1.2594147 -0.30742443 2.50143 4.156438
0.6058827 0.08611872 3.2041276 -0.73404115 2.34999 0.046619512 0.26642105 2.6794844
1.7368047 1.8490384 3.4055967 -0.51784205 -1.4832501 -1.7091782 1.791689 0.9513207
-0.16832998 0.564951 1.9586056 -0.6841548 2.4151788 0.1267378 -1.5368634 -1.2353575
-0.15220469 -1.6051358 1.7735335 -1.0039802 -2.6426828 0.98643434 -0.23363958 -0.5862894
-0.8446022 0.90470916 0.2764836 -0.96581274 3.1357815 -0.64297944 -2.9414163 -0.14826153
-0.48500496 -2.9469092 0.6087703 -0.09728908 -2.3442748 0.60148513 -0.65135026 -0.53114533
-1.2252189 0.91308874 1.3445307 0.16803087 0.28598797 2.5417678 -4.00314 1.0211823
0.3887863 -4.6707563 1.4021397 2.1574035 -2.1821036 0.016323823 1.3091886 -0.18638162
1.3273199 0.28334558 2.075259 0.67325884 4.7692695 -0.16565996 -2.6213675 0.72947294
0.5190246 -2.6511505 0.902484 1.4907646 -1.0753756 0.3103227 0.38584456 2.0200675
0.22356197 -1.2520139 1.6336775 1.5369098 2.7606206 0.77099615 -2.6720176 1.5028543
0.6575116 -4.5838733 0.98946893 1.0365949 -1.0958892 0.36522928 -0.0020458996 2.3657804
-0.90512514 -0.5020809 0.5833233 0.53482425 1.9586395 -0.089373335 -0.48775154 -0.83030045
-0.27715534 -3.5194695 0.29053742 2.3559365 -0.3314089 1.6322556 -0.23753707 1.4455425
00000000: 613b 05c0 825e bdc0 18aa 3c40 e767 4040
00000010: 77e2 133e 459c 01c0 2af2 debf 8b2e f5bd
00000020: 25ec 1a3f 8838 6d40 23ec 71bf 1564 92bf
00000030: d173 d040 860f 3540 2a5b 57c0 d842 e9bf
00000040: 52f4 23c0 5779 adc0 1027 8c3f e619 0b40
00000050: 01c1 8cbe 7996 3ac0 f47a 8bbf d295 953f
00000060: 3a93 da3f 6d85 8940 f0da 6f3f 6a90 01bf
00000070: ed53 ae40 9cb2 4040 0bb6 42c0 ff69 dabe
00000080: f8fb 173e 7079 80c0 ccbc 9f3f 583d 5b40
00000090: d4dd d03e 12de 35c0 bb80 61bf 1c50 3ebf
000000a0: 9ea8 0040 2b4e 8d40 d65e e4bf 18a6 503f
000000b0: 7ef2 3d40 74c9 153f 398f bfbf 5534 bdbf
000000c0: 8421 873f a416 51c0 e0fb 923f d8bf 6440
000000d0: 9385 f93e 901e dcbf fb59 54c0 7880 25c0
000000e0: 5f14 583f acd7 c840 7bce 9fbf 9cb1 563f
000000f0: 5339 f43f d769 b53c bc09 873d 39db 5dbf
00000100: bc83 28be 523a 41c0 4342 dc3f 29c9 3740
00000110: 36df 4ebf 4809 46c0 3fab 5bc0 e222 b5be
00000120: 43b4 0440 a5d2 9e40 4283 f53f 032c bc3e
00000130: 445e 6440 e129 473f 4a49 26c0 185a 65bf
00000140: 3b13 dfbe 4729 613f 52d3 a43f cac3 07c0
00000150: 3ef2 59bd bc29 9cbf ee3f 473e 3749 14bf
00000160: 0319 0a40 a540 9e3f 18f6 5840 f703 3f3f
00000170: aae6 6740 f33a efbf 6375 bcbf 02fe ff3f
00000180: 3410 24c0 ba1d d13f d066 4ac0 0601 93c0
00000190: 4c35 bc3f 2149 963f 032b 5840 4e12 9e3d
000001a0: efc3 28c0 5581 cfbf 19f8 8a3f b2c5 7640
000001b0: e6f1 8340 853f 88bc e619 a8bf 315a 6bc0
000001c0: da82 dec0 732e 413f 41a5 823e 1ae9 c2c0
000001d0: 1a8c c740 f40e 83bf f657 4e3f e815 3f40
000001e0: aa49 5dc0 9198 21bf b41e a8bf 753e 41be
000001f0: 5f4f b83e 785f 1840 54f0 fdbf 92cb 29c0
00000200: a8ea 96be 605a aebf d42c 21be 0ac8 06c0
00000210: cb65 4040 39cb 173f df4e 283f 0430 073f
00000220: b660 16bf 4afd 26c0 b09c 8e40 b8fe 50bf
00000230: 8034 a1bf bc66 9dbe 6e17 2040 8a01 8540
00000240: 211b 1b3f 035f b03d 6d10 4d40 1fea 3bbf
00000250: 3c66 1640 1af4 3e3d 5768 883e ac7c 2b40
00000260: 9e4f de3f 4aad ec3f 4cf5 5940 4c91 04bf
00000270: 24db bdbf 5ac6 dabf 1156 e53f c189 733f
00000280: b25e 2cbe a1a0 103f 97b3 fa3f c524 2fbf
00000290: 4a92 1a40 8ec7 013e f1b7 c4bf 3220 9ebf
000002a0: 8cdb 1bbe 1775 cdbf 2503 e33f 6c82 80bf
000002b0: b721 29c0 f686 7c3f 373f 6fbe 1017 16bf
000002c0: da37 58bf 059b 673f 428f 8d3e 813f 77bf
000002d0: a5b0 4840 4d9a 24bf 2a40 3cc0 dfd1 17be
000002e0: 9252 f8be 299a 3cc0 5fd8 1b3f 7f3f c7bd
000002f0: 9908 16c0 eefa 193f e4be 26bf 24f9 07bf
00000300: f9d3 9cbf 2fc0 693f 9519 ac3f 4910 2c3e
00000310: 046d 923e 53ac 2240 b919 80c0 1ab6 823f
00000320: ff0e c73e d676 95c0 5079 b33f e612 0a40
00000330: 96a7 0bc0 8ab9 853c 7e93 a73f d3da 3ebe
00000340: 9ee5 a93f ac12 913e 0bd1 0440 b15a 2c3f
00000350: db9d 9840 c4a2 29be 7cc4 27c0 bdbe 3a3f
00000360: ccde 043f 73ac 29c0 3109 673f 60d1 be3f
00000370: e8a5 89bf 9ee2 9e3e 6b8d c53e c948 0140
00000380: 6eed 643e fe41 a0bf 581c d13f 76b9 c43f
00000390: 02ae 3040 0160 453f 5602 2bc0 885d c03f
000003a0: ae52 283f 17af 92c0 d64d 7d3f 24af 843f
000003b0: 1946 8cbf 55ff ba3e 8014 06bb f268 1740
000003c0: 48b6 67bf 6088 00bf ad54 153f 3eea 083f
000003d0: b3b4 fa3f 5e09 b7bd 92ba f9be 928e 54bf
000003e0: 4ee7 8dbe fd3e 61c0 52c1 943e aac7 1640
000003f0: 6dae a9be c0ed d03f eb3c 73be 8907 b93f

future_emb.embedding.3.weight f4 [2, 16]
1.9177185 -1.7409463 -1.9145495 -1.3106407 -0.17313874 -0.4274643 -0.58307576 0.5042161
0.034397226 0.31537512 0.8541313 0.8414999 -2.8961463 -0.70159817 0.38395607 0.47938302
2.1587894 -1.556324 -1.4224263 -1.1472142 -0.34917513 -0.14584592 -0.41796404 0.37556553
-0.025982643 0.30550686 0.8030899 0.3989537 -2.271134 -0.41286677 0.11525593 0.26544553
00000000: cd77 f53f 54d7 debf f50f f5bf 13c3 a7bf
00000010: 484b 31be 9adc dabe 7444 15bf 4e14 013f
00000020: 1be4 0c3d d978 a13e 59a8 5a3f 8a6c 573f
00000030: 765a 39c0 f09b 33bf e495 c43e b171 f53e
00000040: 9b29 0a40 a035 c7bf 1112 b6bf ead7 92bf
00000050: 15c7 b2be a258 15be 62ff d5be 204a c03e
00000060: 8dd9 d4bc 656b 9c3e 4d97 4d3f a943 cc3e
00000070: 425a 11c0 4663 d3be 4d0b ec3d 7ae8 873e

category_emb.embedding.0.weight f4 [32, 16]
-1.4018466 0.561129 1.1513165 0.69885784 -0.5897563 -0.164609 -0.49309614 0.50408536
0.13771948 0.27507976 0.46829712 -0.7029952 -0.17960517 0.8973854 0.05169386 -0.5315346
0.45304883 0.17104897 2.344905 1.1659776 -0.6741785 0.7999915 4.4669285 2.112385
1.9378403 0.8368787 0.7570085 -0.58108556 -0.2274039 0.18662547 0.60669446 2.318456
-0.17356174 1.5895816 -2.547836 0.12652889 -0.046564437 -1.528906 1.8970617 -1.6960601
-1.2106687 1.5793357 -0.05165106 2.971308 -2.228511 1.4196316 3.2814178 1.9883816
1.8224643 -2.4616828 -2.3435338 -1.0682379 -1.0972573 0.78437865 -2.502219 -4.9115977
-8.176389 -2.1969101 -0.40571466 0.46481767 -0.5101754 1.3285067 2.9586055 -3.3339114
0.553374 -4.75847 -1.3267164 -0.03260392 -1.0571194 -1.1774215 -2.301014 -1.7470161
-2.1738892 0.34803963 -1.770047 -0.7495122 2.1136866 -2.9725332 0.79508334 0.01633967
-0.6823605 -0.76074827 2.2137237 0.20033425 -1.9512331 -1.2881395 -0.76029897 0.77683806
0.07991043 -1.1296664 0.7173309 1.367778 1.1331177 -1.5198257 -1.1990112 -2.8600488
3.4217975 4.1819267 -0.24241185 -1.2851888 1.1905328 -2.4502652 3.4912128 -1.9106389
3.5102062 1.9005171 -1.4910716 0.8068523 3.3060198 1.2298883 2.751636 -4.6124735
5.956667 -2.5386178 -1.3675779 1.9659091 -1.8602703 5.122146 -4.3169055 -0.17112951
0.6266301 1.9641651 -1.9701046 -1.7060556 0.28650624 4.9096413 0.9845629 1.7688701
-0.6719565 -0.4568201 -1.3917469 -3.015789 -0.94123787 2.4293551 -1.231492 -1.4468695
0.37318578 3.5664768 0.0057552527 -1.6631166 0.35458544 2.0450008 -0.6345828 -0.930213
0.0030843692 -1.531424 -3.5739405 -0.8906239 1.0218663 -1.7519894 0.6955342 0.7536393
1.4601672 1.9506375 -0.7174146 -2.4060152 0.12781377 -0.9076899 0.6695818 0.41698238
3.4554646 -1.528484 -1.772556 -3.0425818 -0.12940463 1.9653797 -2.177604 0.25862148
-2.8038688 -0.7929191 -3.3488991 -2.145666 -1.771028 4.412796 -0.91818666 1.5689918
0.79992735 -3.7755957 -1.5632445 -1.5596958 -2.5712578 -1.1270874 0.8176218 -2.3687108
-3.1807923 0.29097247 -1.4705949 0.89113307 -3.7892606 -0.013594495 2.271063 0.021350205
2.455313 -0.3133114 -0.22833353 -0.91570884 0.51712745 0.35522828 -0.27626005 -2.9739187
-0.07821751 4.7517476 0.47908622 0.004164733 0.56579685 2.349913 -0.89319795 1.8397752
0.8800771 1.7343091 -6.1208053 -3.1901746 -2.6870291 -0.1150316 -6.3534474 -4.2423267
-0.31468213 0.11860787 1.5764339 -1.1643752 -2.4185507 -1.2220954 3.8210223 -7.2715325
1.904998 -1.6837851 -2.4019206 -0.73726416 -0.48644918 -0.67996234 -0.2241121 -0.38090461
-1.6934923 1.6655965 -0.16896833 -4.344474 -0.15155716 4.0013556 1.9526701 3.7400494
-1.3057353 -3.5140524 2.807706 1.5042063 -0.6927139 4.6130495 -2.4215536 -1.4352683
-3.1840255 1.6760272 -0.9719447 -6.710437 -5.4488974 -3.7005525 0.4800908 1.2031415
00000000: b66f b3bf 26a6 0f3f 575e 933f 59e8 323f
00000010: 45fa 16bf 438f 28be 1977 fcbe bd0b 013f
00000020: 5606 0d3e 41d7 8c3e a4c4 ef3e 7ef7 33bf
00000030: 6bea 37be 0dbb 653f f1bc 533d a712 08bf
00000040: 04f6 e73e 7627 2f3e ec12 1640 c13e 953f
00000050: f696 2cbf 3ecc 4c3f 14f1 8e40 5131 0740
00000060: 270b f83f af3d 563f 4fcb 413f 06c2 14bf
00000070: 91dc 68be bf1a 3f3e 5450 1b3f 9561 1440
00000080: 2bba 31be 6977 cb3f bf0f 23c0 ca90 013e
00000090: 5aba 3ebd 31b3 c3bf ebd2 f23f 7f18 d9bf
000000a0: 31f7 9abf ac27 ca3f 1090 53bd e929 3e40
000000b0: ed9f 0ec0 7db6 b53f c002 5240 4a83 fe3f
000000c0: 8346 e93f 368c 1dc0 75fc 15c0 05bc 88bf
000000d0: ed72 8cbf 0acd 483f 5b24 20c0 cf2b 9dc0
000000e0: 7dd2 02c1 2d9a 0cc0 d5b9 cfbe 95fc ed3e
000000f0: db9a 02bf 820c aa3f cb59 3d40 ce5e 55c0
00000100: eba9 0d3f 6345 98c0 d8d1 a9bf b08b 05bd
00000110: b04f 87bf bfb5 96bf d043 13c0 399e dfbf
00000120: 0021 0bc0 4032 b23e e690 e2bf 08e0 3fbf
00000130: a446 0740 fc3d 3ec0 958a 4b3f c6da 853c
00000140: 2daf 2ebf 66c0 42bf a6ad 0d40 6c24 4d3e
00000150: 02c2 f9bf c1e1 a4bf f4a2 42bf dcde 463f
00000160: 14a8 a33d e998 90bf ffa2 373f 5913 af3f
00000170: 000a 913f a689 c2bf 3379 99bf 0a0b 37c0
00000180: bbfe 5a40 58d2 8540 d03a 78be 1181 a4bf
00000190: 6163 983f 25d1 1cc0 0870 5f40 d18f f4bf
000001a0: 38a7 6040 2544 f33f 6fdb bebf df8d 4e3f
000001b0: d495 5340 fb6c 9d3f ce1a 3040 6299 93c0
000001c0: 049d be40 b778 22c0 cb0c afbf e9a2 fb3f
000001d0: 561d eebf 9fe8 a340 1724 8ac0 933c 2fbe
000001e0: d56a 203f c369 fb3f 632c fcbf 0860 dabf
000001f0: f2b0 923e c81b 9d40 500c 7c3f 566a e23f
00000200: 5705 2cbf 53e4 e9be c324 b2bf b002 41c0
00000210: f7f4 70bf 8e7a 1b40 88a1 9dbf 0533 b9bf
00000220: 3512 bf3e 2841 6440 8f96 bc3b 01e1 d4bf
00000230: 398c b53e 4be1 0240 0574 22bf 7022 6ebf
00000240: 2123 4a3b b405 c4bf 71bb 64c0 eeff 63bf
00000250: 84cc 823f 3041 e0bf 880e 323f 81ee 403f
00000260: c2e6 ba3f 7dae f93f 7ca8 37bf 27fc 19c0
00000270: 9de1 023e 5e5e 68bf b669 2b3f b77e d53e
00000280: 5526 5d40 5da5 c3bf 1de3 e2bf a9b9 42c0
00000290: a682 04be 9091 fb3f dd5d 0bc0 096a 843e
000002a0: 9672 33c0 bffc 4abf 5d54 56c0 9752 09c0
000002b0: 0cb1 e2bf a035 8d40 480e 6bbf b9d4 c83f
000002c0: 0ac8 4c3f 5ca3 71c0 6518 c8bf 1da4 c7bf
000002d0: 7d8f 24c0 6644 90bf aa4f 513f f598 17c0
000002e0: 1a92 4bc0 58fa 943e 743c bcbf 4c21 643f
000002f0: 3f83 72c0 72bb 5ebc 1959 1140 a0e6 ae3c
00000300: d923 1d40 5a6a a0be 44d0 69be e56b 6abf
00000310: 7762 043f 7be0 b53e f571 8dbe af54 3ec0
00000320: 8030 a0bd 510e 9840 ca4a f53e 5078 883b
00000330: 10d8 103f f964 1640 9fa8 64bf c17d eb3f
00000340: bc4c 613f d7fd dd3f a3dd c3c0 d22b 4cc0
00000350: 49f8 2bc0 b095 ebbd 714f cbc0 24c1 87c0
00000360: 041e a1be afe8 f23d 96c8 c93f 3f0a 95bf
00000370: 89c9 1ac0 9f6d 9cbf a18b 7440 65b0 e8c0
00000380: f9d6 f33f 4586 d7bf 11b9 19c0 58bd 3cbf
00000390: de0f f9be 0312 2ebf a47d 65be ee05 c3be
000003a0: 5bc4 d8bf 4432 d53f 0906 2dbe ee05 8bc0
000003b0: cd31 1bbe 1b0b 8040 18f1 f93f f85c 6f40
000003c0: 5622 a7bf 3ce6 60c0 75b1 3340 d589 c03f
000003d0: b355 31bf 1a9e 9340 bcfa 1ac0 dfb6 b7bf
000003e0: 13c7 4bc0 0f88 d63f 5ed1 78bf e6bb d6c0
000003f0: 5e5d aec0 dad5 6cc0 76ce f53e 8a00 9a3f

category_emb.embedding.1.weight f4 [7, 16]
-3.2931428 2.0368435 -3.2010329 -2.2389896 -2.3403175 2.6574485 -1.8754864 -2.1577508
-1.8038794 -0.32377297 -2.8139572 0.81527275 3.7884011 0.55553806 -0.08877166 0.8294647
0.07483112 2.4094207 -2.0107589 -1.4505733 2.185748 0.18982093 -0.81627923 -1.7723527
2.0236657 -1.5457108 -1.0307207 -0.44707954 1.4252543 1.5802932 2.178771 -2.7495618
2.0592446 1.245708 0.89582664 4.6490273 -0.11725657 -2.8700004 3.7021909 4.1852636
1.8378879 3.5454137 -2.7870123 -0.4124013 1.6160077 3.4893024 -4.6677685 -2.9109266
-3.83449 2.0387487 -0.8284511 1.3989114 0.22252621 -0.57506233 -1.4439806 -1.1792256
0.92867976 -0.75424707 -1.1170195 -2.80324 0.13215582 -0.03234941 0.094565846 -0.41792607
1.0367159 -0.41544783 -2.1864922 -3.1628897 1.6881602 -1.7368622 0.099333495 0.27120548
-0.51701313 0.6458781 -1.5125341 -3.6747043 0.20406653 -0.7286423 0.38241872 -0.33022237
-1.159923 -0.5158939 1.121291 -0.23562731 -0.51056653 -1.087199 -1.2352495 1.6765956
-2.4106495 0.9261775 2.2053216 1.4828761 -1.4550338 -0.80560404 2.0487123 0.36995828
-0.22625694 -0.81667155 2.0221963 -1.540566 1.0490471 -1.4998136 -0.6131614 0.67609537
-4.817934 1.865772 2.750733 4.5998054 0.733233 -4.4461455 2.1529815 -2.4833357
00000000: dac2 52c0 a55b 0240 b9dd 4cc0 9b4b 0fc0
00000010: c3c7 15c0 a313 2a40 f00f f0bf 9718 0ac0
00000020: 85e5 e6bf 92c5 a5be e017 34c0 b7b5 503f
00000030: 2a75 7240 be37 0e3f ebcd b5bd cc57 543f
00000040: 0f41 993d f333 1a40 46b0 00c0 63ac b9bf
00000050: 4ce3 0b40 6b60 423e adf7 50bf 74dc e2bf
00000060: bd83 0140 dad9 c5bf a8ee 83bf 9ce7 e4be
00000070: bc6e b63f 0c47 ca3f fc70 0b40 d2f8 2fc0
00000080: aaca 0340 5c73 9f3f e554 653f d5c4 9440
00000090: 3624 f0bd 16ae 37c0 b2f0 6c40 aeed 8540
000000a0: e93f eb3f 0fe8 6240 695e 32c0 4326 d3be
000000b0: 57d9 ce3f bb50 5f40 5c5e 95c0 9f4c 3ac0
000000c0: 4968 75c0 dc7a 0240 5f15 54bf 870f b33f
000000d0: e9dd 633e 4937 13bf 5bd4 b8bf ddf0 96bf
000000e0: f5bd 6d3f 5616 41bf 7ffa 8ebf 4968 33c0
000000f0: db53 073e d180 04bd bdab c13d 68fa d5be
00000100: 1bb3 843f 94b5 d4be 7def 0bc0 c96c 4ac0
00000110: a215 d83f 8051 debf 5c6f cb3d 72db 8a3e
00000120: f95a 04bf 4458 253f b89a c1bf 5b2e 6bc0
00000130: d1f6 503e 4d88 3abf 63cc c33e e812 a9be
00000140: 5b78 94bf 9f11 04bf 7786 8f3f 4948 71be
00000150: 7db4 02bf 5629 8bbf a81c 9ebf af9a d63f
00000160: 1548 1ac0 f819 6d3f fd23 0d40 e2ce bd3f
00000170: 8c3e babf 113c 4ebf 1a1e 0340 2c6b bd3e
00000180: e6af 67be 6311 51bf aa6b 0140 4431 c5bf
00000190: 2d47 863f e4f9 bfbf 25f8 1cbf 9614 2d3f
000001a0: 842c 9ac0 9ed1 ee3f 020c 3040 9b31 9340
000001b0: 28b5 3b3f d346 8ec0 73ca 0940 f9ee 1ec0

category_emb.embedding.2.weight f4 [24, 16]
-2.033629 1.2929724 -1.947269 -4.1252756 -4.2569175 -0.7737105 0.6261031 1.2790724
-1.836578 -3.8991563 3.294087 -1.0360756 -1.1750097 0.10367306 1.0614917 0.8943443
-3.9235048 -3.0751634 2.7838838 2.2053149 -3.3801875 -2.7084935 1.7557219 0.8495175
-0.27671584 -1.8431311 5.284216 -0.08641796 -1.0465055 -1.753566 -0.30447906 -1.1180346
1.5015186 0.027406095 -1.0414898 -0.109303854 -1.6470747 1.1071889 0.3975243 1.2785722
-1.4852086 -1.2083862 1.5773371 -0.7275019 1.8669163 1.3743435 1.2443469 1.5531098
1.4583423 0.522395 -0.30968937 -1.9451399 -2.3097622 -0.60304147 0.06419322 0.32256144
-2.6658814 -0.7331408 1.955956 -1.1978525 0.966987 0.92779976 0.29416528 1.43326
-0.68291056 0.6236741 -0.96522146 -3.0466692 -1.3526483 -1.5221239 0.90192235 0.051877763
-2.6067107 -2.9253473 0.28364366 -0.5046438 -2.2015417 1.8070312 -0.9226332 3.0058863
-0.18264873 -1.1820401 -1.6967388 -0.5889793 -3.8285773 -0.8219042 -3.1408179 0.14955889
-1.0852485 -2.0377383 0.17034641 3.2636418 -0.9252506 1.15844 -0.6195919 -0.7333448
-1.1525631 1.4020269 -2.6066217 0.15948537 0.21787003 -0.44217122 -5.3444476 -1.017802
1.419799 -0.14507094 0.61131895 1.0388384 -0.86283755 -0.4678479 4.5227046 0.77543604
-3.2999933 0.8142758 -0.8293422 1.4951286 2.5399091 0.7418863 -1.9916792 -0.2864681
2.478415 3.320917 -0.5805494 2.9493506 -0.03253783 -2.8428085 2.6411827 6.0198474
-2.7966912 4.1226654 -2.0470955 -0.20608567 1.5237224 2.4535816 -2.482106 -1.502403
1.5638089 2.0379734 -1.5285851 1.7114973 0.6056144 -1.7888505 2.4153504 0.35974315
-0.8587949 3.478481 -1.1973147 0.115197785 1.4284999 3.5006928 -0.8697882 -1.5290297
0.6964983 0.14903973 -3.4332988 0.25530607 0.7152977 4.3027334 1.0665791 -2.7208986
0.47170582 0.67144585 -0.47416434 0.9417096 -0.10115288 3.4282837 1.8351285 -3.817906
4.2434187 2.2029464 -2.8135116 0.18794495 1.7677702 1.0060617 -0.6725398 0.44779205
-0.3911721 0.46834493 0.51200867 1.0855321 1.1734073 2.7848222 3.6462913 -4.345777
1.8579997 4.5616465 -2.6713305 -1.202333 0.64255244 -3.9458501 0.86379975 1.6031082
-2.1868234 -4.3872833 0.10953536 0.7723001 2.801332 4.238196 3.5069392 -7.821364
-1.9803059 2.6857522 -7.8022895 -2.8357186 -2.873246 -3.0963707 -1.1545134 1.1658753
0.7197237 0.19825368 -1.2492304 0.42325294 1.9722483 2.8205228 1.6968017 -0.31455103
4.9712286 4.5415583 -0.88954586 -2.963891 3.8859756 0.5760975 -1.6463044 2.3295786
0.7540191 3.5869696 -0.7536672 1.2805674 3.1262662 4.274556 0.47446662 -1.2849997
1.4962251 3.1871226 -0.7384495 -0.58955497 3.3334188 -0.10167813 0.8851245 2.215516
-0.048039515 0.590158 -1.3657155 0.5628927 0.9889801 2.3329444 2.3286345 -2.339844
3.480541 3.576853 -0.53170246 -1.5810348 1.7647815 -2.018622 -2.169395 0.50520873
00000000: fa26 02c0 1f80 a53f 1c40 f9bf 4202 84c0
00000010: ab38 88c0 e411 46bf 4b48 203f a5b8 a33f
00000020: fd14 ebbf c78b 79c0 52d2 5240 209e 84bf
00000030: b866 96bf 8b52 d43d f6de 873f bff3 643f
00000040: b41a 7bc0 7acf 44c0 272b 3240 e123 0d40
00000050: fe54 58c0 f557 2dc0 7fbb e03f fb79 593f
00000060: b3ad 8dbe b8eb ebbf 4c18 a940 e6fb b0bd
00000070: e4f3 85bf da74 e0bf aee4 9bbe c21b 8fbf
00000080: c331 c03f bf82 e03c 8a4f 85bf b3da dfbd
00000090: 58d3 d2bf 5eb8 8d3f 4e88 cb3e 41a8 a33f
000000a0: 511b bebf 66ac 9abf 2fe6 c93f 913d 3abf
000000b0: 1df7 ee3f 7dea af3f c246 9f3f 4dcc c63f
000000c0: f6aa ba3f aebb 053f 9b8f 9ebe 58fa f8bf
000000d0: 25d3 13c0 ed60 1abf bc77 833d c626 a53e
000000e0: cd9d 2ac0 1eaf 3bbf c45c fa3f 3b53 99bf
000000f0: 768c 773f 4984 6d3f d59c 963e 1075 b73f
00000100: 3ad3 2ebf 1ba9 1f3f c118 77bf a1fc 42c0
00000110: 9423 adbf f5d4 c2bf 62e4 663f c77d 543d
00000120: 59d4 26c0 e438 3bc0 be39 913e 5630 01bf
00000130: 0fe6 0cc0 cc4c e73f b031 6cbf 7160 4040
00000140: 4508 3bbe 174d 97bf bd2e d9bf 59c7 16bf
00000150: 6907 75c0 5068 52bf 2903 49c0 f725 193e
00000160: 6ce9 8abf 4e6a 02c0 4a6f 2e3e 82df 5040
00000170: 39dd 6cbf c347 943f 939d 1ebf 7cbc 3bbf
00000180: 3087 93bf 9e75 b33f e4d2 26c0 2250 233e
00000190: 5219 5f3e 4464 e2be b705 abc0 5647 82bf
000001a0: f9bb b53f 7a8d 14be 667f 1c3f a8f8 843f
000001b0: ece2 5cbf c389 efbe ffb9 9040 fa82 463f
000001c0: 1733 53c0 6174 503f c54f 54bf 6060 bf3f
000001d0: df8d 2240 43ec 3d3f 58ef febf f2ab 92be
000001e0: 5a9e 1e40 e789 5440 e39e 14bf 29c2 3c40
000001f0: 6346 05bd 93f0 35c0 2309 2940 97a2 c040
00000200: fdfc 32c0 e0ec 8340 9d03 03c0 1f08 53be
00000210: 5609 c33f 7b07 1d40 d3da 1ec0 be4e c0bf
00000220: e42a c83f 286e 0240 ada8 c3bf 5812 db3f
00000230: 8c09 1b3f 0ef9 e4bf 1a95 1a40 4130 b83e
00000240: fcd9 5bbf 6f9f 5e40 9c41 99bf d1ec eb3d
00000250: 16d9 b63f 5a0b 6040 71aa 5ebf 3fb7 c3bf
00000260: b64d 323f df9d 183e 2bbb 5bc0 7ab7 823e
00000270: c01d 373f feaf 8940 aa85 883f 3423 2ec0
00000280: 6d83 f13e e0e3 2b3f abc5 f2be e113 713f
00000290: 3e29 cfbd 0069 5b40 7ee5 ea3f 9258 74c0
000002a0: 16ca 8740 13fd 0c40 9310 34c0 a474 403e
000002b0: 4b46 e23f a1c6 803f 912b 2cbf 0045 e53e
000002c0: b647 c8be e8ca ef3e 0013 033f b7f2 8a3f
000002d0: 3632 963f 873a 3240 d65c 6940 9b10 8bc0
000002e0: efd2 ed3f 02f9 9140 14f7 2ac0 0ce6 99bf
000002f0: 517e 243f cf88 7cc0 fb21 5d3f a632 cd3f
00000300: eaf4 0bc0 a064 8cc0 1354 e03d 76b5 453f
00000310: 0649 3340 4d9f 8740 b171 6040 9d48 fac0
00000320: aa7a fdbf 5de3 2b40 5bac f9c0 6a7c 35c0
00000330: 43e3 37c0 f02a 46c0 18c7 93bf 673b 953f
00000340: d03f 383f 0303 4b3e c8e6 9fbf 9cb4 d83e
00000350: a272 fc3f 7283 3440 cc30 d93f d50c a1be
00000360: 4e14 9f40 7254 9140 47b9 63bf 64b0 3dc0
00000370: d3b3 7840 207b 133f 1aba d2bf d117 1540
00000380: 6507 413f e990 6540 55f0 40bf a2e9 a33f
00000390: bf14 4840 2ac9 8840 4aed f23e df7a a4bf
000003a0: 4e84 bf3f d1f9 4b40 070b 3dbf 13ed 16bf
000003b0: bc56 5540 a03c d0bd 8597 623f 04cb 0d40
000003c0: 15c5 44bd 9814 173f c4cf aebf bc19 103f
000003d0: cd2d 7d3f f64e 1540 5908 1540 01c0 15c0
000003e0: 2fc1 5e40 29eb 6440 a71d 08bf 595f cabf
000003f0: 5ce4 e13f 1a31 01c0 5ed7 0ac0 5c55 013f

category_emb.embedding.3.weight f4 [2, 16]
0.16597092 -0.3076142 -2.3554587 -2.3485405 0.7934602 0.8614506 -2.5674367 1.262326
-0.009620696 2.4700062 -1.6772124 -2.2208908 -0.26367748 2.5768332 0.55421484 -2.0062668
-1.3101865 0.18011057 -1.6351029 -1.8174894 1.8632888 1.5788059 -2.83884 2.8403766
0.81670064 1.5400105 -1.4543728 -3.171845 1.0890731 1.3715737 -0.076570004 -1.2395585
00000000: 48f4 293e 9c7f 9dbe d6bf 16c0 7d4e 16c0
00000010: 3520 4b3f 0788 5c3f e250 24c0 e693 a13f
00000020: 20a0 1dbc 9514 1e40 e5ae d6bf 1323 0ec0
00000030: bc00 87be d6ea 2440 06e1 0d3f ad66 00c0
00000040: 31b4 a7bf e86e 383e 0d4b d1bf 7ea3 e8bf
00000050: 3f80 ee3f 5016 ca3f 8eaf 35c0 bbc8 3540
00000060: 4b13 513f 101f c53f e328 babf 82ff 4ac0
00000070: bf66 8b3f ba8f af3f bcd0 9cbd daa9 9ebf

continuous_emb.embedding.0.weight f4 [16, 1]
-0.06955863 -0.17369263 -0.7666313 -0.13421834 0.012285515 0.15131122 0.23680475 -0.96882343
-0.85755 -0.18159713 0.016883004 -0.5260793 -0.025926508 -0.86710656 0.053719938 0.0006284163
00000000: c174 8ebd 7bdc 31be f341 44bf 8870 09be
00000010: 2f49 493c 54f1 1a3e f27c 723e d004 78bf
00000020: 6688 5bbf 99f4 39be 3a4e 8a3c 22ad 06bf
00000030: d463 d4bc b2fa 5dbf 7009 5c3d 4ebc 243a

continuous_emb.embedding.0.bias f4 [16]
0.46842435 1.6146338 2.4489043 1.405495 0.31492263 -0.76930153 -2.5835314 2.012681
1.9193093 1.5265628 -0.10803009 2.7806876 0.79921305 2.5535657 -1.9791032 -0.2330266
00000000: 51d5 ef3e 52ac ce3f d9ba 1c40 43e7 b33f
00000010: 8a3d a13e f2f0 44bf 9458 25c0 c4cf 0040
00000020: edab f53f 6966 c33f e13e ddbd c9f6 3140
00000030: 3a99 4c3f 9f6d 2340 4153 fdbf 869e 6ebe

continuous_emb.embedding.1.weight f4 [16, 1]
-0.06955863 -0.17369263 -0.7666313 -0.13421834 0.012285515 0.15131122 0.23680475 -0.96882343
-0.85755 -0.18159713 0.016883004 -0.5260793 -0.025926508 -0.86710656 0.053719938 0.0006284163
00000000: c174 8ebd 7bdc 31be f341 44bf 8870 09be
00000010: 2f49 493c 54f1 1a3e f27c 723e d004 78bf
00000020: 6688 5bbf 99f4 39be 3a4e 8a3c 22ad 06bf
00000030: d463 d4bc b2fa 5dbf 7009 5c3d 4ebc 243a

continuous_emb.embedding.1.bias f4 [16]
0.46842435 1.6146338 2.4489043 1.405495 0.31492263 -0.76930153 -2.5835314 2.012681
1.9193093 1.5265628 -0.10803009 2.7806876 0.79921305 2.5535657 -1.9791032 -0.2330266
00000000: 51d5 ef3e 52ac ce3f d9ba 1c40 43e7 b33f
00000010: 8a3d a13e f2f0 44bf 9458 25c0 c4cf 0040
00000020: edab f53f 6966 c33f e13e ddbd c9f6 3140
00000030: 3a99 4c3f 9f6d 2340 4153 fdbf 869e 6ebe

continuous_emb.embedding.2.weight f4 [16, 1]
-0.06955863 -0.17369263 -0.7666313 -0.13421834 0.012285515 0.15131122 0.23680475 -0.96882343
-0.85755 -0.18159713 0.016883004 -0.5260793 -0.025926508 -0.86710656 0.053719938 0.0006284163
00000000: c174 8ebd 7bdc 31be f341 44bf 8870 09be
00000010: 2f49 493c 54f1 1a3e f27c 723e d004 78bf
00000020: 6688 5bbf 99f4 39be 3a4e 8a3c 22ad 06bf
00000030: d463 d4bc b2fa 5dbf 7009 5c3d 4ebc 243a

continuous_emb.embedding.2.bias f4 [16]
0.46842435 1.6146338 2.4489043 1.405495 0.31492263 -0.76930153 -2.5835314 2.012681
1.9193093 1.5265628 -0.10803009 2.7806876 0.79921305 2.5535657 -1.9791032 -0.2330266
00000000: 51d5 ef3e 52ac ce3f d9ba 1c40 43e7 b33f
00000010: 8a3d a13e f2f0 44bf 9458 25c0 c4cf 0040
00000020: edab f53f 6966 c33f e13e ddbd c9f6 3140
00000030: 3a99 4c3f 9f6d 2340 4153 fdbf 869e 6ebe

continuous_emb.embedding.3.weight f4 [16, 1]
-0.06955863 -0.17369263 -0.7666313 -0.13421834 0.012285515 0.15131122 0.23680475 -0.96882343
-0.85755 -0.18159713 0.016883004 -0.5260793 -0.025926508 -0.86710656 0.053719938 0.0006284163
00000000: c174 8ebd 7bdc 31be f341 44bf 8870 09be
00000010: 2f49 493c 54f1 1a3e f27c 723e d004 78bf
00000020: 6688 5bbf 99f4 39be 3a4e 8a3c 22ad 06bf
00000030: d463 d4bc b2fa 5dbf 7009 5c3d 4ebc 243a

continuous_emb.embedding.3.bias f4 [16]
0.46842435 1.6146338 2.4489043 1.405495 0.31492263 -0.76930153 -2.5835314 2.012681
1.9193093 1.5265628 -0.10803009 2.7806876 0.79921305 2.5535657 -1.9791032 -0.2330266
00000000: 51d5 ef3e 52ac ce3f d9ba 1c40 43e7 b33f
00000010: 8a3d a13e f2f0 44bf 9458 25c0 c4cf 0040
00000020: edab f53f 6966 c33f e13e ddbd c9f6 3140
00000030: 3a99 4c3f 9f6d 2340 4153 fdbf 869e 6ebe

continuous_emb.embedding.4.weight f4 [16, 1]
-0.06955863 -0.17369263 -0.7666313 -0.13421834 0.012285515 0.15131122 0.23680475 -0.96882343
-0.85755 -0.18159713 0.016883004 -0.5260793 -0.025926508 -0.86710656 0.053719938 0.0006284163
00000000: c174 8ebd 7bdc 31be f341 44bf 8870 09be
00000010: 2f49 493c 54f1 1a3e f27c 723e d004 78bf
00000020: 6688 5bbf 99f4 39be 3a4e 8a3c 22ad 06bf
00000030: d463 d4bc b2fa 5dbf 7009 5c3d 4ebc 243a

continuous_emb.embedding.4.bias f4 [16]
0.46842435 1.6146338 2.4489043 1.405495 0.31492263 -0.76930153 -2.5835314 2.012681
1.9193093 1.5265628 -0.10803009 2.7806876 0.79921305 2.5535657 -1.9791032 -0.2330266
00000000: 51d5 ef3e 52ac ce3f d9ba 1c40 43e7 b33f
00000010: 8a3d a13e f2f0 44bf 9458 25c0 c4cf 0040
00000020: edab f53f 6966 c33f e13e ddbd c9f6 3140
00000030: 3a99 4c3f 9f6d 2340 4153 fdbf 869e 6ebe

continuous_emb.embedding.5.weight f4 [16, 1]
-0.06955863 -0.17369263 -0.7666313 -0.13421834 0.012285515 0.15131122 0.23680475 -0.96882343
-0.85755 -0.18159713 0.016883004 -0.5260793 -0.025926508 -0.86710656 0.053719938 0.0006284163
00000000: c174 8ebd 7bdc 31be f341 44bf 8870 09be
00000010: 2f49 493c 54f1 1a3e f27c 723e d004 78bf
00000020: 6688 5bbf 99f4 39be 3a4e 8a3c 22ad 06bf
00000030: d463 d4bc b2fa 5dbf 7009 5c3d 4ebc 243a

continuous_emb.embedding.5.bias f4 [16]
0.46842435 1.6146338 2.4489043 1.405495 0.31492263 -0.76930153 -2.5835314 2.012681
1.9193093 1.5265628 -0.10803009 2.7806876 0.79921305 2.5535657 -1.9791032 -0.2330266
00000000: 51d5 ef3e 52ac ce3f d9ba 1c40 43e7 b33f
00000010: 8a3d a13e f2f0 44bf 9458 25c0 c4cf 0040
00000020: edab f53f 6966 c33f e13e ddbd c9f6 3140
00000030: 3a99 4c3f 9f6d 2340 4153 fdbf 869e 6ebe

continuous_emb.embedding.6.weight f4 [16, 1]
-0.06955863 -0.17369263 -0.7666313 -0.13421834 0.012285515 0.15131122 0.23680475 -0.96882343
-0.85755 -0.18159713 0.016883004 -0.5260793 -0.025926508 -0.86710656 0.053719938 0.0006284163
00000000: c174 8ebd 7bdc 31be f341 44bf 8870 09be
00000010: 2f49 493c 54f1 1a3e f27c 723e d004 78bf
00000020: 6688 5bbf 99f4 39be 3a4e 8a3c 22ad 06bf
00000030: d463 d4bc b2fa 5dbf 7009 5c3d 4ebc 243a

continuous_emb.embedding.6.bias f4 [16]
0.46842435 1.6146338 2.4489043 1.405495 0.31492263 -0.76930153 -2.5835314 2.012681
1.9193093 1.5265628 -0.10803009 2.7806876 0.79921305 2.5535657 -1.9791032 -0.2330266
00000000: 51d5 ef3e 52ac ce3f d9ba 1c40 43e7 b33f
00000010: 8a3d a13e f2f0 44bf 9458 25c0 c4cf 0040
00000020: edab f53f 6966 c33f e13e ddbd c9f6 3140
00000030: 3a99 4c3f 9f6d 2340 4153 fdbf 869e 6ebe

static_variable_selection.grn_v.linear1.weight f4 [16, 16]
-0.2122733 0.224406 0.23567262 -0.18680301 -0.22376168 -0.07276118 -0.15370318 0.06679538
0.11128318 -0.031854033 0.17542881 0.009473413 -0.073477924 -0.2133927 0.079455316 -0.23555142
-0.0008549094 0.03654164 -0.14001206 0.07510504 0.048597693 0.16730562 0.15636188 -0.20231903
-0.1854955 -0.09175587 -0.1798499 0.07838446 -0.16379744 -0.1908687 0.07281548 0.15087956
-0.07268059 -0.24911413 0.03533286 0.12811598 0.19529289 0.023720503 0.17355725 -0.22353446
0.23916954 -0.16143396 -0.17064354 0.17941836 -0.05555299 0.15428373 -0.17510605 0.18914351
0.23709881 0.07569891 0.20167351 -0.17853156 -0.05520323 0.07609469 0.14127252 -0.13348964
0.15908363 -0.08228013 -0.13343877 0.048903227 -0.19912693 -0.22944963 0.08312604 0.08515301
0.096137226 -0.03278464 -0.18283385 -0.20083424 0.23922467 -0.21673253 0.07534826 0.20304513
0.19099388 -0.15762606 -0.08060965 -0.1998832 0.15681723 -0.23460981 -0.23014674 -0.1669003
0.20392466 0.16204682 0.16751137 0.19182181 -0.11659524 -0.13942182 -0.15358377 0.08248958
0.09724647 0.051876515 -0.19232982 0.022208154 -0.13266021 -0.049161762 -0.03870228 0.012426913
-0.21920478 0.21339968 -0.10638037 0.07811302 0.17216098 0.10074243 0.17507991 0.14117077
0.18306038 0.052764565 0.1596747 -0.108668536 -0.13471115 0.11937633 0.06559622 -0.009374946
-0.21087721 0.08169097 0.16193831 -0.028863639 0.057435185 0.111295134 -0.24689475 -0.041132122
-0.09274125 -0.1277796 0.15280208 0.24787188 0.03988999 0.15559596 -0.18547049 0.04404342
-0.032332987 -0.15419 0.05126068 0.07958138 -0.012074977 0.10616091 0.120027244 0.22676048
0.014492124 0.00890705 -0.0035782754 0.034500808 -0.16210458 -0.030772299 -0.21140811 -0.17535728
-0.21294695 0.18539986 -0.143675 -0.020175397 0.0267272 0.22080415 0.113459975 -0.17803329
0.2445189 -0.23679665 0.03250444 0.2284263 0.216813 -0.057943553 -0.1668404 0.109775186
0.19271559 -0.13327494 -0.039560348 -0.15203804 0.09547183 0.053212523 0.12392339 -0.08577451
-0.24132758 -0.10528231 -0.1955207 -0.060227394 0.09085515 -0.20798308 -0.011669546 -0.24459505
-0.17716235 -0.17503467 -0.08512133 -0.12666947 0.038481057 0.15282607 0.18850693 0.078769356
-0.0016542673 -0.044550896 0.16975069 -0.1431826 0.1807023 -0.24070302 -0.18659261 0.06631607
-0.10296744 0.04664272 0.21782508 0.11418289 0.24469224 -0.10589233 -0.11938256 -0.03174287
-0.05034995 -0.10996744 -0.015521556 0.225855 -0.13703942 0.14039573 0.11613643 0.14477947
0.06744531 -0.09235376 0.10317838 -0.117748916 -0.1534543 0.23369876 0.2072219 -0.18067583
0.20306337 0.051839978 0.06408167 0.24096662 -0.013126969 -0.07951206 0.15694392 -0.06457847
-0.06001541 -0.100813806 0.2460722 0.11929014 -0.04052776 -0.0049875975 0.017496943 -0.14819911
0.070981145 -0.1940321 -0.011656284 -0.046908736 -0.10207912 0.23122212 0.07001507 0.12043294
-0.16456398 0.03984335 0.0669938 0.12977973 -0.07376939 -0.04909402 -0.20297286 0.15194422
0.16688919 0.11727211 0.12705398 0.14973745 0.23565117 0.081872225 0.09024587 0.078633696
00000000: 2c5e 59be b0ca 653e 2a54 713e 4a49 3fbe
00000010: c821 65be d003 95bd 5e64 1dbe 04cc 883d
00000020: 70e8 e33d 6079 02bd 9ca3 333e 6036 1b3c
00000030: 987b 96bd 9e83 5abe 78b9 a23d 6434 71be
00000040: 001c 60ba b0ac 153d 525f 0fbe acd0 993d
00000050: 600e 473d 2a52 2b3e 541d 203e b82c 4fbe
00000060: 88f2 3dbe 80ea bbbd 922a 38be 0888 a03d
00000070: 84ba 27be 1673 43be 4820 953d 2c80 1a3e
00000080: 90d9 94bd c617 7fbe 30b9 103d d630 033e
00000090: dcfa 473e 8051 c23c feb8 313e 38e6 64be
000000a0: dce8 743e f24e 25be 2ebd 2ebe 72b9 373e
000000b0: 888b 63bd 8efc 1d3e 004f 33be d6ae 413e
000000c0: 08ca 723e 0808 9b3d 8083 4e3e fad0 36be
000000d0: c81c 62bd 88d7 9b3d bea9 103e 82b1 08be
000000e0: d2e6 223e 7c82 a8bd 2ca4 08be c04e 483d
000000f0: eee7 4bbe d8f4 6abe fc3d aa3d b464 ae3d
00000100: 98e3 c43d 3049 06bd cc38 3bbe 7ea7 4dbe
00000110: 50f7 743e 22ef 5dbe 3050 9a3d 10eb 4f3e
00000120: e693 433e ba68 21be ac16 a5bd 2eae 4cbe
00000130: b294 203e 8e3d 70be 96ab 6bbe eae7 2abe
00000140: a0d1 503e 9aef 253e 1a88 2b3e f06c 443e
00000150: 7cc9 eebd 98c4 0ebe 1045 1dbe 4cf0 a83d
00000160: 2829 c73d 787c 543d 1cf2 44be e0ed b53c
00000170: 14d8 07be d85d 49bd 4886 1ebd 409a 4b3c
00000180: 3877 60be 7285 5a3e f4dd d9bd b8f9 9f3d
00000190: f84a 303e 0c52 ce3d 2648 333e 128f 103e
000001a0: 2e74 3b3e a81f 583d c481 233e 9c8d debd
000001b0: b8f1 09be 947b f43d 5057 863d 6099 19bc
000001c0: 32f0 57be 984d a73d 28d3 253e 7073 ecbc
000001d0: 2841 6b3d b4ee e33d fad1 7cbe 287a 28bd
000001e0: 20ef bdbd a8d8 02be 2678 1c3e 20d2 7d3e
000001f0: b063 233d 8c54 1f3e faeb 3dbe e066 343d
00000200: 986f 04bd fce3 1dbe b8f6 513d 90fb a23d
00000210: 20d6 45bc e46a d93d d8d0 f53d e633 683e
00000220: 6070 6d3c e0ee 113c 8081 6abb b850 0d3d
00000230: befe 25be 3016 fcbc 5e7b 58be dc90 33be
00000240: c40e 5abe 76d9 3d3e 8a1f 13be e046 a5bc
00000250: 00f3 da3c 7c1a 623e b45d e83d 5c4e 36be
00000260: 2a63 7a3e d27a 72be 6023 053d 96e8 693e
00000270: 3a04 5e3e 3856 6dbd 36d8 2abe d0d1 e03d
00000280: 3c57 453e 3a79 08be 080a 22bd dcaf 1bbe
00000290: bc86 c33d 60f5 593d 8ccb fd3d 8caa afbd
000002a0: 941e 77be 409e d7bd 9436 48be 00b1 76bd
000002b0: 4412 ba3d 84f9 54be a031 3fbc 2077 7abe
000002c0: 0c6a 35be 4a3c 33be 1854 aebd a4b5 01be
000002d0: 509e 1d3d 707e 1c3e f607 413e d451 a13d
000002e0: 00d4 d8ba 007b 36bd 20d3 2d3e 769e 12be
000002f0: 060a 393e da7a 76be 2212 3fbe b8d0 873d
00000300: 98e0 d2bd 700c 3f3d 8a0d 5f3e b8d8 e93d
00000310: 9a90 7a3e 14de d8bd d87e f4bd d004 02bd
00000320: c03b 4ebd 9c36 e1bd 204e 7ebc 8846 673e
00000330: 1054 0cbe e6c3 0f3e f0d8 ed3d 1241 143e
00000340: c420 8a3d f823 bdbd 304f d33d 5826 f1bd
00000350: 2023 1dbe ba4e 6f3e fa31 543e 1603 39be
00000360: d8ef 4f3e 2856 543d 403d 833d f4bf 763e
00000370: 8012 57bc 38d7 a2bd e8b5 203e b841 84bd
00000380: b8d2 75bd 7877 cebd 5afa 7b3e 644e f43d
00000390: 7000 26bd 006f a3bb c055 8f3c 82c1 17be
000003a0: 905e 913d 5ab0 46be 00fa 3ebc 6023 40bd
000003b0: dc0e d1bd 7ec5 6c3e 1064 8f3d 8ca5 f63d
000003c0: 7683 28be c832 233d 0c34 893d fae4 043e
000003d0: 6814 97bd d016 49bd 1ed8 4fbe 4497 1b3e
000003e0: 00e5 2a3e 5c2c f03d 701a 023e c654 193e
000003f0: 8a4e 713e a0ac a73d d4d2 b83d b40a a13d

static_variable_selection.grn_v.linear1.bias f4 [16]
-0.14118019 0.06272444 0.075322956 -0.1989882 -0.073988974 -0.15424863 -0.15973976 0.17373538
0.19667158 -0.034463286 0.07662669 -0.058551103 0.053004593 -0.04185173 -0.13005361 -0.10518393
00000000: 8a91 10be ac75 803d ec42 9a3d 90c3 4bbe
00000010: 8887 97bd 5af3 1dbe d292 23be b0e7 313e
00000020: 4664 493e 6029 0dbd 74ee 9c3d 48d3 6fbd
00000030: 581b 593d b86c 2bbd c62c 05be ac6a d7bd
