TFT_power/best_model/best6.pth (torch, 234810 bytes, 340 tensors)

static_cate_emb.embedding.0.weight f4 [101, 16]
000000 29 a5 f6 3f 53 5f be 3f 67 95 66 3f db c0 06 c0
       1.9269153 1.4872841 0.9007172 -2.105521
000010 d5 ac 2d 3f 91 05 9e bf 86 67 30 bd ba 65 cd bf
       0.67841846 -1.2345449 -0.043067478 -1.604667
000020 f0 8b 40 bf 5b 09 d3 3f f6 f2 c8 be 66 a9 b3 bf
       -0.7521353 1.648723 -0.39247864 -1.4036071
000030 6e 56 3a bf d1 36 0f bf a0 d2 44 bf 9f 2f 43 3f
       -0.7278813 -0.5594302 -0.7688389 0.7624454
000040 de f3 4e 3f 51 1e 32 3c 6e f5 70 bf 13 79 c2 3e
       0.8084086 0.010871486 -0.94124496 0.37982997
000050 47 e0 b9 be 60 4e 80 3f b4 ff 9e bf be c4 81 3f
       -0.36303923 1.0023918 -1.2421784 1.0138166
000060 40 fe a3 3c 81 42 06 40 43 5f 34 3f 75 74 ac 3f
       0.020018697 2.097809 0.7045786 1.347304
000070 b3 b6 05 bf 4d 0b 2e bf 15 92 92 be c0 d4 59 3e
       -0.522319 -0.67985994 -0.28627077 0.21272564
000080 91 d7 70 bf 91 2c 1a bf 22 b7 18 3f e0 3f 4c 3f
       -0.9407893 -0.6022425 0.5965444 0.79784966
000090 56 55 c9 bd 77 20 e1 be c4 78 85 3f b5 71 4f 3f
       -0.0983073 -0.4397008 1.042748 0.8103288
0000a0 07 25 03 c0 95 2f 97 3f a0 64 c3 bf 15 c3 fb 3e
       -2.049135 1.1811396 -1.5265083 0.49172273
0000b0 82 04 be bf 9d 0c 15 40 a1 b3 c1 bf ac 34 cf be
       -1.4845126 2.3288949 -1.5132943 -0.40469873
0000c0 b7 1a 8e 3d 6f 07 5d bf 97 1e 86 be 78 6f c1 3f
       0.06938689 -0.8633947 -0.26195213 1.5112143
0000d0 29 7f 48 3f fb 22 53 3f e1 81 df bd b3 ff 8b bf
       0.7831903 0.8247525 -0.10913444 -1.0937408
0000e0 c4 24 1a c0 4d f6 4d 3f 72 4b 24 bf a4 d0 04 bf
       -2.408494 0.8045395 -0.6417762 -0.5188086
0000f0 65 51 62 bf 56 df 9e 3f 13 0a 9b be 1a 6e 6a be
       -0.8840545 1.2411907 -0.30281124 -0.22893563
000100 a2 7a b6 3f 77 85 40 3f 50 f5 ac be 66 3d aa 3f
       1.4256175 0.7520365 -0.3378091 1.3299987
000110 44 f9 10 be 0a b7 5d bc 2b 5a 94 bf 63 8a 02 3f
       -0.14157587 -0.013532409 -1.1590017 0.5099241
000120 46 c7 67 bf de 2b ac 3f e8 b0 7c be 4e 8b 17 40
       -0.9053844 1.3450887 -0.2467686 2.3678775
000130 fb 8d 09 3f 0c 27 10 c0 77 25 b9 3e b8 5c 84 be
       0.5373227 -2.2523832 0.36161396 -0.2585199
000140 d8 f7 2c be 63 95 81 bf 6c 85 69 bf 43 47 b9 be
       -0.1689142 -1.0123714 -0.9121921 -0.3618718
000150 c0 49 32 3f a9 99 14 3f e2 c7 b9 3f 8a a0 56 3f
       0.69643784 0.58046967 1.4514124 0.83838713
000160 3c 5f 01 be b7 a9 21 be 72 39 0a c0 99 95 f2 3e
       -0.12633985 -0.15787397 -2.1597562 0.4737976
000170 49 27 ec bf 26 fe bb be 46 fa c8 3e 26 b2 0d 3f
       -1.8449489 -0.36717337 0.39253443 0.5534996
000180 c0 a2 50 c0 63 6c 60 3f 25 05 a1 3f 27 51 a1 3e
       -3.2599335 0.87665385 1.2579695 0.31507227
000190 ec b6 1d 3f 33 91 a9 3e 6f e3 81 be dc 27 24 bf
       0.6160724 0.3311859 -0.2536883 -0.6412332
0001a0 2d ff 1a 3f 61 22 6e 3f e5 64 94 3e 23 f5 d6 3e
       0.6054562 0.9302121 0.28983226 0.419839
0001b0 12 09 ed 3e 23 7b 48 3e c3 38 0f 3f ae 2e 6a 3d
       0.46295983 0.19578223 0.55945987 0.057173423
0001c0 86 c0 87 bf 2b 7a 9c be 4d cc ad be 32 d6 20 3d
       -1.0605628 -0.30561957 -0.33944932 0.039266773
0001d0 81 6a 2d 3e 25 25 0c bf 91 00 a5 3e 25 98 4e 3f
       0.1693516 -0.5474418 0.32226995 0.80700904
0001e0 6c 3f 63 3e fb 09 93 3f 49 bd d0 be 1d 7d b0 be
       0.22192162 1.1487421 -0.40769413 -0.34470454
0001f0 ef 88 bf 3f a8 25 37 bf 72 c7 59 3f 6f 11 fc 3e
       1.4963664 -0.71541834 0.85069954 0.4923205
000200 9e 9a 1d 40 d7 7a bf 3c 65 42 a9 bf 85 b4 2c bd
       2.462562 0.023374004 -1.3223387 -0.042164344
000210 45 80 17 bf 54 09 a0 3f e8 3d ac 3f 4c 64 e6 3f
       -0.591801 1.2502847 1.3456392 1.7999358
000220 2d ee 90 3f ba b5 0e 3c 1c 00 02 c0 2c e7 81 be
       1.1322685 0.008710319 -2.0312567 -0.25371683
000230 31 32 9b bf 19 9d 26 be 45 7e d1 be f5 ee f1 3d
       -1.2124692 -0.16270865 -0.40916649 0.118131556
000240 e7 93 37 c0 27 73 a3 3f 85 cf f3 3f f6 24 a6 3f
       -2.8684022 1.2769517 1.9047705 1.298003
000250 73 d0 75 bf 41 78 d9 be b1 10 a4 bf 7c ac a0 3f
       -0.96021193 -0.4247456 -1.2817594 1.2552638
000260 cd e8 3b 3f 6b 47 18 3f 8d 7d 4c 3f 4b 48 9e 3e
       0.734021 0.59483975 0.79879075 0.3091453
000270 02 55 91 bf 77 27 d0 bf 1d 46 72 be fd f7 4e 3e
       -1.1354067 -1.6262044 -0.23659559 0.20211788
000280 09 9d 32 bf e9 7a 82 bf 4d ad a3 3d 14 28 cf 3e
       -0.69770867 -1.0193759 0.07992039 0.40460265
000290 d5 bc 85 3e 55 4b c6 bf e0 75 b8 3f 66 39 22 bf
       0.2612063 -1.549174 1.4410973 -0.63368833
0002a0 75 1c 28 3f 96 bb 78 3e 1d e5 ea be dc f5 5f bd
       0.6566842 0.24290308 -0.45877925 -0.05467783
0002b0 d5 d2 20 bf c8 f2 78 c0 e1 0d 84 3f bf a3 ce bd
       -0.62821704 -3.8898182 1.0316736 -0.10089826
0002c0 1c f6 8a 3f c8 a5 17 be 5d 15 8f bf 26 b5 04 40
       1.0856357 -0.14809334 -1.1178395 2.0735564
0002d0 50 94 3b be 67 7c af bf f7 ee a2 be 30 62 2d 3e
       -0.18318295 -1.370984 -0.3182294 0.16931987
0002e0 90 e0 39 bf 12 5f c7 3e e8 ed 0e c0 3f c2 ee 3f
       -0.7260828 0.3893972 -2.2332706 1.8653029
0002f0 c7 f9 4b be 0e 61 c4 bf 5f 6f 4e 3f 19 f9 01 3e
       -0.19919501 -1.5342119 0.8063869 0.1269268
000300 06 5d da 3f 51 5c b6 bf 19 d8 a7 3e 80 6e 9b be
       1.7059639 -1.4246923 0.32782057 -0.30357742
000310 6c 2e 70 bf 4d ca 5e 3e 0a 8f 9b 3f c0 93 fd 3f
       -0.93820834 0.21756859 1.2153027 1.9810715
000320 f2 76 6b 3e 9b 23 03 40 aa 69 65 bf 76 4c 8e bf
       0.22994593 2.0490482 -0.89614356 -1.1117084
000330 03 fb c2 3e 2b fc 40 be bb 92 ac 3f 27 c4 20 be
       0.38082132 -0.18846194 1.3482279 -0.15699826
000340 06 01 d6 3e be 52 b4 bf cf 4c 17 3f 08 33 29 3e
       0.41797656 -1.4087751 0.59101576 0.16523373
000350 67 d2 33 3f ab c9 3d bf ed cb 18 3f 1b 08 c9 bf
       0.70242923 -0.74135846 0.59686166 -1.5705599
000360 76 32 8a 3f e2 65 c3 bb af 2c 73 3d 78 57 18 bf
       1.079665 -0.005963073 0.059368785 -0.59508467
000370 ee f3 21 bf f4 fe 4c c0 29 25 1b 40 66 25 85 be
       -0.6326283 -3.203061 2.424143 -0.26005095
000380 d0 94 64 be 28 dc 93 3f c2 e9 fc 3e ae 4f 1f bf
       -0.22322392 1.1551561 0.49397093 -0.62230957
000390 c7 f5 2c bf 3b ce 5d bf 1f 22 cb 3e ea 17 96 3f
       -0.67562526 -0.8664281 0.3967447 1.1726048
0003a0 e4 61 ec 3f be 0f e3 bf 06 15 9c bf cc c3 af bf
       1.8467374 -1.7739179 -1.2193916 -1.3731627
0003b0 7f 7c d6 3e 7f 88 8a bf 1f 50 48 3f c6 a4 2f 3e
       0.41891858 -1.0822905 0.78247255 0.171527
0003c0 3d c3 f3 be c2 cc 18 3f a4 9a 08 bf e5 36 89 3f
       -0.47609892 0.59687436 -0.5336096 1.0719877
0003d0 39 e9 02 bf e5 02 88 bf 26 a1 96 3f 13 13 9e 3e
       -0.5113712 -1.0625883 1.1767929 0.30873927
0003e0 c8 8a 33 40 22 d0 27 be a5 64 04 3f 61 ab 90 bf
       2.8053455 -0.1638799 0.5171607 -1.1302301
0003f0 f2 ae 5a be 50 a6 59 bf 32 6c 2f 3f 5f 71 08 be
       -0.21355799 -0.850194 0.6852447 -0.13324498

future_emb.embedding.0.weight f4 [32, 16]
000000 c5 f9 62 3f d9 73 5c bf 7f 98 8b be e1 fc 7a 3f
       0.8866237 -0.8611427 -0.27264783 0.9804211
000010 95 8a 33 be 68 6e fb bd d8 cc 3d 3f 2f 39 b5 3e
       -0.17533334 -0.12276918 0.7414069 0.3539519
000020 39 da 08 bf cd 36 25 3f db 4c 3f c0 cc 1d 3c 3e
       -0.5345798 0.64536744 -2.989066 0.18370742
000030 74 05 f2 be 88 75 75 bf c9 94 c1 bf 9f dd c0 3f
       -0.47269785 -0.95882463 -1.5123531 1.5067633
000040 0b dc 5c be 24 a9 f3 bc 05 15 6b 3e 03 4a 72 bf
       -0.21568315 -0.029743738 0.22957237 -0.9464418
000050 10 76 47 be d8 1a 59 3f 35 80 5a 3f a7 54 dd 3f
       -0.19478631 0.84806585 0.8535188 1.7291459
000060 a1 2c 51 be 25 84 88 bf 93 a9 5e 3f 2b 64 a7 be
       -0.20427181 -1.0665327 0.869775 -0.3269361
000070 56 f1 6a bf 16 27 8e 3f bb 13 1a bf 9a df 43 3f
       -0.917745 1.1105678 -0.60186356 0.76513064
000080 bb 4c 63 3e 59 e9 bc 3e bf 0b 77 be ca 79 d8 be
       0.22197239 0.3689678 -0.24125575 -0.42280418
000090 29 0f e3 bf f7 34 26 bf ed b6 34 3f 83 37 0a 3f
       -1.7739002 -0.6492457 0.7059162 0.53990954
0000a0 58 7f 61 bf ba 71 b9 be 99 e7 dd bf 37 06 e6 3e
       -0.88084936 -0.3621958 -1.7336303 0.44926617
0000b0 59 e3 7e be 6f f3 87 3e 65 8a 8d bf 18 8c c6 bc
       -0.24891414 0.26552913 -1.105786 -0.024236724
0000c0 43 fa bc 3e 35 9d 80 bc 8b 50 4d 3f 55 48 99 3f
       0.36909685 -0.015699962 0.80201024 1.1975199
0000d0 41 04 7b bf 17 d2 af bc 9d 35 7d 3f 59 2e 8d bf
       -0.98053366 -0.021462483 0.9890993 -1.1029769
0000e0 a2 05 09 3d 74 6f ab bf 25 d2 e9 be 7d 26 d2 bf
       0.033452637 -1.3393388 -0.4566814 -1.6417996
0000f0 fa f1 67 bf f2 d0 a1 3e c8 95 76 3d 97 31 9d 3f
       -0.906036 0.31604725 0.060201436 1.2280759
000100 24 e8 a1 3f a0 7a e1 bd f5 f7 b5 bd 5a ea 6d bf
       1.2648969 -0.11009717 -0.08885185 -0.9293572
000110 64 05 f3 3e 4e e2 c6 3f 2b 77 14 bf ca 8b 15 3f
       0.4746505 1.5537813 -0.57994336 0.58416426
000120 2d da c0 3d 9b 7f 1d bf 11 20 dc 3f 57 b6 d0 3f
       0.09416614 -0.61522835 1.7197286 1.6305646
000130 d7 99 1f be 37 63 c2 be 49 85 01 bf a3 aa 2c 3f
       -0.15586029 -0.3796632 -0.50594 0.6744787
000140 a7 15 06 bf 6c d9 6c 3f 92 b4 1c 3f 18 62 67 be
       -0.5237679 0.9251926 0.6121303 -0.22596014
000150 8f 3f 8f be ff 78 a4 3f b5 3a a6 3e 71 49 e7 3f
       -0.2797818 1.2849425 0.32466665 1.8069288
000160 e2 df fc bf 03 a2 e0 bf b2 fd f3 3e a2 af 30 3e
       -1.9755824 -1.7549442 0.47654492 0.17254499
000170 86 5c fb 3e 3e 2f 90 be 2c d0 27 c0 35 18 30 bf
       0.49094027 -0.28161043 -2.6220808 -0.68786937
000180 90 e1 9c bf 47 38 df 3e dd c1 e0 3f 57 bb 02 40
       -1.2256336 0.43597624 1.7559162 2.0426843
000190 c1 15 86 be 3b bc 58 3f 07 6e 82 3f 67 8a 49 3f
       -0.26188472 0.84662217 1.0189828 0.7872681
0001a0 d2 82 0b bd a5 41 a5 bf e1 5c da 3f a2 a0 9c 3e
       -0.034060307 -1.2910658 1.7059594 0.30591303
0001b0 44 fe 19 3d c2 30 1d be 58 b8 a5 bf 30 9a 55 3f
       0.037596002 -0.15350631 -1.2946882 0.83438396
0001c0 12 6e 55 3f 03 29 40 3f 0f 5c be be cc 18 42 3e
       0.8337108 0.7506258 -0.3717961 0.18954772
0001d0 1d d6 02 c0 9e 0f 65 3f 79 3f d1 bc 44 bb a3 be
       -2.0443184 0.89476955 -0.025542961 -0.3197881
0001e0 5d b2 a2 bf 69 4d 32 3e 3f 88 0e 3f 1e 19 74 bf
       -1.2710682 0.17412342 0.55676645 -0.95350826
0001f0 1d 6c 21 c0 9d b6 81 be 65 8f 69 3f e5 db 31 bf
       -2.5222237 -0.25334635 0.9123443 -0.6947616
000200 22 a6 61 bd 36 0f f2 3d fd 62 c4 bd 23 1e 18 c0
       -0.055090077 0.118193075 -0.09589193 -2.3768394
000210 f4 82 d5 3f e5 e0 28 3f 0d 9d 00 40 5b b5 b7 3f
       1.6680589 0.6596816 2.0095856 1.435222
000220 79 d9 a5 3f cd 65 52 3e 2d f9 e4 bf c2 c8 0a 40
       1.2956992 0.20546646 -1.7888542 2.1685033
000230 93 c6 be be 24 25 ce 3f d9 a8 93 bf f8 9b f2 be
       -0.37260875 1.6105084 -1.1535903 -0.4738462
000240 78 73 fc be db dc 40 3e 30 2e 0b be a3 b3 61 3b
       -0.49306846 0.1883425 -0.13591838 0.0034439347
000250 34 9b d9 3e 89 c4 12 bf 30 be e4 3f 63 8c ff bf
       0.42501223 -0.5733114 1.7870541 -1.9964718
000260 8a b9 f9 be 17 c7 25 bf 41 55 8d 3d d2 b5 88 3f
       -0.48774368 -0.6475691 0.069010265 1.0680487
000270 17 4a ef 3d 5e 7a 11 3e 7c 33 60 bf 79 be 2d be
       0.116840534 0.14206836 -0.8757856 -0.16967191
000280 39 47 06 c0 b4 52 67 be 1f e8 8b bf 20 a4 0e 3f
       -2.098097 -0.22590142 -1.0930213 0.55719185
000290 6d 7d 04 40 7b 6b 8d 3f 3b b2 a9 3d 5a a2 8d 3f
       2.0701554 1.1048425 0.08285948 1.1065171
0002a0 4e d1 02 3f 43 7d ed 3e ce a5 66 bf 3c fa 47 be
       0.51100624 0.4638463 -0.9009675 -0.1952905
0002b0 e8 96 01 3c c0 4b 2c 3f 5a b9 89 bf 8a 0a 3e 3f
       0.007909514 0.67303085 -1.075969 0.7423483
0002c0 88 59 dc be 38 57 fe 3f f5 c4 b9 3e d6 d1 b8 be
       -0.43037057 1.9870367 0.3628308 -0.36097592
0002d0 63 08 2b 3c 40 80 bf be b3 f4 fd 3e 10 3e 8d be
       0.010439011 -0.37402534 0.49600753 -0.27586412
0002e0 13 09 6e bf 63 71 0c 40 a5 6e fe be e2 4c 83 be
       -0.92982596 2.1944206 -0.4969379 -0.25644594
0002f0 6b d3 d3 3e 1b d7 20 3f 8e f5 18 3f 69 a9 78 bf
       0.41372237 0.62828225 0.59749687 -0.971335
000300 41 b1 fa bf 6b 9a 61 3f 4e ed b1 3e 0f f1 9e 3e
       -1.9585344 0.8812625 0.34751362 0.31043288
000310 ea 05 9e 3f 2b 51 99 3e c7 10 5c bf 70 be b8 bf
       1.2345555 0.2994474 -0.859631 -1.4433117
000320 61 76 8b 3f b5 8c 9e 3e 1c 31 92 3f b3 67 4d 3e
       1.0895501 0.30966726 1.1421237 0.2005909
000330 7e 5a 8a 3e fb 40 c2 bf 73 2b 7e bd 7b 4a 90 bf
       0.27022165 -1.517608 -0.062053155 -1.127273
000340 36 e6 03 bf a7 b4 d2 3c 26 b0 86 3e 6e 53 4f bf
       -0.5152315 0.025720907 0.26306266 -0.8098668
000350 00 dc 91 be 05 59 93 bf 02 14 6e 3f 92 74 6b 3b
       -0.2848816 -1.1511542 0.9299928 0.0035927636
000360 40 b1 7d 3f 05 f4 aa 3f 10 e4 e4 bf 1c ec 20 bc
       0.9909859 1.3355719 -1.7882099 -0.009821918
000370 89 0a d1 3e 98 94 d0 bf 32 db a2 bf 9b d6 40 3f
       0.4082835 -1.6295347 -1.2723143 0.7532746
000380 82 3e a5 3f 91 76 1a 3f b2 e4 9a 3c 70 f0 88 3e
       1.2909701 0.6033717 0.018907879 0.2674594
000390 03 c5 4c be cf 2a 40 3f 18 0a d7 bf e4 94 9f 3f
       -0.19997029 0.7506532 -1.6799955 1.2467313
0003a0 c7 38 42 bf 99 fa e3 3f 3a fb ce bf b0 fd 44 3f
       -0.75867885 1.7810851 -1.6170418 0.76949596
0003b0 26 2c cf bc 63 63 c4 bf 90 b4 8d bf 26 4c a6 bf
       -0.025289606 -1.534283 -1.1070728 -1.2991989
0003c0 84 06 70 3f 5f 45 c1 be 25 9f 11 bf 6e f2 4b bf
       0.9375994 -0.37748238 -0.5688346 -0.79666793
0003d0 30 16 01 3f 01 a6 33 3e c3 53 18 bf 3d cd c3 3f
       0.5042448 0.17543794 -0.5950281 1.5297009
0003e0 a0 f2 14 c0 44 38 c7 3f bc 1e 06 3e dc 1e 71 be
       -2.3273087 1.5564046 0.13097662 -0.23546928
0003f0 fa 89 df 3e 4f 47 58 bf 58 c5 be bf 58 b3 3c c0
       0.43659955 -0.8448381 -1.4903975 -2.9484463

future_emb.embedding.1.weight f4 [7, 16]
000000 8b 90 37 3f 3d 41 c6 3f 09 37 be bf a7 35 1c bf
       0.7170493 1.5488659 -1.4860545 -0.61019367
000010 9d b6 9e 3e fd a8 74 3f b6 18 83 3d fc ea 26 3f
       0.30998698 0.95570356 0.064011976 0.6520231
000020 a4 ee 02 c0 45 cd 9e 3d 73 d5 f8 bd 15 64 b3 3e
       -2.0458155 0.07753996 -0.12150087 0.35037294
000030 28 c5 1f bf 52 7f e9 3f ab b2 2c bf 65 cc ab bf
       -0.6241021 1.824198 -0.67460126 -1.3421751
000040 3a 2b 91 bf 8b 47 0a 3e 75 75 7e 3f b3 cd 28 bf
       -1.1341317 0.13503854 0.99397975 -0.6593887
000050 35 e6 fb 3f dd 75 ca 3f 5d 25 23 3e 61 7f 98 3e
       1.9679629 1.5817219 0.15932222 0.29784682
000060 17 90 99 3e d0 11 26 40 42 4b 89 3d 70 11 9e be
       0.29992744 2.5948372 0.067038074 -0.3087268
000070 45 f2 a6 bf 6a 94 03 be 68 b5 e0 bd 0b 31 43 3e
       -1.3042685 -0.12849584 -0.109721005 0.19061677
000080 11 96 70 bf a0 9f 50 bf 41 5e fa 3d 10 b5 87 bf
       -0.93978983 -0.8149357 0.12225009 -1.0602131
000090 95 c1 13 40 ca b6 11 3f 42 87 bf be 4d 0a 66 bf
       2.3086903 0.5691954 -0.3740788 -0.8985947
0000a0 25 22 2d bf fd 6a a5 3b 55 41 b0 bf db 85 25 3f
       -0.67630225 0.0050481544 -1.3769938 0.6465737
0000b0 a0 c7 45 3f 7a 73 87 3f 93 3d 94 bf f1 39 60 3f
       0.7725773 1.0582116 -1.1581291 0.8758841
0000c0 5d 1d 98 bf bf 6c 9c bf d4 2e 6f 3e 01 25 10 3f
       -1.1883961 -1.2220687 0.23357707 0.56306463
0000d0 c1 bf 7f 3f 16 ee b1 3f 26 52 cc 3d 43 70 8c 3e
       0.9990197 1.3900783 0.09976606 0.274294
0000e0 88 fe a3 bf cc 95 48 bf b4 30 8b 3f b2 aa c9 bf
       -1.2812052 -0.7835357 1.0874238 -1.5755217
0000f0 c5 07 31 3f 47 2c ff 3e ef a1 1b be dd bc a8 be
       0.6915248 0.49838468 -0.15198492 -0.3295659
000100 66 a4 b8 be 56 71 97 be 46 a9 aa 3f 73 ab c7 be
       -0.36062926 -0.29578656 1.3332908 -0.38997993
000110 10 16 87 3f 8f 7b ff bc 7b 0d 75 bf 78 23 2f 40
       1.0553608 -0.031186847 -0.95723695 2.7365398
000120 b3 a6 8a bf c0 4a ee 3e 17 ca 51 3f 6d 5a c3 be
       -1.0832123 0.46541405 0.8194899 -0.38154927
000130 87 3b bd 3f 75 90 8d bf 10 42 92 be 31 e4 ec bf
       1.4783791 -1.105971 -0.28566027 -1.8507138
000140 8e d8 0a 3f 31 2b 64 3f e5 1c a5 bf e6 cc 98 3e
       0.54236686 0.89128405 -1.2899443 0.29843825
000150 f2 64 8f 3f 5d 71 bf bf fa f1 1d bf 11 86 09 c0
       1.1202681 -1.4956471 -0.6169735 -2.1488078
000160 48 f7 b3 3f f5 f5 58 3f 91 eb e7 3e a9 eb 88 bf
       1.4059839 0.847503 0.4529691 -1.0696918
000170 7b c1 1c bf 4d d6 d0 bf 9b bc a0 3d 68 35 1b bc
       -0.6123273 -1.63154 0.07848474 -0.009473182
000180 7c 51 3b be cf 89 8a 3f 89 21 a2 bf bb b5 f7 3f
       -0.18292803 1.0823306 -1.2666484 1.9352335
000190 de 89 57 3f 21 43 70 3e 19 88 14 3f 20 33 4c be
       0.84194744 0.23463108 0.5802017 -0.19941378
0001a0 30 cf 21 3f fb 4e 02 3d 6c e5 46 bf 63 a3 d5 3f
       0.6320677 0.031813603 -0.7769382 1.6690487
0001b0 a5 62 f2 be e4 04 e2 be 5a 08 b2 3f a7 00 37 3e
       -0.47340885 -0.44144356 1.3908799 0.17871343

future_emb.embedding.2.weight f4 [24, 16]
000000 53 63 b0 3f b4 ab ea bf c8 bf ce 3f c9 39 1c 3f
       1.3780311 -1.833365 1.6152277 0.61025673
000010 74 c0 a8 bf 00 6f e3 3e 99 63 48 bf 33 cf 4a bf
       -1.3183732 0.44420624 -0.78276974 -0.7922241
000020 8d f6 d8 be 7f 71 bd 3f 44 b3 85 3e fc aa 70 3c
       -0.42375603 1.4800261 0.2611333 0.014689203
000030 e1 19 2a 40 e0 88 e0 3d 9e a1 0f 3e 08 3e f0 bf
       2.6578295 0.10963607 0.14026496 -1.876893
000040 15 d1 d1 3f 26 29 ec bf 2a d1 b3 3f 4e 43 6c 3f
       1.6391932 -1.8450058 1.4048207 0.922902
000050 3d 31 87 bf 2a c2 31 3f 8c 57 35 bf 98 35 a2 3d
       -1.0561901 0.69436896 -0.7083671 0.079203784
000060 61 7e ef bd e5 91 1d 40 36 f5 09 3f d5 fe d0 bd
       -0.11694027 2.4620297 0.5388979 -0.10204855
000070 fa 40 0d 40 5c bb 13 bf 14 01 de be 70 c0 e5 bf
       2.2070909 -0.5770776 -0.43360198 -1.7949352
000080 c3 e6 d9 3f 34 e4 0d bf fb e6 4d 3f 00 fa 7e 3f
       1.7023548 -0.55426335 0.80430573 0.9960022
000090 01 ec 1d bf 1a d0 ec 3e e0 e9 cc bd 31 2d aa bd
       -0.6168824 0.4625252 -0.100055456 -0.08309401
0000a0 ea ed 6a 3f 07 b6 58 40 31 5e 8b 3e a4 ca 04 be
       0.9176928 3.38611 0.272203 -0.12967926
0000b0 5b 26 92 3f 3d d4 97 3e 1c 8b 9a bf e9 e5 a3 bf
       1.1417955 0.29654112 -1.2073703 -1.2804538
0000c0 4e 3b 2a 3f 47 e0 a0 bd f3 68 22 3f c0 c7 ef 3f
       0.6649674 -0.078552775 0.6344139 1.8732834
0000d0 1b 34 1e bf 0e 97 1a bd e0 46 ac bf 39 5c 05 3f
       -0.61798257 -0.037741713 -1.3459129 0.52093846
0000e0 7b 2f 23 be cc 39 77 40 f5 95 5e 3e 7d 66 8e bd
       -0.15936081 3.8629026 0.21736892 -0.06953142
0000f0 79 ea c9 3f a4 b5 56 3f 90 f9 78 3f c5 6c ae bf
       1.577468 0.8387091 0.972558 -1.3626944
000100 4c 75 22 bf df 92 d6 bd 49 eb 91 be 6a 00 c2 3f
       -0.6346023 -0.10477232 -0.2849982 1.5156376
000110 e6 4b 00 bf c0 7e ce 3e 34 bf 1e c0 4c c7 b4 3e
       -0.5011581 0.40331078 -2.48042 0.353083
000120 26 8b 6b be de 1c 98 3f 33 0e 73 3c cb ce ca be
       -0.230023 1.188381 0.014834928 -0.39610896
000130 d4 bd 0c 40 a3 be 1f 40 41 cd e2 3f 25 af 1e c0
       2.1990862 2.4960105 1.7718889 -2.47944
000140 b0 7a b5 3f e8 8a 76 3d 80 20 92 c0 b6 00 81 bf
       1.4178066 0.060191065 -4.5664673 -1.0078342
000150 06 54 ae 3f 68 4b 3b 3e b3 a3 9f 3f 52 38 e9 3e
       1.3619392 0.18290484 1.2471832 0.4555078
000160 7a 04 23 3f af 25 c4 3f 49 1e 20 40 38 07 0f 40
       0.63678706 1.5324 2.5018485 2.2348156
000170 9e 06 ae 3f 76 41 15 3f ad fb 80 3f ef 05 af bf
       1.359577 0.5830301 1.0076805 -1.3673686
000180 2b 0a 83 3e 0d d1 84 3c 7a 94 d1 bf d7 1c fb bf
       0.25593695 0.016212964 -1.6373436 -1.9618176
000190 d8 23 3e 3c 3f df 76 bf c0 42 8a be de 95 14 3f
       0.0116052255 -0.96434397 -0.2700405 0.5804118
0001a0 f8 5f cd bf d6 66 bc bf 7d 67 9e 3f 49 9c 01 3f
       -1.6044912 -1.4718883 1.2375332 0.506291
0001b0 86 d3 e0 3f be b4 59 3f ac db a7 3f d0 7f b2 3e
       1.7564552 0.85041416 1.3113914 0.34863138
0001c0 5c bf b5 bf c8 99 b6 3f 3d 18 4d bf d8 cc 16 c0
       -1.4199023 1.426568 -0.8011511 -2.3562527
0001d0 8b 2c 96 3f 91 49 28 3f 34 60 be bf 63 7f 41 40
       1.1732343 0.65737253 -1.4873109 3.0234
0001e0 47 f8 f4 3e 20 55 b3 be 7f 46 b5 3e f9 f4 b2 be
       0.4784567 -0.35025883 0.35405347 -0.34952524
0001f0 1b 8c 4a bf 86 68 ed bf 7c 0d d7 be 6d b1 a5 3f
       -0.79120034 -1.8547523 -0.42002475 1.2944771
000200 5c 26 fe 3e 1a 54 0d bf 61 51 b3 3c 29 b7 89 bf
       0.4963864 -0.55206454 0.02188939 -1.0759021
000210 a5 77 c1 3d fd 92 0b bf 2e dd 64 be 95 cc 31 3f
       0.094466485 -0.5452116 -0.22349998 0.6945279
000220 89 ed 48 3f bc f0 ec bf bb 49 03 40 7c dc 11 3f
       0.7848745 -1.8510966 2.0513752 0.5697706
000230 12 c3 6b 3f 78 e2 c8 3d 12 8c 8c 3d 5b 22 cf 3f
       0.9209453 0.098088205 0.06862654 1.618236
000240 e1 21 43 3f ad dd 0a 40 25 e4 01 40 52 e1 42 bf
       0.7622357 2.16978 2.0295498 -0.7612506
000250 6d 45 69 3f fb d2 98 be f0 59 94 be a7 76 eb 3e
       0.9112156 -0.29848465 -0.28974867 0.45988962
000260 16 ea ae 3f fd 03 63 bd d5 ed 1f 3f 79 1b e8 bd
       1.3665187 -0.055423725 0.6247228 -0.11333365
000270 9e 4d f7 be 33 8a 19 be 9f 79 9e 3f de 0a 89 3e
       -0.48301405 -0.14994125 1.2380866 0.26766104
000280 be b1 ae 3e 6e ee 29 3e b1 fc 9d 3f 46 11 68 bf
       0.34119982 0.1659486 1.234274 -0.9065136
000290 48 88 0c 3f a4 c8 8a be e2 10 86 be be e5 76 be
       0.5489545 -0.27106202 -0.26184756 -0.24111077
0002a0 9b 5c 38 3e a2 01 2c bf d3 8e 65 3f 70 6d eb bf
       0.18004076 -0.6718999 0.8967106 -1.8392773
0002b0 8e 9e 08 bf 96 bb 58 3e 0f 8b 7a 3f be af 37 bf
       -0.53366935 0.21165308 0.97868437 -0.71752536
0002c0 f2 ba 3c 3f d3 aa a9 3f 3a 94 db 3e 06 1c 4f bf
       0.73722756 1.3255256 0.42886525 -0.80902135
0002d0 d5 ee 26 bf 58 86 0c bf 50 b8 8d bf 9f fe fe 3e
       -0.6520818 -0.5489249 -1.1071873 0.49803635
0002e0 19 6c 21 3d 4d a0 aa bf bf a1 f8 be a6 9b a1 be
       0.03940973 -1.333017 -0.48560902 -0.31564063
0002f0 d9 24 34 bf a8 04 24 3e c1 db 17 3e 3f cc f0 3e
       -0.70368725 0.16017401 0.14829923 0.47030827
000300 99 3c 28 bf cb a2 31 bf c7 92 99 3e 85 ed dd 3f
       -0.65717465 -0.6938903 0.29994795 1.733811
000310 d1 ca 32 bf 58 04 f3 3e 3a 8c f7 bf fb 02 f1 3e
       -0.69840723 0.47464252 -1.9339669 0.47072586
000320 e1 63 21 be 1d e5 af bf cd 90 3c 3e b1 94 d1 3b
       -0.15760757 -1.3741795 0.18414612 0.006395899
000330 a1 93 e5 bf d1 b6 c0 3f fa 8c 16 bf 5f b1 e6 bc
       -1.7935678 1.5055791 -0.58808863 -0.028160749
000340 66 a0 31 3f 1c 68 56 3f 40 c8 ad 3e 05 13 86 3f
       0.69385374 0.8375261 0.3394184 1.0474554
000350 08 8b 9c 3e 03 b8 76 be fa 64 a2 be 03 f9 a1 3f
       0.30574822 -0.24093632 -0.31717664 1.2654117
000360 70 7e ec be 8e 26 91 bf 34 c4 0c bf e9 ad 96 3f
       -0.46190214 -1.1339891 -0.5498688 1.1771823
000370 60 68 e2 bf 2e 66 2f 3f 81 4e 8e 3e aa 58 6f 3e
       -1.7688103 0.6851529 0.2779427 0.23373666
000380 1e b7 9f be 4e e9 77 be dd 44 91 3f 04 b5 a2 3f
       -0.31194395 -0.24210092 1.134914 1.2711492
000390 15 3f da 3e 2b b3 44 3e 27 c9 10 bf 70 31 b5 3e
       0.42626253 0.19208972 -0.56556934 0.3538928
0003a0 74 5a 00 3f a3 b1 39 bf 18 58 b1 3f c8 8d 8a 3e
       0.5013802 -0.7253668 1.3855009 0.27061296
0003b0 fd ac 03 c0 db 50 b5 3e 87 a3 07 3e e9 1f e1 3e
       -2.0574334 0.3541325 0.13245974 0.43969658
0003c0 8b 96 d3 3e fc 67 6c bf 67 99 09 3d 44 46 5c 3f
       0.41325793 -0.9234617 0.03359356 0.86044717
0003d0 39 7c 34 3e 3f 61 a9 be ab 34 e3 3d 6a a1 3b be
       0.17625512 -0.33082005 0.1109403 -0.18323293
0003e0 7a 50 9a bf 4f ef 67 bf 0c 7b db 3f 72 53 7a 3e
       -1.205581 -0.9059953 1.7146926 0.24445894
0003f0 44 af ed bf 50 d7 b5 3c 26 bc 81 3f d1 d5 b6 3f
       -1.8569112 0.022197396 1.0135543 1.4284002

future_emb.embedding.3.weight f4 [2, 16]
000000 08 ee 34 bc cb 1b ae 3f 19 60 e3 be 13 5b a5 be
       -0.011043079 1.3602232 -0.44409254 -0.32296047
000010 60 b4 b6 3f a1 96 89 3e 64 9b 70 bf 87 fa 56 3f
       1.4273796 0.26872733 -0.9398711 0.83976024
000020 09 2f a5 bf ec 53 dd 3e 38 6b a0 3f 0e 4e a9 3f
       -1.2904979 0.4322809 1.253272 1.3226945
000030 f4 1d 80 bf 30 aa 55 3f de 57 e9 3e 23 b1 13 bf
       -1.0009141 0.8346281 0.4557485 -0.57692164
000040 d3 83 15 3c 03 dc bb be e9 dc ff bd ae d2 76 bf
       0.009125668 -0.36691293 -0.12493307 -0.9641522
000050 83 ee 95 3a b0 78 2f 3f f8 e3 f5 3e 66 a1 19 3f
       0.001143888 0.6854353 0.4802549 0.600119
000060 93 41 4f bf ee b2 35 3f f2 85 ab 3f ea bf 26 3e
       -0.80959433 0.7097615 1.3400252 0.16284147
000070 25 07 01 bf 35 29 b3 3f d2 ab 79 3e a9 5c 49 bd
       -0.50401527 1.399695 0.2438195 -0.049160633

category_emb.embedding.0.weight f4 [32, 16]
000000 b6 6f b3 bf 26 a6 0f 3f 57 5e 93 3f 59 e8 32 3f
       -1.4018466 0.561129 1.1513165 0.69885784
000010 45 fa 16 bf 43 8f 28 be 19 77 fc be bd 0b 01 3f
       -0.5897563 -0.164609 -0.49309614 0.50408536
000020 56 06 0d 3e 41 d7 8c 3e a4 c4 ef 3e 7e f7 33 bf
       0.13771948 0.27507976 0.46829712 -0.7029952
000030 6b ea 37 be 0d bb 65 3f f1 bc 53 3d a7 12 08 bf
       -0.17960517 0.8973854 0.05169386 -0.5315346
000040 cd 29 d3 3e 5c 3b 8f 3e f1 a3 c3 bf cd fb 6a bf
       0.4124283 0.27974975 -1.5284406 -0.9179047
000050 41 ad 81 3e 4a e5 38 3f 1e 33 66 3e 89 eb e7 be
       0.25327495 0.7222487 0.22480437 -0.45296887
000060 23 91 5c 3e fe e3 e2 3f c3 dd 42 3e 8e be ab bf
       0.2153974 1.7725828 0.19029908 -1.3417528
000070 07 a8 f4 3f f6 d6 20 3e a5 64 3c 40 9d 04 1c 3e
       1.9113778 0.15707001 2.9436429 0.15236135
000080 6c 22 56 3e 03 e4 1b bd 44 df 1c be ba af e6 3f
       0.20911568 -0.038059246 -0.15319544 1.8022377
000090 cc 6e c7 3f d4 8a 89 bf 7f 26 03 40 6f be f0 bf
       1.5580688 -1.0745492 2.0492246 -1.8808116
0000a0 8e 49 d2 3d 55 f1 bd 3f ad d2 e7 3f aa 70 8e 3f
       0.10267936 1.4839274 1.8111168 1.1128132
0000b0 8f fd 5f bf 07 9c 81 be e0 79 bf 3f d1 b7 94 be
       -0.87496275 -0.25314352 1.4959068 -0.2904649
0000c0 cf d3 9b be c4 b7 90 3f 4d a1 0a 40 86 a1 7f bf
       -0.30435035 1.1306081 2.166095 -0.9985584
0000d0 1b 49 ca 3f ce 7e 2c be 21 ca e1 be 73 15 64 bf
       1.580356 -0.16845247 -0.44099525 -0.8909523
0000e0 18 a8 a6 bf 6c 84 9c be c9 80 b9 be 02 46 1b bf
       -1.3020048 -0.3056978 -0.36231068 -0.606537
0000f0 5e 02 93 bf 9a d8 4b bf f4 ce d7 bf c9 6f 19 bf
       -1.1485097 -0.7962738 -1.6860032 -0.59936196
000100 f6 92 d7 bd 5c 7e e1 bf 9e 6d 22 3d 45 27 2e bf
       -0.105260774 -1.7616687 0.03965532 -0.6802867
000110 8b 01 5c be 34 93 8b 3e 1b c0 6e 3f b1 80 b0 be
       -0.21484964 0.27260745 0.9326188 -0.34473184
000120 65 4d 3d be 99 26 37 3f 83 52 01 c0 a9 b0 7f 3c
       -0.18486555 0.7154327 -2.020661 0.015606084
000130 06 85 d8 3e 23 53 c8 be 32 64 06 c0 b2 13 c6 3d
       0.4228899 -0.39125928 -2.0998654 0.09671725
000140 ab 61 3c bf d3 da 91 3e 40 b6 ea 3f 52 ca 76 3f
       -0.7358653 0.28487262 1.8336868 0.96402466
000150 e9 20 25 bd 7c 8f 82 3f 5b 20 df 3e 58 52 a0 bf
       -0.04031459 1.0200038 0.43579373 -1.2525129
000160 d1 ad 83 c0 79 61 e8 bf 7b 5a cf be 96 30 5a bf
       -4.114968 -1.8154746 -0.4049872 -0.85230386
000170 a5 9a ca 3f 81 0a 15 bf 29 0e 07 bf 78 76 4d bf
       1.5828444 -0.5821915 -0.5275598 -0.80258894
000180 e3 dc 17 40 63 ae f2 3f 2a 60 a1 3f 40 44 25 3f
       2.3728569 1.8959469 1.2607472 0.64557266
000190 fa bd 9e 3f 0d 2f a9 3e 88 05 ca 3f dd d0 19 be
       1.2401726 0.3304371 1.5782938 -0.15021081
0001a0 0f c9 41 c0 90 bf 97 bf 5d 28 63 3e 78 32 c3 be
       -3.0278966 -1.1855335 0.22183366 -0.38124442
0001b0 df 8a 23 40 5f 82 b7 3f 6d 9e 43 3f 8f a6 32 bf
       2.555351 1.4336661 0.76413614 -0.697854
0001c0 6f f8 77 3f ec 64 9d bf ff 1f 19 c0 05 b4 a5 3d
       0.96863455 -1.2296424 -2.392578 0.080909766
0001d0 66 52 19 40 a7 40 b3 bf be 7d a1 3f 4b c2 90 3e
       2.3956542 -1.4004105 1.2616498 0.28273234
0001e0 58 06 8c 3f 65 bd 74 3f c9 d3 e7 3f e8 29 5b bf
       1.0939436 0.95601493 1.8111507 -0.8561082
0001f0 07 b5 86 3e 4a bf db be a2 09 1d c0 aa 91 62 3f
       0.26309988 -0.4291938 -2.453713 0.88503516
000200 3e ae 66 be 20 7f 98 3f 03 c0 06 bf 45 94 14 c0
       -0.22527406 1.1913795 -0.52636737 -2.3215497
000210 7f ec fd 3f bc 37 f1 bd f2 48 23 3f 43 9c cd bf
       1.9837798 -0.117782086 0.6378318 -1.6063312
000220 83 43 ae 3f 05 0e ec 3e be c2 e4 3e 2d 37 69 3d
       1.3614353 0.46104446 0.44679826 0.056937385
000230 a3 59 19 bf 89 e0 d3 bf d9 89 f3 bf 4d 5f 20 bf
       -0.599024 -1.6552898 -1.9026443 -0.6264542
000240 19 6f 02 40 00 92 0b c0 06 71 1d c0 e5 b3 2f be
       2.0380309 -2.1807861 -2.4600234 -0.17158468
000250 f1 c1 b5 3f 17 6e 61 be a0 c5 ff 3e 29 82 0b 3d
       1.4199811 -0.22014652 0.49955463 0.034059677
000260 a7 4b 5b bf 92 29 01 bf 55 c4 e6 3c 35 c9 2c be
       -0.8566231 -0.50454056 0.02816979 -0.1687363
000270 08 c5 30 3f ec db 80 bf 10 b6 4c 3e e3 e6 a8 3f
       0.69050646 -1.0067115 0.19991326 1.3195461
000280 27 c9 2c 40 89 7f fa be d9 58 36 be 97 55 17 c0
       2.6997774 -0.48925427 -0.1780733 -2.364599
000290 66 ec 24 3f c9 89 9c 3d 3d 60 28 bf b1 a0 5a 3f
       0.64423215 0.07643468 -0.6577185 0.85401446
0002a0 10 89 e2 be ac 69 f4 3c ba f3 c1 bf 2d c5 d0 3e
       -0.44245195 0.029835545 -1.5152504 0.40775433
0002b0 97 2f f0 3d 4f d5 91 3f 55 c8 f6 bf 62 f4 87 3f
       0.11727827 1.1393222 -1.9279886 1.0621455
0002c0 a4 e9 63 bc 80 68 9a bf 3f 10 26 bf 5a 95 1e be
       -0.013910685 -1.2063141 -0.6486854 -0.1548666
0002d0 20 5b 40 bf a8 ab d4 3d b4 40 03 3f 3e fc c4 3e
       -0.75139046 0.10384303 0.51270604 0.38473696
0002e0 5b 5e 56 be b6 b1 7d 3f 4c 92 86 bf 27 c4 47 bf
       -0.20934431 0.9909929 -1.0513396 -0.7803368
0002f0 20 2e 1a bf f5 00 29 be 61 4b f6 3e 54 c6 d6 bf
       -0.6022663 -0.16504271 0.48104385 -1.6779275
000300 74 e5 20 bf c9 48 e6 3f 6d 0f 53 bd 45 3e b3 bf
       -0.6285012 1.7990962 -0.051528383 -1.4003378
000310 68 e4 88 bf da b5 a7 3f 4c b0 16 40 1e c2 90 bf
       -1.0694704 1.3102372 2.3545103 -1.130924
000320 67 49 2d 3c c5 0a d9 3f 8d 06 92 bf 21 72 91 bf
       0.0105765825 1.6956412 -1.1408249 -1.1362954
000330 38 74 f6 3e f6 e0 4a 3f c7 92 20 bf d5 f8 88 be
       0.48135543 0.79249513 -0.62723964 -0.26752344
000340 a8 bc 2e 3f 73 30 67 3f 9f bc 7b bf 66 60 48 bf
       0.68256617 0.903083 -0.9833469 -0.7827209
000350 a3 1d b3 bf a5 c1 59 bf 36 9d 95 be f6 e5 10 c0
       -1.399342 -0.85061103 -0.29221505 -2.2640357
000360 2e 28 42 bf ba 4e 05 c0 44 7a fe 3e b2 a7 9c bf
       -0.7584256 -2.08293 0.49702656 -1.2238677
000370 fd 06 b1 bf 10 16 91 bf 88 85 9c 3d ad b2 88 bf
       -1.3830258 -1.1334858 0.076426566 -1.0679528
000380 6f 4c 7a 3e 57 28 10 bf 9b 71 c6 be b0 42 39 bf
       0.2444322 -0.56311554 -0.3875855 -0.7236738
000390 69 96 b3 be 7b 81 eb bf 93 d0 af bf 0c 18 6b bf
       -0.3507569 -1.8398889 -1.3735527 -0.9183357
0003a0 60 82 45 3e 16 ce 0b be 43 f4 4d 3f ce 15 b1 3d
       0.19288015 -0.13652834 0.8045084 0.08646737
0003b0 a2 30 aa 3f b5 35 cf 3f b9 a2 fb be 5e 21 ae bf
       1.3296092 1.6188265 -0.49147585 -1.3603933
0003c0 dd 7e 51 bf d4 ab f0 bf 13 75 04 40 7d 81 49 be
       -0.81834203 -1.8802438 2.0696456 -0.19678302
0003d0 f6 87 14 bf 34 01 1c 3f d7 73 b8 bf 35 e1 cf bf
       -0.5801996 0.60939336 -1.4410352 -1.6240603
0003e0 84 90 ec 3e 4e b6 0e 40 ea 11 00 40 b4 e1 da bf
       0.46204007 2.229877 2.0010934 -1.7100129
0003f0 06 a1 65 bf 17 2e f5 3e 65 78 a1 be 0f b4 d5 bf
       -0.8969883 0.47886726 -0.31537166 -1.6695575

category_emb.embedding.1.weight f4 [7, 16]
000000 0c fa d8 bf b8 ee 4d 3f 51 07 60 bf 17 9e ff bf
       -1.6951308 0.8044238 -0.87511164 -1.997012
000010 20 74 c3 bc 0a 99 78 be 12 23 d0 3e a4 68 da bd
       -0.023859084 -0.2427713 0.40651757 -0.1066449
000020 d6 12 31 bf f4 3f 57 3f 26 36 0f c0 16 ef 93 3e
       -0.69169366 0.8408196 -2.23768 0.28893346
000030 9a ca 39 40 ac 04 a9 be 48 85 58 bf 6c 01 cf 3e
       2.9029908 -0.33011377 -0.8457837 0.40430772
000040 e6 f3 92 3f 27 6e 6d 3f 6d 90 e4 bf c6 d6 54 3e
       1.1480682 0.92746204 -1.7856575 0.20785055
000050 97 e1 dd 3f a5 e4 09 bf 37 83 8a 3f 35 87 80 bf
       1.733447 -0.5386451 1.0821294 -1.0041262
000060 ef 71 ab 3f f1 9d 98 be e8 82 4f 3f 49 9e bc bf
       1.3394145 -0.29808 0.8105912 -1.4735805
000070 4e d5 9c 3e 2b 66 04 be 16 ba 11 3f 8d 33 83 bf
       0.3063149 -0.12929599 0.5692457 -1.0250107
000080 96 39 c1 3e d7 6c a0 3e 13 22 a1 3f 96 7c 0a 40
       0.37739247 0.31333038 1.2588524 2.1638541
000090 fb 4c ec 3d 8d 0d 20 c0 3c 8c c6 3f b7 ce 16 40
       0.1153812 -2.500827 1.5511546 2.3563669
0000a0 f6 0b f4 bd 9e ba de 3f f1 39 8c bf a2 f0 93 bf
       -0.11916344 1.7400701 -1.0955182 -1.155781
0000b0 53 9f 7d 3e a6 63 8d 3f 93 b9 c6 bf 51 c5 a8 bf
       0.24767809 1.1046035 -1.5525383 -1.3185216
0000c0 f0 38 97 bf 44 9f fc 3f 79 3a cb 3d dd 98 98 3f
       -1.1814251 1.9736104 0.09923262 1.192165
0000d0 db d0 d0 3d 71 d4 5d bf c3 26 63 bf 3d c3 fa 3d
       0.10196086 -0.86652285 -0.8873102 0.1224427
0000e0 a3 ee 55 3f 51 9d b3 3f 24 a3 e7 3d 7d 45 6f bf
       0.83567256 1.4032384 0.113104135 -0.93465406
0000f0 5f 9d 98 3f a7 9c db bf c0 fe d1 3d d5 64 cb 3e
       1.1923026 -1.7157182 0.10253668 0.39725366
000100 7a e9 0e 3f 1e e7 a0 bf a4 40 4c bf 18 d5 c7 bf
       0.55825007 -1.2570531 -0.79786134 -1.5611906
000110 80 eb d5 3f c9 9c 4c bf 63 3a 92 3e c8 4a 46 3f
       1.6712494 -0.79926735 0.2856017 0.7745786
000120 b7 fd 40 3f 67 92 d5 3f a0 2f eb 3e 99 da d4 bf
       0.7538714 1.6685303 0.45934772 -1.6629211
000130 39 cf 8e be 55 a1 ee bf 0e 67 44 bf 0e 37 7e 3f
       -0.27892473 -1.8642985 -0.7671975 0.99302757
000140 2d bb 35 bf 93 93 11 3f 18 ff 33 be 7d 4c 1c bf
       -0.7098873 0.56865805 -0.1757778 -0.6105421
000150 66 59 13 bf d3 46 7c bf 87 97 92 3f 00 ed 02 40
       -0.57558286 -0.9854557 1.1452492 2.0457153
000160 12 2f 05 c0 da 32 db 3f a0 71 8a 3f 97 38 95 3e
       -2.080998 1.7124894 1.0815926 0.29144737
000170 86 a1 27 be 0e 31 21 3f ad 1e bd 3d 78 a2 c9 be
       -0.1637021 0.62965477 0.092343666 -0.39381766
000180 dc 73 5e be f4 f4 57 be bc 83 be 3f 00 76 9d be
       -0.21723884 -0.21089536 1.4883952 -0.3075409
000190 eb 76 87 3f 5f c7 78 bf 7a 38 f8 3e ab 48 91 3e
       1.0583166 -0.97179216 0.48480588 0.28375754
0001a0 29 06 33 3f da bf 0c 3f 03 6c ab 3f 90 d4 1e 3f
       0.69931275 0.5498024 1.3392338 0.62043095
0001b0 e4 2e 14 3f ff e3 13 c0 4c 00 36 3f 6c ed 92 bf
       0.5788405 -2.3107908 0.71094203 -1.1478705

category_emb.embedding.2.weight f4 [24, 16]
000000 f7 62 1e 3f a5 b0 31 be d6 28 9f bf 77 13 8c bf
       0.6186976 -0.17352541 -1.2434337 -1.094344
000010 c3 20 6d bf 1a 39 68 be 27 4a a5 3e 89 cf 70 bf
       -0.92628115 -0.22678033 0.32283136 -0.94066674
000020 93 7d 6e bf 3c 94 87 bf fe 87 53 3f 23 71 7d 3f
       -0.9316036 -1.0592113 0.8262938 0.9900076
000030 1f 17 40 bd c5 5a ab bf a5 ef bb 3d 38 4d 04 c0
       -0.04689705 -1.3387076 0.09176568 -2.067213
000040 f7 4f 1a 3f ac bf b3 bf ae 2d 9f bc d9 b6 e0 be
       0.60278267 -1.4042869 -0.019430961 -0.43889502
000050 a1 15 59 bf 15 1d 49 bf 37 69 b8 3f 36 00 4d bf
       -0.8479863 -0.7856 1.4407109 -0.80078447
000060 04 e0 12 be b6 99 67 3e 07 90 4a 3f 6d 80 a6 be
       -0.14343268 0.2261723 0.7912602 -0.32519856
000070 2d 5f 44 3c 05 de d8 be 66 46 68 3e c4 ff 97 bf
       0.011985582 -0.42356887 0.22683105 -1.1874928
000080 af 3c 57 3f 71 1e 97 bf e1 c5 be 3a af 90 2e bf
       0.8407697 -1.1806165 0.0014554822 -0.6818952
000090 d1 0d 9b bf 65 57 4a bf 38 d5 b7 3f 45 d5 3a 3d
       -1.2113591 -0.79039603 1.4361944 0.045613546
0000a0 ef 3a e8 bf 69 fa fa be b6 a5 17 3f 85 78 05 be
       -1.8142985 -0.49019173 0.5923723 -0.13034256
0000b0 1d 47 3f 3f a4 74 4b 3f 39 ef 24 3f 3a a8 65 be
       0.74717885 0.79474854 0.64427525 -0.22427455
0000c0 d7 95 ba 3f 14 4e d6 be c7 8a dc 3d b0 6a b1 3d
       1.4576977 -0.41856444 0.10768657 0.08662927
0000d0 59 5e ac bf 27 d8 28 bf 99 06 45 3f 6a 92 0e be
       -1.3466293 -0.6595482 0.7696319 -0.1392304
0000e0 5c ba 22 c0 94 1d 55 3c e3 4c 3a 40 48 00 0d bf
       -2.5426245 0.01300754 2.9109428 -0.55078554
0000f0 cb b2 43 be f0 dc fd bd 9d d4 bd be b3 15 3e 3f
       -0.19111173 -0.12395656 -0.37076274 0.7425186
000100 a3 55 9e 3f d2 ef 8c bf 98 86 74 3e ca 64 99 3e
       1.2369884 -1.1010687 0.23879468 0.29959708
000110 80 5a 77 bf 92 13 52 bf 24 53 17 40 d2 17 c5 3e
       -0.9662247 -0.8206111 2.3644495 0.38494736
000120 45 81 c1 bf 1a ba 2a be b9 a5 ad 3f d8 f3 e3 be
       -1.5117575 -0.16672555 1.35662 -0.44521976
000130 75 0f 9d 3e 9d 07 fa 3d c6 46 8d bf bc ee 83 3f
       0.30675855 0.12208483 -1.1037223 1.0307231
000140 78 7b d2 3f 20 6d ae 3e 92 57 17 bf 92 74 2c bf
       1.644393 0.3406763 -0.59117997 -0.6736537
000150 88 1c 36 bf fb 8d 7d bc 72 14 12 bf 2d 60 83 be
       -0.71137285 -0.015475745 -0.5706245 -0.25659314
000160 4c 55 fa be 88 d9 f5 3c 2a 54 7e bd 69 8f a3 3f
       -0.488932 0.030010954 -0.062091984 1.277814
000170 93 d4 72 3e 5f 78 d0 3f 1a 8d dc bf 5c 11 1d 3e
       0.23713903 1.6286734 -1.7230561 0.15338653
000180 12 22 06 3f ba 73 9f be e1 ae cd bf d8 be 00 bf
       0.5239574 -0.3114298 -1.6068994 -0.50291204
000190 55 5b 80 3f f6 4d d4 3e 7a 46 c1 bf 6e dd ca bf
       1.0027872 0.4146573 -1.5099633 -1.5848825
0001a0 4c 6f 55 be a4 51 3f 40 3f c5 4e be 40 d8 d2 3d
       -0.20843238 2.989358 -0.20192431 0.10295153
0001b0 61 fa 92 3f 07 fd ed 3e 1a 50 45 3f 26 72 e2 3f
       1.148266 0.46482107 0.7707535 1.7691085
0001c0 0b 0d 5d be 7a 4c 84 be 43 ea a7 be 2f f6 43 3f
       -0.21587007 -0.25839597 -0.32795915 0.7654752
0001d0 23 bc 13 3f 93 f8 7a be 9f b4 95 bf 7f 89 03 bf
       0.5770895 -0.24508886 -1.1695746 -0.5138168
0001e0 51 62 77 3f 3a ef c0 3f 60 82 36 c0 91 e9 cb 3f
       0.96634394 1.5073006 -2.8517075 1.5930654
0001f0 41 9e 7c bf 16 5f 23 bf b5 e6 13 bf 01 8b cd 3f
       -0.98678976 -0.63816965 -0.57773906 1.6058046
000200 e4 04 93 bf 41 9e 95 3e 0a 0a b4 3d 3d 36 dc bf
       -1.1485868 0.292223 0.08790977 -1.7204052
000210 fc 1b 04 3f ed 16 2a 3e cb 12 14 bf 07 15 d0 be
       0.516052 0.16610308 -0.57841176 -0.40641043
000220 00 0d 72 bf b0 78 1b 3f 45 13 25 c0 2a 45 05 40
       -0.94551086 0.6073103 -2.579301 2.0823464
000230 49 24 ac be d8 25 6c be 48 4c c7 bf bc 38 4e 3d
       -0.33621433 -0.23061311 -1.5570154 0.050347075
000240 1f 21 3c bf 26 df 39 be 5a 73 18 40 d1 b9 65 3e
       -0.7348804 -0.1815153 2.3820405 0.22434165
000250 2e 89 ec 3e 45 a8 07 3e 4b 01 98 3f af 5b 44 3f
       0.4619841 0.13247783 1.1875395 0.767024
000260 86 30 f5 bf 7e f2 c8 3e 07 e0 11 c0 c0 99 c5 3f
       -1.9155433 0.39247507 -2.2792985 1.5437546
000270 28 ac ce bf ff b8 84 3f 29 56 50 3f ec 36 0c bf
       -1.6146288 1.0368956 0.8138147 -0.54771304
000280 0e 3c 8a bd 29 5e 94 3f d2 16 d2 3f fa 2b 26 bd
       -0.06749736 1.1591235 1.6413214 -0.040569283
000290 6b a6 a0 bf f6 ec 85 3f c9 52 ce 3f ab bf c9 bf
       -1.2550787 1.046294 1.6119014 -1.5761617
0002a0 cb 3c ed 3e cc 63 10 3f 7c 32 d7 bf 23 35 ee 3f
       0.46335444 0.5640228 -1.6812282 1.8609966
0002b0 f2 ad 67 be c0 36 6f be fd e1 04 40 72 44 74 bf
       -0.22624949 -0.23360729 2.0762932 -0.9541694
0002c0 83 25 08 bf 58 ce b1 3e 00 8b 17 40 72 aa 68 bf
       -0.5318224 0.3472774 2.367859 -0.9088508
0002d0 d2 41 87 be 99 3b 4a 3f e0 8c a2 3f 41 64 84 bf
       -0.26417404 0.7899719 1.2699242 -1.0343095
0002e0 b7 38 73 3e d3 ab 13 3f 67 79 21 bf 0e c9 f0 3f
       0.23752104 0.5768406 -0.6307587 1.8811357
0002f0 f8 9f 4f bd 1b 4b 8f 3d 4a f5 1b 3f 92 2f c6 bf
       -0.050689667 0.06996747 0.60921156 -1.5483267
000300 81 4c 90 bf ec f1 46 3e 91 23 10 40 44 af 9e 3f
       -1.1273347 0.19428223 2.2521708 1.2397237
000310 b4 36 b3 3e a0 8d 6d 3d 26 e8 47 3f 67 fb 9c bf
       0.35002673 0.057996392 0.78088605 -1.2264222
000320 00 a6 f5 bc 1c a2 27 3f be 52 9a bf 0c dc c2 3f
       -0.029986382 0.65481734 -1.2056501 1.5223403
000330 62 bc 2b bf 9b 3a b4 be 49 ef f1 bd 77 7d 08 bf
       -0.67084324 -0.35200962 -0.11813218 -0.53316444
000340 85 af d3 bf 0c 89 0c 3f 33 23 37 40 20 c0 d8 bc
       -1.6537939 0.54896617 2.8615234 -0.0264588
000350 00 2f 5c 3f 98 49 86 bd 00 d7 ab 3f cb 36 44 bf
       0.86009216 -0.06557006 1.3424988 -0.7664611
000360 12 11 87 bf b1 8c 24 3f f8 53 5b 3e b1 d7 91 3f
       -1.0552084 0.6427718 0.2141875 1.1393949
000370 7d 74 a9 be 46 ba 85 3e e9 64 00 3f 15 64 41 bf
       -0.33096686 0.26118678 0.50153977 -0.7554334
000380 0c f1 ca bf 76 f4 05 40 94 a5 05 40 59 03 40 be
       -1.5854812 2.0930457 2.088231 -0.18751277
000390 4a f7 e3 3f e4 51 8c 3f 20 73 6f 3f 98 e7 9b bf
       1.7809842 1.0962491 0.9353504 -1.2180052
0003a0 bb 7f 1d bf c0 13 29 be af 55 5c bf cf 35 9e 3e
       -0.61523026 -0.1651144 -0.8606824 0.30900428
0003b0 ba dd 7c 3f 6f b6 a4 3d 30 48 2f 3d be f5 fa 3d
       0.9877583 0.08042609 0.042793453 0.12253903
0003c0 e8 45 9d bf a8 e8 15 bf 54 70 b6 3f 20 40 8d 3e
       -1.2286959 -0.5855813 1.425303 0.27587986
0003d0 69 88 81 bd e6 68 0b 3f 39 80 08 40 c0 1a 72 bf
       -0.06324846 0.5445694 2.132826 -0.9457207
0003e0 1d 2b b1 3e 24 f8 c1 3f d8 2c 95 3f 78 02 95 3f
       0.34603205 1.5153852 1.165431 1.1641378
0003f0 a2 21 4d bf 13 98 3a bf 10 f7 89 bf 8d da 55 bf
       -0.80129445 -0.72888297 -1.0778522 -0.8353661

category_emb.embedding.3.weight f4 [2, 16]
000000 9b e1 ce be 3e 1b 86 3f 01 88 b1 bf e7 04 a6 bf
       -0.40406498 1.0477064 -1.386963 -1.2970246
000010 42 8b dc bf 67 96 10 3e e1 34 96 be a9 be d2 3e
       -1.7229998 0.14119874 -0.29337218 0.41161087
000020 c0 f1 1a bf ed 3b ef 3f ae a6 aa bf 06 09 23 3e
       -0.6052513 1.8690163 -1.3332117 0.15921411
000030 8e b2 0c bf c7 02 04 40 3f 47 ec be b2 f8 8c 3f
       -0.5495995 2.0626695 -0.46148106 1.1013396
000040 67 64 38 bf 8b ef 63 3f c5 d8 9b bf 3d 20 96 bf
       -0.720282 0.8903739 -1.2175528 -1.1728588
000050 32 1f 3e 3f b0 13 80 3f af 02 fe bf 0a 87 1a 40
       0.7426635 1.0006008 -1.9844569 2.4144921
000060 f7 00 89 3e db ed 25 3f ff b9 97 bf ad 44 e9 bf
       0.2675855 0.64816064 -1.1853637 -1.8224083
000070 0f e9 91 3f 68 19 ea 3e 82 61 7a bf 6e 2c 56 3d
       1.1399249 0.45722508 -0.97805035 0.052288465

continuous_emb.embedding.0.weight f4 [16, 1]
000000 d1 19 06 be 0a ab e3 bd d1 2a 9a be 82 36 30 bd
       -0.13095786 -0.111166075 -0.3011079 -0.043020733
000010 27 5f 6c bd 44 1e 71 3e ed 83 98 3e bc b6 0e bf
       -0.05770793 0.23546702 0.2978815 -0.5574758
000020 38 33 9b bc 6a f6 f9 bd 2f 52 12 3c b3 15 0f bf
       -0.018945321 -0.12205203 0.008930727 -0.55892485
000030 b7 36 9a 39 8d 42 b2 be 94 e7 be 3d cf c0 51 3d
       0.00029413935 -0.348164 0.09321514 0.051209267

continuous_emb.embedding.0.bias f4 [16]
000000 81 f5 8c be df b2 38 3f dc fa 94 3f 86 47 26 3e
       -0.27531055 0.72147936 1.1639056 0.16238222
000010 ae 1c 05 3f c5 a8 e6 bd 14 ec da be 63 0e 5b 3f
       0.51996887 -0.11262659 -0.42758238 0.8556883
000020 e3 8b 60 3f c1 7f 01 bf 40 ca 36 3f 1f 45 59 3f
       0.8771345 -0.5058556 0.7140236 0.84871095
000030 08 51 0d 3d be d4 ad 3f 36 37 12 bf 31 3f 69 3f
       0.034501106 1.3580549 -0.57115495 0.9111205

continuous_emb.embedding.1.weight f4 [16, 1]
000000 d1 19 06 be 0a ab e3 bd d1 2a 9a be 82 36 30 bd
       -0.13095786 -0.111166075 -0.3011079 -0.043020733
000010 27 5f 6c bd 44 1e 71 3e ed 83 98 3e bc b6 0e bf
       -0.05770793 0.23546702 0.2978815 -0.5574758
000020 38 33 9b bc 6a f6 f9 bd 2f 52 12 3c b3 15 0f bf
       -0.018945321 -0.12205203 0.008930727 -0.55892485
000030 b7 36 9a 39 8d 42 b2 be 94 e7 be 3d cf c0 51 3d
       0.00029413935 -0.348164 0.09321514 0.051209267

continuous_emb.embedding.1.bias f4 [16]
000000 81 f5 8c be df b2 38 3f dc fa 94 3f 86 47 26 3e
       -0.27531055 0.72147936 1.1639056 0.16238222
000010 ae 1c 05 3f c5 a8 e6 bd 14 ec da be 63 0e 5b 3f
       0.51996887 -0.11262659 -0.42758238 0.8556883
000020 e3 8b 60 3f c1 7f 01 bf 40 ca 36 3f 1f 45 59 3f
       0.8771345 -0.5058556 0.7140236 0.84871095
000030 08 51 0d 3d be d4 ad 3f 36 37 12 bf 31 3f 69 3f
       0.034501106 1.3580549 -0.57115495 0.9111205

continuous_emb.embedding.2.weight f4 [16, 1]
000000 d1 19 06 be 0a ab e3 bd d1 2a 9a be 82 36 30 bd
       -0.13095786 -0.111166075 -0.3011079 -0.043020733
000010 27 5f 6c bd 44 1e 71 3e ed 83 98 3e bc b6 0e bf
       -0.05770793 0.23546702 0.2978815 -0.5574758
000020 38 33 9b bc 6a f6 f9 bd 2f 52 12 3c b3 15 0f bf
       -0.018945321 -0.12205203 0.008930727 -0.55892485
000030 b7 36 9a 39 8d 42 b2 be 94 e7 be 3d cf c0 51 3d
       0.00029413935 -0.348164 0.09321514 0.051209267

continuous_emb.embedding.2.bias f4 [16]
000000 81 f5 8c be df b2 38 3f dc fa 94 3f 86 47 26 3e
       -0.27531055 0.72147936 1.1639056 0.16238222
000010 ae 1c 05 3f c5 a8 e6 bd 14 ec da be 63 0e 5b 3f
       0.51996887 -0.11262659 -0.42758238 0.8556883
000020 e3 8b 60 3f c1 7f 01 bf 40 ca 36 3f 1f 45 59 3f
       0.8771345 -0.5058556 0.7140236 0.84871095
000030 08 51 0d 3d be d4 ad 3f 36 37 12 bf 31 3f 69 3f
       0.034501106 1.3580549 -0.57115495 0.9111205

continuous_emb.embedding.3.weight f4 [16, 1]
000000 d1 19 06 be 0a ab e3 bd d1 2a 9a be 82 36 30 bd
       -0.13095786 -0.111166075 -0.3011079 -0.043020733
000010 27 5f 6c bd 44 1e 71 3e ed 83 98 3e bc b6 0e bf
       -0.05770793 0.23546702 0.2978815 -0.5574758
000020 38 33 9b bc 6a f6 f9 bd 2f 52 12 3c b3 15 0f bf
       -0.018945321 -0.12205203 0.008930727 -0.55892485
000030 b7 36 9a 39 8d 42 b2 be 94 e7 be 3d cf c0 51 3d
       0.00029413935 -0.348164 0.09321514 0.051209267

continuous_emb.embedding.3.bias f4 [16]
000000 81 f5 8c be df b2 38 3f dc fa 94 3f 86 47 26 3e
       -0.27531055 0.72147936 1.1639056 0.16238222
000010 ae 1c 05 3f c5 a8 e6 bd 14 ec da be 63 0e 5b 3f
       0.51996887 -0.11262659 -0.42758238 0.8556883
000020 e3 8b 60 3f c1 7f 01 bf 40 ca 36 3f 1f 45 59 3f
       0.8771345 -0.5058556 0.7140236 0.84871095
000030 08 51 0d 3d be d4 ad 3f 36 37 12 bf 31 3f 69 3f
       0.034501106 1.3580549 -0.57115495 0.9111205

continuous_emb.embedding.4.weight f4 [16, 1]
000000 d1 19 06 be 0a ab e3 bd d1 2a 9a be 82 36 30 bd
       -0.13095786 -0.111166075 -0.3011079 -0.043020733
000010 27 5f 6c bd 44 1e 71 3e ed 83 98 3e bc b6 0e bf
       -0.05770793 0.23546702 0.2978815 -0.5574758
000020 38 33 9b bc 6a f6 f9 bd 2f 52 12 3c b3 15 0f bf
       -0.018945321 -0.12205203 0.008930727 -0.55892485
000030 b7 36 9a 39 8d 42 b2 be 94 e7 be 3d cf c0 51 3d
       0.00029413935 -0.348164 0.09321514 0.051209267

continuous_emb.embedding.4.bias f4 [16]
000000 81 f5 8c be df b2 38 3f dc fa 94 3f 86 47 26 3e
       -0.27531055 0.72147936 1.1639056 0.16238222
000010 ae 1c 05 3f c5 a8 e6 bd 14 ec da be 63 0e 5b 3f
       0.51996887 -0.11262659 -0.42758238 0.8556883
000020 e3 8b 60 3f c1 7f 01 bf 40 ca 36 3f 1f 45 59 3f
       0.8771345 -0.5058556 0.7140236 0.84871095
000030 08 51 0d 3d be d4 ad 3f 36 37 12 bf 31 3f 69 3f
       0.034501106 1.3580549 -0.57115495 0.9111205

continuous_emb.embedding.5.weight f4 [16, 1]
000000 d1 19 06 be 0a ab e3 bd d1 2a 9a be 82 36 30 bd
       -0.13095786 -0.111166075 -0.3011079 -0.043020733
000010 27 5f 6c bd 44 1e 71 3e ed 83 98 3e bc b6 0e bf
       -0.05770793 0.23546702 0.2978815 -0.5574758
000020 38 33 9b bc 6a f6 f9 bd 2f 52 12 3c b3 15 0f bf
       -0.018945321 -0.12205203 0.008930727 -0.55892485
000030 b7 36 9a 39 8d 42 b2 be 94 e7 be 3d cf c0 51 3d
       0.00029413935 -0.348164 0.09321514 0.051209267

continuous_emb.embedding.5.bias f4 [16]
000000 81 f5 8c be df b2 38 3f dc fa 94 3f 86 47 26 3e
       -0.27531055 0.72147936 1.1639056 0.16238222
000010 ae 1c 05 3f c5 a8 e6 bd 14 ec da be 63 0e 5b 3f
       0.51996887 -0.11262659 -0.42758238 0.8556883
000020 e3 8b 60 3f c1 7f 01 bf 40 ca 36 3f 1f 45 59 3f
       0.8771345 -0.5058556 0.7140236 0.84871095
000030 08 51 0d 3d be d4 ad 3f 36 37 12 bf 31 3f 69 3f
       0.034501106 1.3580549 -0.57115495 0.9111205

continuous_emb.embedding.6.weight f4 [16, 1]
000000 d1 19 06 be 0a ab e3 bd d1 2a 9a be 82 36 30 bd
       -0.13095786 -0.111166075 -0.3011079 -0.043020733
000010 27 5f 6c bd 44 1e 71 3e ed 83 98 3e bc b6 0e bf
       -0.05770793 0.23546702 0.2978815 -0.5574758
000020 38 33 9b bc 6a f6 f9 bd 2f 52 12 3c b3 15 0f bf
       -0.018945321 -0.12205203 0.008930727 -0.55892485
000030 b7 36 9a 39 8d 42 b2 be 94 e7 be 3d cf c0 51 3d
       0.00029413935 -0.348164 0.09321514 0.051209267

continuous_emb.embedding.6.bias f4 [16]
000000 81 f5 8c be df b2 38 3f dc fa 94 3f 86 47 26 3e
       -0.27531055 0.72147936 1.1639056 0.16238222
000010 ae 1c 05 3f c5 a8 e6 bd 14 ec da be 63 0e 5b 3f
       0.51996887 -0.11262659 -0.42758238 0.8556883
000020 e3 8b 60 3f c1 7f 01 bf 40 ca 36 3f 1f 45 59 3f
       0.8771345 -0.5058556 0.7140236 0.84871095
000030 08 51 0d 3d be d4 ad 3f 36 37 12 bf 31 3f 69 3f
       0.034501106 1.3580549 -0.57115495 0.9111205
