TFT_power/best_model/best7.pth (torch, 559308 bytes, 379 tensors)

static_cate_emb.embedding.0.weight f4 [101, 32]
1.9269153 1.4872841 0.9007172 -2.105521 0.67841846 -1.2345449 -0.043067478 -1.604667
-0.7521353 1.648723 -0.39247864 -1.4036071 -0.7278813 -0.5594302 -0.7688389 0.7624454
1.6423169 -0.15959747 -0.49739754 0.43958926 -0.75813115 1.0783176 0.80080056 1.6806206
1.2791244 1.2964228 0.6104665 1.3347378 -0.23162432 0.04175949 -0.2515753 0.8598585
-0.5952313 -1.0842872 -0.21211609 1.1200225 1.1662434 -0.49784642 0.032246478 -0.7460388
-0.51148784 0.10481416 -0.34667325 -0.8077251 -0.79655623 2.0250125 0.920766 -0.24232894
-0.0777422 -1.0491533 -0.29191962 0.90272254 -0.561691 1.5592062 -0.23080643 -1.4134046
-1.9170251 -0.18746604 -1.1363751 1.2157527 -0.10814903 1.6087894 0.34611908 1.8534275
0.8223589 0.52892715 1.7711201 0.39391476 1.6612123 -0.3260779 -0.9687553 0.7302501
0.96566653 0.50394934 -0.077422254 -0.663479 1.346311 -0.7433305 -0.7063544 -1.4366868
0.6972378 0.08621554 -0.9717117 -0.36213812 0.35875455 1.0669173 1.4244016 -0.7680522
0.71950513 -0.028033307 -1.5190403 0.42860687 -1.4449393 -1.465414 1.0125103 0.85883325
-2.361526 0.8709247 0.8787491 -0.12164531 0.90792453 -0.090706185 0.89198256 -0.31998795
0.017667834 0.8749338 -0.14974861 -0.18636869 0.26502863 1.1454034 0.67168033 -0.9029179
-1.4774463 0.69449776 -1.1350207 -0.028313516 0.75798285 -0.507913 -0.9154692 1.0447446
0.34145898 -0.022060445 0.53791463 -0.5189459 0.7227352 -0.6587092 0.35572127 -0.5351319
2.42795 1.3774427 -1.3272307 -2.1570654 -0.39042917 1.5870926 0.5165993 0.40417477
0.75740343 0.69745487 -2.2709217 1.0988482 -0.7263098 0.7473405 -0.4631474 0.3519055
-1.338912 1.1355704 0.8554661 0.9593293 0.3096885 -0.6581146 -1.1864619 2.3995433
0.4863565 0.82669127 -0.15467294 1.1392635 -1.7677553 -0.8833845 -1.2094113 0.7156532
-2.0252192 -0.091163404 -0.59610546 -0.68773246 0.67132604 -0.7333203 0.50404155 -1.362405
-0.39734262 1.2506033 1.2349391 -0.41283208 -1.101064 0.46389526 0.9068465 1.8162217
1.0507318 -0.05908662 -0.48963708 -0.28913802 -0.9729587 -1.7735435 -0.9493115 -0.5696894
-0.14504899 -0.89796096 -2.697406 0.16746676 1.4016538 -2.1087356 0.5927968 0.9480208
1.9551097 -0.020635448 1.795787 -0.27251846 -1.2790618 0.6273512 0.12093063 2.6132827
-0.07316564 1.4730898 -0.6546561 -0.4123206 -0.19123264 1.5534407 1.2742151 0.7060378
-1.0023227 -0.43254772 -0.6681638 -0.98831767 0.0917925 0.9624348 -0.16233988 -1.8433641
-0.9870378 0.10223547 -1.2966886 1.0411068 -0.95111215 -0.1807587 1.6317344 1.7238326
0.5057895 0.6252641 -0.6019247 -0.16056593 -0.9966996 -1.1208262 0.5712992 1.0254489
0.6947015 -0.24178115 -2.1592638 0.6338139 -0.41370896 -0.2623946 -0.7930051 -0.37995175
-0.9673774 -0.9275118 -0.25028202 -0.29580477 -1.2800485 -1.3625822 0.5099419 1.2886751
1.9261699 -0.15687202 2.2808187 0.8279045 0.70867455 -0.24811536 -1.1893756 -0.6283025
00000000: 29a5 f63f 535f be3f 6795 663f dbc0 06c0
00000010: d5ac 2d3f 9105 9ebf 8667 30bd ba65 cdbf
00000020: f08b 40bf 5b09 d33f f6f2 c8be 66a9 b3bf
00000030: 6e56 3abf d136 0fbf a0d2 44bf 9f2f 433f
00000040: 7137 d23f 856d 23be e4aa febe d811 e13e
00000050: e214 42bf 5006 8a3f 4401 4d3f 931e d73f
00000060: 59ba a33f 2ff1 a53f 8847 1c3f b0d8 aa3f
00000070: ed2e 6dbe 000c 2b3d 7ace 80be b01f 5c3f
00000080: 1461 18bf ecc9 8abf f634 59be e65c 8f3f
00000090: 7747 953f bae5 febe e214 043d 66fc 3ebf
000000a0: def0 02bf cea8 d63d 287f b1be 12c7 4ebf
000000b0: 1ceb 4bbf ce99 0140 52b7 6b3f 1425 78be
000000c0: 4d37 9fbd a84a 86bf 7d76 95be d318 673f
000000d0: fbca 0fbf 1294 c73f 8558 6cbe 71ea b4bf
000000e0: 1461 f5bf 19f7 3fbe bd74 91bf c99d 9b3f
000000f0: 3d7d ddbd d0ec cd3f 8536 b13e 1d3d ed3f
00000100: 1d86 523f c567 073f 10b4 e23f 32af c93e
00000110: 9ba2 d43f aff3 a6be 5900 78bf acf1 3a3f
00000120: ec35 773f d302 013f 8f8f 9ebd c2d9 29bf
00000130: eb53 ac3f e84a 3ebf a4d3 34bf 5ae5 b7bf
00000140: 2d7e 323f c691 b03d 19c2 78bf 2b6a b9be
00000150: adae b73e bf90 883f cb52 b63f 129f 44bf
00000160: 7d31 383f 1ba6 e5bc ea6f c2bf 5c72 db3e
00000170: c5f3 b8bf b092 bbbf f099 813f 7fdc 5b3f
00000180: 3e23 17c0 ecf4 5e3f b3f5 603f 2d21 f9bd
00000190: be6d 683f 2ac4 b9bd f858 643f 76d5 a3be
000001a0: 22bc 903c a9fb 5f3f b357 19be 6fd7 3ebe
000001b0: d5b1 873e 949c 923f 3ef3 2b3f a125 67bf
000001c0: f61c bdbf 9bca 313f 5c48 91bf bff1 e7bc
000001d0: 2a0b 423f 9606 02bf 315c 6abf 31ba 853f
000001e0: b6d3 ae3e 1bb8 b4bc c6b4 093f a3d9 04bf
000001f0: 2d05 393f 2ba1 28bf 1921 b63e 67fe 08bf
00000200: 8863 1b40 0b50 b03f b2e2 a9bf 5c0d 0ac0
00000210: 55e6 c7be da25 cb3f da3f 043f ffef ce3e
00000220: 31e5 413f 678c 323f c856 11c0 0fa7 8c3f
00000230: 70ef 39bf b551 3f3f a821 edbe f52c b43e
00000240: 7861 abbf 5f5a 913f d4ff 5a3f 9b96 753f
00000250: 7e8f 9e3e 337a 28bf fcdd 97bf 1e92 1940
00000260: b803 f93e 0aa2 533f 9562 1ebe 63d3 913f
00000270: ce45 e2bf 7d25 62bf fdcd 9abf 0c35 373f
00000280: 319d 01c0 e1b3 babd 5e9a 18bf 3c0f 30bf
00000290: 06dc 2b3f e1ba 3bbf de08 013f 4963 aebf
000002a0: 7e70 cbbe c513 a03f 7c12 9e3f ba5e d3be
000002b0: aaef 8cbf ae83 ed3e 1827 683f f479 e83f
000002c0: 617e 863f d004 72bd b6b1 fabe e609 94be
000002d0: d213 79bf 7903 e3bf 1406 73bf 2ad7 11bf
000002e0: b987 14be c5e0 65bf 4da2 2cc0 687c 2b3e
000002f0: 6469 b33f 86f5 06c0 88c1 173f 7eb1 723f
00000300: 0941 fa3f ac0b a9bc 59dc e53f 8a87 8bbe
00000310: 4cb8 a3bf 179a 203f 7aaa f73d 0640 2740
00000320: ded7 95bd 358e bc3f 8b97 27bf b01b d3be
00000330: 7dd2 43be 25d7 c63f 7b19 a33f e5be 343f
00000340: 1c4c 80bf e576 ddbe c80c 2bbf 6302 7dbf
00000350: b5fd bb3d 2162 763f 6d3c 26be 5bf3 ebbf
00000360: 82ae 7cbf d560 d13d e4f9 a5bf fd42 853f
00000370: 167c 73bf cf18 39be acdc d03f 8ca6 dc3f
00000380: 6c7b 013f 4f11 203f bd17 1abf 656b 24be
00000390: b427 7fbf 3c77 8fbf aa40 123f e941 833f
000003a0: f5d7 313f 7a95 77be 6131 0ac0 a141 223f
000003b0: a9d1 d3be 9658 86be 6202 4bbf 0989 c2be
000003c0: 0ca6 77bf 6a71 6dbf f724 80be b973 97be
000003d0: a1d8 a3bf 1869 aebf 8d8b 023f 4ef3 a43f
000003e0: bc8c f63f 0fa3 20be eff8 1140 8df1 533f
000003f0: b26b 353f f411 7ebe 763d 98bf 6fd8 20bf

static_conti_emb.embedding.0.weight f4 [32, 1]
-0.5886636 0.36546737 -0.477929 0.8310943 0.63081044 0.30650297 -0.5936864 -0.5463813
-2.1327546 -1.2588192 0.6977547 -0.02047873 1.1644919 -0.5638016 -0.09844224 -1.4170012
0.94701165 0.516769 1.2114261 3.4746725e-05 0.58776265 0.54663 -1.3029459 -0.26533693
0.2914299 -0.6443275 -0.03305142 0.5177661 0.34246773 0.2812278 0.5669403 0.02092495
00000000: a8b2 16bf 8a1e bb3e 1cb3 f4be 99c2 543f
00000010: cb7c 213f f5ed 9c3e d5fb 17bf a5df 0bbf
00000020: 0d7f 08c0 fd20 a1bf 0da0 323f 02c3 a7bc
00000030: 120e 953f 4d55 10bf 169c c9bd 4c60 b5bf
00000040: 5b6f 723f f94a 043f 0310 9b3f 03bd 1138
00000050: 9d77 163f f2ef 0b3f eec6 a6bf 3eda 87be
00000060: 4d36 953e a6f2 24bf ed60 07bd 528c 043f
00000070: ee57 af3e 17fd 8f3e 0023 113f cd6a ab3c

static_conti_emb.embedding.0.bias f4 [32]
-0.3182429 -0.124157555 0.05495309 -2.6351232e-05 -0.14587577 1.3336037 -1.2596473 -0.06956197
-0.03880899 -0.021835703 -0.5996303 -0.49722448 -1.0857639 0.28746808 -0.015837811 -0.043639995
-0.6053535 -0.066994645 -0.03170258 0.5697076 -0.21292298 0.33978033 0.10808661 0.8855952
0.47837347 0.25162733 0.10490231 -0.80187625 0.08056907 0.3575334 -0.14820305 0.11308324
00000000: bcf0 a2be 5146 febd 7e16 613d d70c ddb7
00000010: 7560 15be 87b3 aa3f 1f3c a1bf 8276 8ebd
00000020: 2df6 1ebd cae0 b2bc 5f81 19bf 3594 febe
00000030: 50fa 8abf 042f 933e 4cbe 81bc dabf 32bd
00000040: 72f8 1abf 7d34 89bd 91da 01bd 5bd8 113f
00000050: 7b08 5abe b0f7 ad3e 835c dd3d 5eb6 623f
00000060: 5eed f43e 4cd5 803e 06d7 d63d c347 4dbf
00000070: 6601 a53d 9e0e b73e 8ac2 17be 3098 e73d

static_conti_emb.embedding.1.weight f4 [32, 1]
-0.5886636 0.36546737 -0.477929 0.8310943 0.63081044 0.30650297 -0.5936864 -0.5463813
-2.1327546 -1.2588192 0.6977547 -0.02047873 1.1644919 -0.5638016 -0.09844224 -1.4170012
0.94701165 0.516769 1.2114261 3.4746725e-05 0.58776265 0.54663 -1.3029459 -0.26533693
0.2914299 -0.6443275 -0.03305142 0.5177661 0.34246773 0.2812278 0.5669403 0.02092495
00000000: a8b2 16bf 8a1e bb3e 1cb3 f4be 99c2 543f
00000010: cb7c 213f f5ed 9c3e d5fb 17bf a5df 0bbf
00000020: 0d7f 08c0 fd20 a1bf 0da0 323f 02c3 a7bc
00000030: 120e 953f 4d55 10bf 169c c9bd 4c60 b5bf
00000040: 5b6f 723f f94a 043f 0310 9b3f 03bd 1138
00000050: 9d77 163f f2ef 0b3f eec6 a6bf 3eda 87be
00000060: 4d36 953e a6f2 24bf ed60 07bd 528c 043f
00000070: ee57 af3e 17fd 8f3e 0023 113f cd6a ab3c

static_conti_emb.embedding.1.bias f4 [32]
-0.3182429 -0.124157555 0.05495309 -2.6351232e-05 -0.14587577 1.3336037 -1.2596473 -0.06956197
-0.03880899 -0.021835703 -0.5996303 -0.49722448 -1.0857639 0.28746808 -0.015837811 -0.043639995
-0.6053535 -0.066994645 -0.03170258 0.5697076 -0.21292298 0.33978033 0.10808661 0.8855952
0.47837347 0.25162733 0.10490231 -0.80187625 0.08056907 0.3575334 -0.14820305 0.11308324
00000000: bcf0 a2be 5146 febd 7e16 613d d70c ddb7
00000010: 7560 15be 87b3 aa3f 1f3c a1bf 8276 8ebd
00000020: 2df6 1ebd cae0 b2bc 5f81 19bf 3594 febe
00000030: 50fa 8abf 042f 933e 4cbe 81bc dabf 32bd
00000040: 72f8 1abf 7d34 89bd 91da 01bd 5bd8 113f
00000050: 7b08 5abe b0f7 ad3e 835c dd3d 5eb6 623f
00000060: 5eed f43e 4cd5 803e 06d7 d63d c347 4dbf
00000070: 6601 a53d 9e0e b73e 8ac2 17be 3098 e73d

future_emb.embedding.0.weight f4 [32, 32]
-0.41451195 -1.7112842 0.3645228 -0.58034533 -0.710426 -0.27301857 0.87178457 0.2158195
0.5219618 0.34126174 1.0108995 -0.046917703 0.29928154 -0.42062986 -1.037724 0.6390634
0.02325264 -1.0357732 0.6917201 -0.67894524 -0.92473626 -0.31068262 0.1966586 0.63061893
-1.722893 -0.5210926 0.060717396 0.42114103 1.0576669 1.3254046 1.1331552 0.424922
1.1335582 -0.012004997 -0.5985022 -0.4005737 -0.07800391 -0.4771667 0.5560921 -0.78370863
-2.7204502 0.43585655 2.7432177 -0.33271354 -0.10784741 -0.7073216 -1.0504285 0.79395807
-0.19403194 -0.36440545 1.1276209 0.67736256 -0.83977664 0.12576889 3.0143528 -0.94467306
-0.21964242 -0.41599837 0.6014377 -0.39635012 0.6568127 0.76988286 -2.2509854 1.480567
1.0306607 0.39931998 -0.9474717 -0.8648313 0.21209101 0.17953251 -0.1435278 -0.20296961
-0.5694431 -0.6367879 -1.8037331 1.5116535 0.9489781 1.5204606 -0.9508916 -0.73159343
0.27079016 -0.9415756 -1.1198897 -1.3431414 1.758858 0.2918413 -1.5440352 -1.8953094
0.41922078 2.1068265 0.18521887 -0.20763955 0.9853735 0.5859499 0.40932775 0.2179881
0.18067387 -0.8302256 -0.24705538 0.42486158 0.9376523 0.12014598 -1.2006227 -1.0476625
1.8567469 1.0206167 -1.6632265 0.3866218 -1.4016408 -1.5819831 -1.0421383 1.7781523
-0.57032156 0.20145994 -0.028082091 -1.9573743 0.89608955 -0.17002484 0.22911744 -1.6363866
-1.2672138 0.74002355 0.49003667 1.6440352 0.040300637 -0.71667385 -0.33865234 0.73550504
0.4830663 -0.5072258 0.8686182 -0.38002536 1.1440519 0.5385102 0.9778903 -0.08146154
-1.6515801 -0.20677294 -0.10217603 0.8014187 -1.8394493 0.12815976 1.4368546 -0.48787642
0.25047222 0.7651316 1.5219762 -0.21167865 -0.9000527 1.5640925 1.7827995 -1.423527
1.0907302 -0.05462329 -0.038007062 1.0642945 0.30362037 1.2757583 1.2914938 0.013574877
0.50942516 1.0814081 1.0547048 -1.3612818 -0.85141236 0.93558484 1.9054937 -0.9752004
-0.87213886 0.76344067 0.7664287 1.2248199 0.35702348 -1.5859395 -0.8087532 -0.35185885
0.8323584 0.14531782 0.5525833 0.8334687 0.74135983 -0.11339294 0.38775483 -1.0739449
-0.0019271511 1.7244093 -1.0433898 1.3938069 0.08823044 -0.80374384 -0.3261732 0.037057705
-1.0787219 -1.0792302 0.680697 -0.5799462 1.995327 -0.74780446 1.4967314 0.032351874
-0.7433077 1.6805232 0.18179622 0.26039058 0.15468164 -0.16734241 0.026076304 0.28749555
0.39673227 1.3374841 1.1495608 0.15485027 0.8000546 1.894506 0.5418101 -2.1490443
0.11199829 -0.8806882 -1.1715238 0.613196 1.613636 0.874102 0.19322123 0.8078575
-0.6008379 -2.0685484 0.5154513 -0.8257209 -0.035640717 -0.34408283 2.3969433 -0.593963
0.15542223 1.8857356 -0.3499315 0.46190292 -0.3218305 -1.328473 -2.124357 -0.84224313
0.27526662 0.21345073 -1.1692591 0.23353024 -1.9396982 -0.36796153 0.61773455 -1.653569
1.1905667 -0.33211258 -1.1270239 0.59013224 0.31688145 -0.73504704 -3.3080342 1.2396514
00000000: e93a d4be 5c0b dbbf bca2 ba3e 8391 14bf
00000010: 7ade 35bf 17c9 8bbe 462d 5f3f c9ff 5c3e
00000020: 4a9f 053f dcb9 ae3e 2865 813f c72c 40bd
00000030: 6e3b 993e cc5c d7be 24d4 84bf a999 233f
00000040: 527c be3c 3794 84bf 9214 313f 5bcf 2dbf
00000050: 84bb 6cbf cb11 9fbe df60 493e 3e70 213f
00000060: c287 dcbf 5366 05bf ceb2 783d cc9f d73e
00000070: a161 873f dca6 a93f 3b0b 913f 608f d93e
00000080: 6f18 913f 9bb0 44bc 7137 19bf ff17 cdbe
00000090: 84c0 9fbd 324f f4be 0d5c 0e3f 21a1 48bf
000000a0: db1b 2ec0 9728 df3e e190 2f40 6e59 aabe
000000b0: 1adf dcbd 0713 35bf 7174 86bf d640 4b3f
000000c0: 4fb0 46be 5a93 babe e255 903f a267 2d3f
000000d0: 9afb 56bf 8fc9 003e 28eb 4040 18d6 71bf
000000e0: f1e9 60be bdfd d4be d2f7 193f 67ee cabe
000000f0: e124 283f 0b17 453f 2510 10c0 3883 bd3f
00000100: b1ec 833f ab73 cc3e 818d 72bf 9665 5dbf
00000110: 632e 593e 5fd7 373e f4f8 12be 44d7 4fbe
00000120: 06c7 11bf 8804 23bf bae0 e6bf dd7d c13f
00000130: 3bf0 723f 749e c23f a26d 73bf b549 3bbf
00000140: 02a5 8a3e 190b 71bf 8c58 8fbf 0fec abbf
00000150: 4222 e13f 396c 953e f2a2 c5bf 8099 f2bf
00000160: 1ba4 d63e 3fd6 0640 04aa 3d3e 769f 54be
00000170: 7041 7c3f d000 163f 6893 d13e 4638 5f3e
00000180: 9202 393e aa89 54bf 16fc 7cbe 7587 d93e
00000190: fb09 703f 180f f63d 01ae 99bf ce19 86bf
000001a0: e2a9 ed3f 91a3 823f 9be4 d4bf 4bf3 c53e
000001b0: f768 b3bf 6c7e cabf ca64 85bf 7f9a e33f
000001c0: 9800 12bf 844b 4e3e 6a0c e6bc 3e8b fabf
000001d0: 2066 653f fe1a 2ebe c39d 6a3e 1e75 d1bf
000001e0: 1034 a2bf 2f72 3d3f 16e6 fa3e bf6f d23f
000001f0: 4812 253d f077 37bf d763 adbe 0f4a 3c3f
00000200: 7754 f73e 8dd9 01bf c35d 5e3f af92 c2be
00000210: 4b70 923f cedb 093f 0557 7a3f 4fd5 a6bd
00000220: fa66 d3bf 49bc 53be ab41 d1bd c729 4d3f
00000230: 1373 ebbf 503c 033e daea b73f f0ca f9be
00000240: e53d 803e aadf 433f 1ed0 c23f 4ac2 58be
00000250: db69 66bf 2f34 c83f c632 e43f 2236 b6bf
00000260: 0c9d 8b3f acbc 5fbd 4bad 1bbd cd3a 883f
00000270: 2174 9b3e 0c4c a33f ab4f a53f 2969 5e3c
00000280: b069 023f 956b 8a3f 9100 873f 7b3e aebf
00000290: 29f6 59bf 7d82 6f3f 38e7 f33f bca6 79bf
000002a0: 7e44 5fbf d970 433f ac34 443f e6c6 9c3f
000002b0: c8cb b63e 1100 cbbf 730a 4fbf d826 b4be
000002c0: 7115 553f 32ce 143e 1976 0d3f 345e 553f
000002d0: c2c9 3d3f 8f3a e8bd cd87 c63e 0777 89bf
000002e0: 7698 fcba 72b9 dc3f cc8d 85bf 4468 b23f
000002f0: 29b2 b43d 28c2 4dbf 2c00 a7be d2c9 173d
00000300: 8f13 8abf 3724 8abf 2942 2e3f 5b77 14bf
00000310: e066 ff3f 1d70 3fbf e594 bf3f 6683 043d
00000320: 6a49 3ebf 621b d73f ca28 3a3e ea51 853e
00000330: dd64 1e3e cf5b 2bbe f99d d53c 9e32 933e
00000340: 7e20 cb3e ae32 ab3f cf24 933f 1291 1e3e
00000350: 61d0 4c3f 2c7f f23f 11b4 0a3f f189 09c0
00000360: 5c5f e53d c874 61bf 7ef4 95bf 6afa 1c3f
00000370: a08b ce3f 26c5 5f3f c9db 453e c0cf 4e3f
00000380: 83d0 19bf 1963 04c0 9ef4 033f 7262 53bf
00000390: 00fc 11bd a02b b0be 8567 1940 f60d 18bf
000003a0: 0127 1f3e c95f f13f 392a b3be 8a7e ec3e
000003b0: f8c6 a4be 670b aabf 77f5 07c0 3f9d 57bf
000003c0: bfef 8c3e d492 5a3e 48aa 95bf 8d22 6f3e
000003d0: 0848 f8bf 7465 bcbe da23 1e3f 26a8 d3bf
000003e0: 7d64 983f a90a aabe 5242 90bf e812 173f
000003f0: 493e a23e 0b2c 3cbf d5b6 53c0 e6ac 9e3f

future_emb.embedding.1.weight f4 [7, 32]
-1.0308744 0.94905573 -1.4517595 1.5808582 -0.3676618 2.064248 -0.47529426 0.2343187
-1.34448 0.1783468 -1.8059714 0.31678697 0.19304886 -0.399564 0.79708713 1.0845518
0.2011703 -0.12345161 0.4392983 0.24448904 0.9034427 2.1290443 -0.21880992 -0.85021746
-0.58484983 -0.55716014 0.29735753 -1.3341627 1.1343573 -1.4658246 1.7713706 -0.9184783
0.5036989 -0.0880286 -1.9683013 -0.3101654 -1.2956729 -1.0543321 0.17597476 -0.71448195
0.9791273 1.604884 0.23685011 -0.11152062 -0.1741811 1.3309233 -0.35990676 0.53575283
0.51644254 0.122009374 0.7406528 0.8048277 0.8543069 -1.175779 0.068745054 0.9220122
-0.86834043 0.68264896 0.9125609 1.0390301 0.11605857 -0.66627616 0.42746723 -1.364244
0.84322435 0.19200097 -0.5839746 0.020546302 0.68327665 1.70603 -0.71294785 -0.2934835
-1.0328999 0.01722144 1.0333989 -0.65267336 -0.48847774 0.18089007 0.60831064 -0.46428508
-0.19364326 0.056075234 0.7861546 -0.86360073 -0.008281778 -1.2659483 -0.26544014 1.6278943
-0.21382995 -0.29144266 0.26995152 1.111816 -0.5522542 -0.92634064 -1.7581388 1.4963783
-1.140113 0.036827203 -0.69930017 1.7097248 0.30955568 0.43597803 0.036534283 0.44169307
-0.9261063 0.017785868 0.27738225 -0.02924132 -0.18878634 0.3980376 0.32770872 -1.9326712
0.15347362 0.056635845 -0.5490435 -1.207029 -0.33339077 -0.6251882 1.4445693 1.2074339
0.5051158 -0.8135596 -0.12932785 -0.1804289 -0.88533306 -0.0937588 -0.5356891 -1.4697553
0.66161746 0.30596018 -0.090323396 1.7570057 0.004679501 -0.5025332 0.07188181 -0.90238124
0.31358942 -0.35492462 0.036570285 -0.4989551 0.6041419 0.5677665 1.0493323 -0.6010177
-0.52427095 -0.25100914 -0.6083739 -0.18005086 0.7450435 0.3851293 -0.86036426 -0.077165715
0.18119945 1.031572 0.006810533 1.4946529 2.5662024 -0.2286225 2.014393 -0.44094002
1.3100703 0.31265885 -1.9599766 -1.2201734 -0.43545046 -1.1960573 0.8522021 -0.5635423
0.6613777 -0.120700605 0.49269658 -2.050552 1.0761309 -0.42522737 -2.2738147 -0.19805907
-0.6368058 0.5117044 -0.14713503 -2.0557761 0.032061253 -0.1620649 -2.018096 -1.3830311
0.9226985 0.45375046 1.0929825 -1.3488607 -0.35134667 -1.4919935 1.9875588 0.7425722
0.9057559 0.040229768 0.47527882 -0.28592739 -0.031199338 0.9320059 -0.5284812 -0.94313574
0.91906464 1.4328117 0.4617764 -0.08717174 -0.1103522 0.4533025 -0.42878005 -2.324663
0.04137047 1.7955083 1.0142504 -1.278561 -0.6065579 2.3104692 -1.8513011 -1.6679533
-0.40839106 0.99590504 0.8266105 -3.7912266 -1.8145934 -0.8946353 0.8919251 1.4108199
00000000: b1f3 83bf 51f5 723f 41d3 b9bf 9059 ca3f
00000010: 2b3e bcbe a41c 0440 c559 f3be 3ef1 6f3e
00000020: ec17 acbf 8ba0 363e 122a e7bf e731 a23e
00000030: 9aae 453e a793 ccbe e70d 4c3f 98d2 8a3f
00000040: 96ff 4d3e 33d4 fcbd b5eb e03e 565b 7a3e
00000050: 0548 673f 4342 0840 b50f 60be daa7 59bf
00000060: b8b8 15bf 0ca2 0ebf 3f3f 983e d8c5 aabf
00000070: 9f32 913f 24a0 bbbf 46bc e23f 6521 6bbf
00000080: 69f2 003f 5748 b4bd 4cf1 fbbf 00ce 9ebe
00000090: 9cd8 a5bf 5bf4 86bf ba32 343e 4ae8 36bf
000000a0: 16a8 7a3f d76c cd3f d688 723e ec64 e4bd
000000b0: 885c 32be b25b aa3f b345 b8be 1927 093f
000000c0: 9435 043f 0de0 f93d 6c9b 3d3f 3009 4e3f
000000d0: dbb3 5a3f ed7f 96bf 35ca 8c3d fe08 6c3f
000000e0: 8f4b 5ebf 15c2 2e3f 979d 693f f0fe 843f
000000f0: 1eb0 ed3d 1391 2abf fcdc da3e 8c9f aebf
00000100: 8ddd 573f e79b 443e 5c7f 15bf b850 a83c
00000110: 38eb 2e3f 315f da3f c083 36bf 7843 96be
00000120: 1036 84bf fa13 8d3c 6a46 843f 9a15 27bf
00000130: c119 fabe 3f3b 393e 3fba 1b3f c6b6 edbe
00000140: 6b4a 46be 25af 653d 6e41 493f f014 5dbf
00000150: 4bb0 07bc 980a a2bf c5e7 87be d75e d03f
00000160: 3df6 5abe f937 95be 1637 8a3e fd4f 8e3f
00000170: 8860 0dbf a924 6dbf b10a e1bf 5389 bf3f
00000180: 39ef 91bf 1fd8 163d 5605 33bf 43d8 da3f
00000190: 157e 9e3e 8338 df3e f9a4 153d 9825 e23e
000001a0: 4d15 6dbf abb3 913c 0c05 8e3e 7e8b efbc
000001b0: 3551 41be 96cb cb3e 70c9 a73e c561 f7bf
000001c0: 3028 1d3e fdfa 673d 1d8e 0cbf ed7f 9abf
000001d0: 32b2 aabe 550c 20bf a6e7 b83f 328d 9a3f
000001e0: 454f 013f 7145 50bf 856e 04be 5bc2 38be
000001f0: 30a5 62bf 9d04 c0bd ec22 09bf f120 bcbf
00000200: c35f 293f d0a6 9c3e 79fb b8bd 90e5 e03f
00000210: 8056 993b 04a6 00bf c536 933d 7502 67bf
00000220: cb8e a03e aeb8 b5be b9ca 153d 0b77 ffbe
00000230: 0ba9 1a3f 2559 113f 8550 863f 4cdc 19bf
00000240: 9f36 06bf 4584 80be 64be 1bbf 415f 38be
00000250: 2cbb 3e3f ab2f c53e d540 5cbf 0f09 9ebd
00000260: 598c 393e 8d0a 843f e42a df3b c950 bf3f
00000270: a93c 2440 041c 6abe d1eb 0040 e4c2 e1be
00000280: 62b0 a73f d214 a03e 83e0 fabf a42e 9cbf
00000290: 5df3 debe 6818 99bf eb29 5a3f 4f44 10bf
000002a0: 0d50 293f e131 f7bd ba42 fc3e 3e3c 03c0
000002b0: a8be 893f 67b7 d9be 2e86 11c0 ffcf 4abe
000002c0: b405 23bf 0fff 023f 91aa 16be d691 03c0
000002d0: a952 033d 57f4 25be 7c28 01c0 2a07 b1bf
000002e0: f835 6c3f fb51 e83e dae6 8b3f 78a7 acbf
000002f0: b6e3 b3be a5f9 bebf 5468 fe3f 3619 3e3f
00000300: 9edf 673f f8c7 243d bf57 f33e 1365 92be
00000310: c195 ffbc f097 6e3f 8b4a 07bf 5871 71bf
00000320: d247 6b3f 6066 b73f f56d ec3e 1987 b2bd
00000330: 5600 e2bd 4417 e83e 0f89 dbbe 47c7 14c0
00000340: 1574 293d 37d3 e53f f5d2 813f e3a7 a3bf
00000350: 6147 1bbf bade 1340 6ff7 ecbf 7e7f d5bf
00000360: a218 d1be a2f3 7e3f bf9c 533f 75a3 72c0
00000370: 9944 e8bf d206 65bf 3455 643f bf95 b43f

future_emb.embedding.2.weight f4 [24, 32]
-0.44773415 0.6318223 -2.4052453 -0.13325717 -0.11749818 0.69278413 2.323731 -0.8014854
1.7122909 -1.7863607 -0.48096964 -0.05099743 1.7014747 1.4470885 1.9914036 -1.1067474
-1.4826101 1.9859003 0.34202814 0.6684076 -1.4667395 -1.4121474 1.3207997 0.4578684
-0.31678867 1.7816606 -1.1555699 -0.1997121 -1.1333535 0.43571877 -1.2890033 0.014302724
1.5790799 0.38493526 -0.7348378 -1.2170923 -0.037658773 -0.6211179 2.7453303 -0.90643936
0.8995739 -0.41452402 1.2902801 0.5233336 0.7966968 -0.34945074 0.23528466 -2.117485
-1.5853713 0.61502516 -1.1966727 1.2306725 -0.8538449 -2.3986607 1.9334267 -0.51290876
-0.38990355 0.9103192 -0.3432932 -1.0679649 1.7694753 -1.1991988 1.3403196 0.5397114
1.7989781 1.7288069 -2.1493886 -0.8415923 0.13072906 1.7356467 2.1978583 -0.46509236
1.9816383 -0.023173511 1.5772321 0.72097534 0.561289 2.059901 -1.0209684 -1.448678
-2.4329379 0.28869492 1.3400922 1.1104052 0.16147944 -0.53167486 1.2075512 1.6883888
0.21498044 2.0989518 -0.86731297 -2.071073 -0.34007508 -1.3739867 1.2372804 -1.0714241
1.4862152 1.4305283 -2.6496294 -0.23507689 -0.03872454 -0.3976976 0.6970031 1.2652667
0.28654277 -1.3062669 0.6654556 0.8842812 1.4712703 -0.7481101 0.97312033 -2.2485926
-2.78476 1.3177705 0.66519064 0.52952456 -1.1971303 -1.2763525 1.1297771 0.85918176
-1.3281229 0.8762445 -1.5002474 -2.5469923 2.0722952 0.17191534 1.1080604 -0.1839828
0.2521504 -0.95587265 -0.5950012 -1.815044 -2.671027 0.90015274 -0.10016222 1.2601447
2.2144961 -0.34255773 1.6951625 1.2045583 -0.25787914 1.9786062 -0.43964157 -0.6036461
0.6077804 0.5787856 -0.749162 -0.15342101 -0.25403056 -1.6620041 0.7110791 -0.071097486
-0.8537871 1.8908685 -0.9416627 -1.1312542 -1.2211353 -1.0417457 -0.24362685 -1.0618135
2.3512797 -0.33503136 0.9102745 0.1471111 -0.66961193 0.41272923 -1.6719269 0.82778406
1.3848692 -2.0349026 0.9179872 2.9111667 -0.0044189407 -0.16251063 1.7973437 -0.5422484
0.06626877 0.60103434 -0.98381615 1.921837 -1.3841488 0.6671873 0.40087137 0.029775163
-2.9694002 2.4225972 -0.5068042 -0.45557082 0.021346131 -2.4161844 0.40887842 1.1748388
-0.36821496 0.89402443 1.23544 -0.07597263 -0.37072718 1.2309021 -1.0734175 0.36677817
2.4732103 0.04787213 0.9267913 0.06718032 3.6894355 -0.30899054 0.42017433 0.35272864
-1.2977656 -0.032953873 -3.1070025 0.005290187 -0.55453265 -2.0137992 -0.6522572 -0.47623602
-0.28865978 1.5463389 -1.0765039 0.5098831 -0.9484923 1.2229084 0.8249728 0.8657332
-0.8305316 -2.136855 0.3404416 -0.040488686 0.1602333 1.6682916 -0.44694442 -0.20601459
-0.5909133 -1.1058378 0.13600168 -0.3828391 -0.46806437 -0.24996236 -3.0153775 0.36659262
-0.23719543 1.2359715 -1.1223055 -0.64237785 -0.7667266 0.9432915 1.1825918 0.14045832
0.9078719 0.08180493 -0.36469042 1.4897926 1.4914477 0.102471024 0.11308359 -0.38646427
00000000: 693d e5be 1bbf 213f 8aef 19c0 9174 08be
00000010: e3a2 f0bd 4d5a 313f 02b8 1440 262e 4dbf
00000020: 592c db3f 78a7 e4bf a741 f6be aee2 50bd
00000030: ecc9 d93f 323a b93f 50e6 fe3f e6a9 8dbf
00000040: 2bc6 bdbf fb31 fe3f 501e af3e c31c 2b3f
00000050: 1fbe bbbf 3fc1 b4bf f70f a93f ba6d ea3e
00000060: 2032 a2be 740d e43f b7e9 93bf 5481 4cbe
00000070: ba11 91bf 8816 df3e 0ffe a4bf f955 6a3c
00000080: 4a1f ca3f 3c16 c53e 541e 3cbf aec9 9bbf
00000090: 1640 1abd 9501 1fbf 7eb3 2f40 690c 68bf
000000a0: 7a4a 663f 7e3c d4be e627 a53f 31f9 053f
000000b0: 52f4 4b3f 35eb b2be 76ee 703e e084 07c0
000000c0: 72ed cabf 4a72 1d3f 922c 99bf ad86 9d3f
000000d0: 9495 5abf a883 19c0 877a f73f fd4d 03bf
000000e0: 70a1 c7be ae0a 693f 20c4 afbe 13b3 88bf
000000f0: 2b7e e23f 597f 99bf 988f ab3f 872a 0a3f
00000100: ea44 e63f 8b49 dd3f 958f 09c0 9872 57bf
00000110: d7dd 053e ac29 de3f b6a9 0c40 9620 eebe
00000120: 53a6 fd3f 60d6 bdbc bee2 c93f d791 383f
00000130: a3b0 0f3f 6bd5 0340 18af 82bf 486e b9bf
00000140: 41b5 1bc0 d2cf 933e 2488 ab3f c221 8e3f
00000150: de5a 253e d81b 08bf 0a91 9a3f 201d d83f
00000160: d523 5c3e 3a55 0640 3908 5ebf 768c 04c0
00000170: 521e aebe ccde afbf 345f 9e3f 6d24 89bf
00000180: 4d3c be3f 8d1b b73f 8793 29c0 ffb7 70be
00000190: a09d 1ebd 059f cbbe cc6e 323f 42f4 a13f
000001a0: bcb5 923e c133 a7bf 4c5b 2a3f 4160 623f
000001b0: 9652 bc3f 2584 3fbf 6a1e 793f f1e8 0fc0
000001c0: 8239 32c0 b4ac a83f ef49 2a3f ec8e 073f
000001d0: 913b 99bf 855f a3bf 899c 903f 56f3 5b3f
000001e0: eeff a9bf 8f51 603f 1b08 c0bf ec01 23c0
000001f0: 7ca0 0440 930a 303e ecd4 8d3f fd65 3cbe
00000200: db19 813e 12b4 74bf 0052 18bf 5d53 e8bf
00000210: 1bf2 2ac0 6970 663f da21 cdbd 6c4c a13f
00000220: 4eba 0d40 ba63 afbe 16fb d83f f72e 9a3f
00000230: bc08 84be f842 fd3f b318 e1be 8d88 1abf
00000240: 7f97 1b3f 4b2b 143f 15c9 3fbf 661a 1dbe
00000250: 4b10 82be 8dbc d4bf 4809 363f 8f9b 91bd
00000260: cb91 5abf fb07 f23f cf10 71bf f0cc 90bf
00000270: 294e 9cbf ec57 85bf 5179 79be 81e9 87bf
00000280: 5e7b 1640 3b89 abbe c007 693f 4ba4 163e
00000290: b06b 2bbf 3f51 d33e b301 d6bf a8e9 533f
000002a0: 6543 b13f d83b 02c0 3601 6b3f 8e50 3a40
000002b0: c3cc 90bb 3069 26be 5c0f e63f cbd0 0abf
000002c0: ecb7 873d 63dd 193f 60db 7bbf c1fe f53f
000002d0: ca2b b1bf c9cc 2a3f 033f cd3e 0beb f33c
000002e0: a70a 3ec0 d50b 1b40 ecbd 01bf 9440 e9be
000002f0: 15de ae3c c4a2 1ac0 8358 d13e 1e61 963f
00000300: ac86 bcbe c9de 643f e622 9e3f 8a97 9bbd
00000310: f4cf bdbe 338e 9d3f bf65 89bf 59ca bb3e
00000320: 1449 1e40 9115 443d 3242 6d3f d695 893d
00000330: b61f 6c40 0234 9ebe 1721 d73e d998 b43e
00000340: 2f1d a6bf a4fa 06bd 21d9 46c0 4e59 ad3b
00000350: daf5 0dbf 16e2 00c0 54fa 26bf 35d5 f3be
00000360: 37cb 93be 6fee c53f e1ca 89bf b387 023f
00000370: 64d0 72bf 4388 9c3f 6b31 533f b1a0 5d3f
00000380: b89d 54bf 3bc2 08c0 5d4e ae3e 77d7 25bd
00000390: 3314 243e 948a d53f e6d5 e4be 7df5 52be
000003a0: 1846 17bf 188c 8dbf 0644 0b3e 7d03 c4be
000003b0: 22a6 efbe 22f6 7fbe f2fb 40c0 07b2 bb3e
000003c0: 5ce3 72be 5034 9e3f b5a7 8fbf e072 24bf
000003d0: 3248 44bf 8d7b 713f 2b5f 973f 4ed4 0f3e
000003e0: 4b6a 683f 5889 a73d b4b8 babe 86b1 be3f
000003f0: c2e7 be3f 54dc d13d 5f98 e73d a5de c5be

future_emb.embedding.3.weight f4 [2, 32]
0.9893384 0.6839651 -0.6583971 0.14575696 -0.34733686 0.24244735 -0.23537073 1.1615285
-0.3344336 -0.23174226 0.96536815 -0.8507843 0.095744915 0.25881237 -0.051892012 0.035642218
0.4834517 -0.6443252 0.69930214 0.006624263 2.2431006 -0.028405879 0.8101759 0.05966187
0.49023125 -0.7443499 -1.3459728 -0.014253151 0.3768441 0.31107408 1.3832077 0.045662675
0.5315277 0.00822956 1.6274981 0.01742439 -1.2386348 0.11277347 0.56180143 0.027500119
0.6148075 -1.5235621 -1.9764969 -0.5228187 -0.043383855 1.3046166 0.08484646 -0.018382892
0.009736114 -0.5625878 1.3450613 0.02144814 0.7962598 1.0726072 0.15673293 0.0069942684
0.38019532 -0.38510168 -0.5924537 0.021680277 -0.5409518 -0.6923385 0.17996344 -0.019029887
00000000: 4845 7d3f 5618 2f3f b68c 28bf 5041 153e
00000010: 23d6 b1be 1e44 783e 0605 71be f7ac 943f
00000020: e13a abbe d84d 6dbe 5e22 773f 00cd 59bf
00000030: e915 c43d 0e83 843e b88c 54bd 93fd 113d
00000040: fb86 f73e 7ff2 24bf 7705 333f 5810 d93b
00000050: f68e 0f40 72b3 e8bc b067 4f3f 0160 743d
00000060: 97ff fa3e b78d 3ebf d648 acbf 0c86 69bc
00000070: b6f1 c03e 1a45 9f3e f30c b13f c908 3b3d
00000080: 3312 083f 47d5 063c dc51 d03f 98bd 8e3c
00000090: 968b 9ebf c7f5 e63d 38d2 0f3f ee47 e13c
000000a0: 0664 1d3f 1504 c3bf dafd fcbf 72d7 05bf
000000b0: 45b3 31bd adfd a63f fbc3 ad3d b897 96bc
000000c0: 3984 1f3c c105 10bf f82a ac3f 02b4 af3c
000000d0: afd7 4b3f 314b 893f 997e 203e 2d30 e53b
000000e0: f6a8 c23e 0c2c c5be 0cab 17bf d69a b13c
000000f0: d17b 0abf 193d 31bf 5648 383e 91e4 9bbc

category_emb.embedding.0.weight f4 [32, 32]
-0.59714764 -1.0348221 0.42101818 -0.5489478 -1.2540194 -1.2696189 0.64923376 0.23402986
-0.1553156 -0.43447372 -1.096245 -1.1229813 -1.8654798 -2.1207547 -0.67194337 -0.755981
-1.0449823 -0.2799243 1.210166 -0.98852044 0.35020766 -0.26442388 -1.0631658 -0.7474985
0.32660028 -0.499297 -1.471504 0.5023647 0.4279914 1.0040386 1.7082353 -0.2667045
-0.7390784 1.800809 0.9233773 0.0039170347 1.3504626 0.32617608 -1.7257758 0.7765433
-0.26939195 0.64167136 0.39148438 -0.057196308 0.06260285 0.8836543 -1.4525205 0.7398129
-0.21738644 -0.44252422 -0.48111615 0.37086222 0.523354 0.923238 1.0620091 0.9017652
0.37228683 0.33417022 0.46869782 0.2495945 -0.083390445 -0.112871245 0.16852446 0.73227537
0.46827707 1.3266332 -0.8111123 0.48752353 0.3610592 0.18439361 -0.51677465 0.04210339
-0.013409286 0.028008707 0.24192125 0.42197973 -0.9937443 -1.3815904 -0.81381506 0.20425178
0.3633379 0.4094861 0.008670814 -0.61619633 -0.05681448 0.25500044 0.015695944 0.45655382
0.22105473 0.093195975 1.055179 0.17662226 0.44421896 -0.08452481 -0.24466145 -1.3451532
-0.79475343 -0.91762286 -0.4757858 0.2056502 0.5399406 -0.69389755 0.44173017 -1.142147
-0.5693433 0.4662649 -0.32960796 -0.09134868 0.95088285 -0.5034192 -0.29277375 1.2655993
-0.6239535 1.8120042 -0.10818568 1.3936286 0.16844654 1.021123 -0.8689189 -1.0199145
-0.84673566 -0.5575031 -0.3412041 0.5495168 0.011234485 -0.13276923 -0.81235117 0.033424176
-0.076968074 0.8758882 0.77778965 -1.0393423 0.37430328 -0.92438644 0.6234467 -0.2628172
1.7213626 -0.33174148 -0.048858028 0.34972817 0.83128536 -0.8797495 -0.5582649 -1.2263645
-0.096297994 -0.010983346 -0.45962027 0.015007086 -0.88080835 1.559784 1.7316186 -0.19243896
-0.04004094 -0.025167506 -0.2770131 0.8194126 -0.14522807 -1.5994933 -0.79716337 -0.75429267
-0.11118502 0.48061842 -0.8169602 0.73710704 0.10388678 0.82236195 0.778595 -1.3009069
0.4897117 -2.24255 -2.407114 -0.13706179 -0.5625199 1.366533 -0.6675053 0.91292465
0.831158 -0.16194828 0.21699019 0.86108595 -0.27936217 0.18149991 1.192379 1.2511233
-0.48891035 -1.2469419 -0.53820497 0.40544614 0.2386674 -0.82615006 0.27508315 -0.012728248
-1.042105 0.10057601 -0.080393 1.60289 0.5221999 1.3526545 0.411714 0.01664933
-0.69668823 -0.25126573 -1.7811918 0.42950743 2.3623896 -0.6409649 0.7017605 -1.4521253
0.039298248 -0.4814725 -0.5376694 -0.08760693 0.4695688 -0.81493205 -2.5266562 -0.18308952
-0.3905092 -0.43969977 0.47834414 0.53916657 1.7122111 -1.0495334 -1.6625271 0.42724445
-1.7620392 0.9828026 -0.021038275 -1.14426 0.35028255 -1.8842275 -0.95669 -0.22632734
0.5634542 -0.22526078 1.0668108 -0.4921796 -0.97187895 0.120019555 1.058368 -0.6870398
0.14400075 2.0034194 -1.2969508 0.23529117 -0.32887995 -0.57281876 -2.7864895 0.4501324
-0.32523584 0.051321182 -1.2446707 -0.66824746 -0.5040539 -0.02908486 -0.43895966 -0.2981214
00000000: abde 18bf 0d75 84bf b28f d73e d887 0cbf
00000010: b583 a0bf df82 a2bf 2f34 263f 86a5 6f3e
00000020: 0d0b 1fbe 5773 debe c251 8cbf dabd 8fbf
00000030: 0bc8 eebf 72ba 07c0 7b04 2cbf f987 41bf
00000040: fbc1 85bf 3d52 8fbe b8e6 9a3f ad0f 7dbf
00000050: 6b4e b33e 9162 87be d115 88bf 105c 3fbf
00000060: 2738 a73e dba3 ffbe 3e5a bcbf f99a 003f
00000070: b021 db3e 5684 803f 74a7 da3f 7e8d 88be
00000080: 3e34 3dbf e980 e63f 7462 6c3f 785a 803b
00000090: f5db ac3f 8d00 a73e 39e6 dcbf 8bcb 463f
000000a0: beed 89be 9344 243f a470 c83e ad46 6abd
000000b0: ec35 803d 2b37 623f 31ec b9bf 6164 3d3f
000000c0: 8d9a 5ebe 8992 e2be db54 f6be a7e1 bd3e
000000d0: 87fa 053f 5359 6c3f eaef 873f 16da 663f
000000e0: 619c be3e 5c18 ab3e 29f9 ef3e b395 7f3e
000000f0: 9cc8 aabd 0a29 e7bd ad91 2c3e 6676 3b3f
00000100: 03c2 ef3e 1ecf a93f 0ea5 4fbf af9c f93e
00000110: c0dc b83e aed1 3c3e 584b 04bf 9b74 2c3d
00000120: 9fb2 5bbc 8472 e53c 34ba 773e ba0d d83e
00000130: 0766 7ebf f4d7 b0bf 2f56 50bf 6127 513e
00000140: 6d07 ba3e 29a8 d13e 0810 0e3c 0bbf 1dbf
00000150: 4db6 68bd 6b8f 823e c894 803c 6cc1 e93e
00000160: 2c5c 623e 88dd be3d 1b10 873f 77dc 343e
00000170: ab70 e33e 581b adbd 8888 7abe fb2d acbf
00000180: f674 4bbf 55e9 6abf 329a f3be f795 523e
00000190: 8c39 0a3f 45a3 31bf 752a e23e df31 92bf
000001a0: 7cc0 11bf 46ba ee3e 60c2 a8be 0415 bbbd
000001b0: 0f6d 733f 15e0 00bf 71e6 95be 28ff a13f
000001c0: 6bbb 1fbf c1ef e73f 7490 ddbd 6c62 b23f
000001d0: 407d 2c3e 29b4 823f 7871 5ebf 8f8c 82bf
000001e0: abc3 58bf 86b8 0ebf 4eb2 aebe 22ad 0c3f
000001f0: d810 383c a8f4 07be 3ff6 4fbf cae7 083d
00000200: 70a1 9dbd 363a 603f 391d 473f 2b09 85bf
00000210: aea4 bf3e 97a4 6cbf 349a 1f3f fa8f 86be
00000220: 9c55 dc3f 05da a9be 5b1f 48bd 920f b33e
00000230: 1ecf 543f 4337 61bf 73ea 0ebf 83f9 9cbf
00000240: e237 c5bd 7ef3 33bc 5953 ebbe 48e0 753c
00000250: a87c 61bf 01a7 c73f aea5 dd3f b80e 45be
00000260: f801 24bd 162c cebc a9d4 8dbe 06c5 513f
00000270: abb6 14be 32bc ccbf e612 4cbf 5319 41bf
00000280: f9b4 e3bd 9e13 f63e 4e24 51bf 0cb3 3c3f
00000290: 98c2 d43d 5086 523f 0052 473f 1e84 a6bf
000002a0: 7ebb fa3e f085 0fc0 280e 1ac0 ed59 0cbe
000002b0: 4e01 10bf 8eea ae3f a1e1 2abf 6eb5 693f
000002c0: c5c6 543f c5d5 25be ad32 5e3e 2170 5c3f
000002d0: 8f08 8fbe 1ddb 393e e09f 983f cf24 a03f
000002e0: 7552 fabe cb9b 9fbf cdc7 09bf a396 cf3e
000002f0: 3a65 743e 927e 53bf b3d7 8c3e 248a 50bc
00000300: b263 85bf ccfa cd3d 16a5 a4bd 802b cd3f
00000310: e5ae 053f c823 ad3f 2dcc d23e 2d64 883c
00000320: 295a 32bf e7a5 80be 18fe e3bf 66e8 db3e
00000330: 6431 1740 4716 24bf 93a6 333f 3edf b9bf
00000340: 33f7 203d 9083 f6be b4a4 09bf 436b b3bd
00000350: 526b f03e 639f 50bf bcb4 21c0 d27b 3bbe
00000360: d2f0 c7be 5420 e1be 86e9 f43e d206 0a3f
00000370: bc29 db3f 1c57 86bf b0cd d4bf c9bf da3e
00000380: 808a e1bf f498 7b3f 7658 acbc 1d77 92bf
00000390: 3c58 b33e 5e2e f1bf a3e9 74bf 5bc2 67be
000003a0: 893e 103f c3aa 66be 428d 883f f7fe fbbe
000003b0: 0fcd 78bf d0cc f53d 9a78 873f d7e1 2fbf
000003c0: ef74 133e 0638 0040 7c02 a6bf 2bf0 703e
000003d0: f462 a8be 40a4 12bf d855 32c0 c177 e63e
000003e0: 5085 a6be 2936 523d 5f51 9fbf 4412 2bbf
000003f0: ad09 01bf 5f43 eebc 52bf e0be 5ea3 98be

category_emb.embedding.1.weight f4 [7, 32]
-0.6624131 -0.18354666 -0.49640208 -0.009734517 0.51200837 -0.26396438 -1.1194665 0.21857534
1.1357073 0.2817009 0.0089863045 0.4688973 -1.0630617 1.1149802 -1.0067191 0.87334216
0.27852088 -0.35595402 -0.7008135 -1.5753618 -0.35997358 -0.46646866 0.5397465 0.61319625
0.23561847 -0.78458476 -0.26796854 0.13257399 0.058983885 0.5383044 0.39081082 -0.02046734
0.027371258 0.8924412 0.11263956 -1.0508747 -1.2473181 -0.24174677 0.8563139 0.01947152
-0.59170103 0.22579785 0.965414 -0.48249674 1.3106402 0.076409094 -0.46579123 0.034636628
0.57278395 0.49077347 0.14547817 -0.51074606 0.55899125 -0.016863432 -1.0525749 -0.6243128
0.099580765 0.23619884 0.124759145 0.23257193 -0.06849487 0.030410897 -0.4749487 -0.28253534
-0.022566263 0.44286984 -0.07483221 -0.4593761 0.24132673 -0.36555487 -1.5145302 0.5340795
0.55579644 -0.34819195 -1.2528445 0.20862532 -0.28175944 -0.35521257 -0.679683 1.6424391
-0.21197474 1.145115 1.246862 0.11355611 0.31052685 0.7203556 -0.4471503 0.45542833
-0.3829048 -0.8561255 0.04274785 -0.14339274 0.0022708364 -0.52770895 0.049799394 -0.0786385
0.49289957 0.41883776 0.5975945 0.4540917 -0.25208157 -0.90529114 -0.9697511 0.3199351
0.28335586 -0.17316087 -0.042280618 -0.34831285 0.31136322 0.92410135 -0.45870686 0.13149998
0.10880619 -0.053454734 1.1742022 -0.79765284 -0.5281524 0.023108087 -0.57674664 -0.5897605
0.3373658 -0.10334858 0.10498053 0.03224018 0.011286912 -0.15420604 -0.31071562 0.027669972
0.354557 0.31763738 -0.09009025 0.5500483 0.0076970896 -0.111891516 -0.9656196 0.051257364
-0.99616283 -0.50530624 1.1191311 -0.26411557 -0.4824441 -0.6330097 -0.45578936 1.4364195
0.19562283 0.45569718 0.052483086 -0.9028423 -0.071133345 0.27351043 -0.49778888 1.1971198
0.036685932 0.5902852 0.29521495 -0.096639015 0.039338283 0.19296552 -0.4883927 0.5254632
-0.61423117 -1.1693612 -0.45960957 -0.09374422 -0.08460704 0.6719792 -0.28567088 1.884242
0.42470637 0.30877388 1.2853667 -0.03806829 1.0761654 -0.7068694 -1.2804137 -0.19028762
-0.57478195 -1.9126244 -0.027204558 -0.2319468 0.23898433 0.38687113 0.9396733 -0.5010162
-0.2833632 -0.09008597 -0.15442659 0.036769554 -0.004391626 0.17263435 0.30708063 -0.87276256
1.4878017 -0.48566368 -0.032982886 -0.07080972 0.4677114 0.80118215 0.28988257 -0.11012037
-0.45894152 0.54642254 2.184983 0.2973309 0.17355779 -0.28204492 1.6005862 0.43532565
-0.3256874 1.1655127 0.98899984 -0.95143646 0.37589514 -0.58191395 1.0376117 -1.575484
-0.14770307 -1.1186628 -0.2652878 -0.52067536 -0.07761448 -0.22160351 0.5230447 -0.5787606
00000000: e893 29bf a8f3 3bbe 6a28 febe 867d 1fbc
00000010: fb12 033f 5726 87be ae4a 8fbf 37d2 5f3e
00000020: db5e 913f 1a3b 903e 4b3b 133c 4f13 f03e
00000030: 6812 88bf acb7 8e3f 2cdc 80bf 5a93 5f3f
00000040: 4a9a 8e3e 9b3f b6be 8368 33bf 75a5 c9bf
00000050: 754e b8be fbd4 eebe d42c 0a3f 6efa 1c3f
00000060: f845 713e 8cda 48bf 2c33 89be 7ac1 073e
00000070: 1699 713d 51ce 093f 5b18 c83e 1fab a7bc
00000080: b039 e03c 0777 643f 92af e63d 1083 86bf
00000090: 1fa8 9fbf 778c 77be 6337 5b3f bd82 9f3c
000000a0: b879 17bf 8d37 673e 5f25 773f d009 f7be
000000b0: 0fc3 a73f 5f7c 9c3d 307c eebe 23df 0d3d
000000c0: f8a1 123f a946 fb3e 3bf8 143e 41c0 02bf
000000d0: 0d1a 0f3f 2e25 8abc c6ba 86bf f7d2 1fbf
000000e0: 00f1 cb3d 1cde 713e b981 ff3d 5627 6e3e
000000f0: 0a47 8cbd 4620 f93c 7a2c f3be 79a8 90be
00000100: e2dc b8bc d6bf e23e a141 99bd 5833 ebbe
00000110: 5b1e 773e 022a bbbe 20dc c1bf 6fb9 083f
00000120: ad48 0e3f 3746 b2be 355d a0bf e0a1 553e
00000130: c642 90be 6cde b5be b5ff 2dbf 723b d23f
00000140: e80f 59be 2193 923f 2d99 9f3f 1b90 e83d
00000150: 60fd 9e3e 3969 383f e2f0 e4be e72d e93e
00000160: 190c c4be 0a2b 5bbf 5f18 2f3d 8cd5 12be
00000170: 50d2 143b ef17 07bf 73fa 4b3d 390d a1bd
00000180: 555d fc3e e771 d63e f4fb 183f b57e e83e
00000190: d610 81be 29c1 67bf 9c41 78bf 89ce a33e
000001a0: 0514 913e 1551 31be 712e 2dbd 1056 b2be
000001b0: 006b 9f3e e891 6c3f a0db eabe eea7 063e
000001c0: c8d5 de3d 5af3 5abd 424c 963f fa32 4cbf
000001d0: ff34 07bf 2c4d bd3c aba5 13bf 8bfa 16bf
000001e0: 36bb ac3e 6ca8 d3bd 0800 d73d 470e 043d
000001f0: bdec 383c 30e8 1dbe 1e16 9fbe 23ac e23c
00000200: 7f88 b53e 5ea1 a23e 3d81 b8bd f7cf 0c3f
00000210: de37 fc3b 6127 e5bd d932 77bf 3ef3 513d
00000220: 8704 7fbf c05b 01bf b03f 8f3f 283a 87be
00000230: ea02 f7be ec0c 22bf 395d e9be 98dc b73f
00000240: 5a51 483e 2451 e93e 81f8 563d ac20 67bf
00000250: 5cae 91bd 8f09 8c3e 2fde febe 393b 993f
00000260: fd43 163d ee1c 173f 6a26 973e adea c5bd
00000270: 2e21 213d c198 453e 9c0e fabe c284 063f
00000280: 413e 1dbf a1ad 95bf f251 ebbe f8fc bfbd
00000290: 7546 adbd d406 2c3f 7443 92be d82e f13f
000002a0: 1d73 d93e 9c17 9e3e e586 a43f 7fed 1bbd
000002b0: cabf 893f 65f5 34bf 99e4 a3bf c2da 42be
000002c0: e924 13bf e0d0 f4bf 18dc debc 7683 6dbe
000002d0: 4fb8 743e f913 c63e 6e8e 703f 9942 00bf
000002e0: fb14 91be fe7e b8bd 0122 1ebe ac9b 163d
000002f0: a1e7 8fbb 0fc7 303e ac39 9d3e 5e6d 5fbf
00000300: 4970 be3f e9a8 f8be 1019 07bd b004 91bd
00000310: de77 ef3e 461a 4d3f 7d6b 943e ca86 e1bd
00000320: 62fa eabe 59e2 0b3f c3d6 0b40 c13b 983e
00000330: 22b9 313e 3168 90be 02e0 cc3f 01e3 de3e
00000340: 80c0 a6be 852f 953f 182f 7d3f 5791 73bf
00000350: 5475 c03e 50f8 14bf 76d0 843f 76a9 c9bf
00000360: 793f 17be 5830 8fbf cdd3 87be fb4a 05bf
00000370: 57f4 9ebd 08ec 62be 42e6 053f a829 14bf

category_emb.embedding.2.weight f4 [24, 32]
0.8964103 -1.1791445 -0.39417243 0.090770684 1.4005055 -1.6398563 0.46786824 -1.2824993
-0.5011241 -0.9142021 0.52343285 -0.12924384 -0.2990542 0.2929491 -0.4404227 -0.57991284
-0.5524085 -1.0942408 0.005614349 -0.443328 -0.26871562 0.55928797 -1.1571541 0.5146246
1.3673551 0.50615376 0.4528613 -1.6672938 -0.13489282 0.19029532 -1.7836353 0.5891342
-1.9803469 -1.5170053 1.6952817 0.19795927 1.4787341 0.8582638 0.049312197 -2.0040934
0.079252265 -1.6388015 -0.97534543 -0.2960875 0.19925492 -0.3235563 -0.31373313 -1.3362097
-0.56231767 -0.35820675 0.006901319 -1.323705 1.3457811 1.4685923 0.11643586 -0.82319653
-0.32037506 0.14968383 1.0001407 -2.25264 -0.6840097 0.63320273 0.30611587 -0.8238256
-0.6552267 -1.1091172 0.21461026 -0.829204 0.9825718 -1.7959431 0.37887013 -0.9032698
0.94099814 -0.24034037 -1.5433649 -0.38252947 0.37104604 -0.80228436 -0.9612973 0.51477534
0.67779833 0.25319228 1.162009 -0.30974296 -0.2715363 -0.60691917 0.5572393 -1.1811658
0.7312614 1.132481 0.3209485 -1.8714633 0.3789011 0.763392 -1.0603515 1.1265813
-1.5800772 -1.4514226 1.0237157 -1.2689521 0.8422836 -1.0512516 0.9961221 0.1597754
1.0895926 -0.06504296 -1.1183928 -0.92518914 0.32161948 0.5503547 0.4301138 -0.12087026
1.3429682 0.70171267 -1.3486221 0.8586227 -1.9862896 0.07475063 0.6184865 0.27780178
-1.1531495 1.3815717 0.35944533 -0.8821266 -1.9176172 0.80377567 1.1731504 1.7048898
-1.4809748 -2.1951792 -0.1148672 -1.2606454 1.2648246 0.87028533 -1.6107485 -0.8043179
1.176411 0.16956279 -0.34642437 -0.1517597 -0.3774589 -0.08470097 1.2264277 -0.71308935
2.0782812 -0.29945448 0.07777224 0.010250856 -0.7018171 -0.40078324 1.2490096 -0.6737646
0.37632996 -0.2748039 -0.6115405 -1.1121274 -0.66684675 -0.08159647 -0.47524315 0.43092698
-0.180523 0.8053108 -0.08420763 -1.5753685 -0.31350833 1.8395387 -0.11574308 1.2526488
0.9868801 1.1597928 1.1887157 0.48360118 -0.933012 0.683721 -0.29930001 -0.13142218
-0.3984237 0.6591257 -0.67502123 -1.080128 -1.1409181 -0.33741486 -1.0555229 -0.34162825
-0.001450421 0.9661774 -0.46405435 -0.9521447 -1.0342782 -0.053340912 0.86995775 2.6541092
-0.6971403 -0.040306177 0.025136262 -1.8271772 -0.74403226 0.7137788 0.7520222 -0.37890047
-1.631714 0.91883314 1.0035127 1.4691117 -0.45999876 0.1807159 -0.50031084 0.21014756
-0.1169251 -0.73386806 -0.5902525 0.25519872 0.2514591 -0.46918738 1.0821978 1.0325658
0.047489483 -0.9283856 -0.946464 -1.9847059 0.83453393 -0.41025066 -0.0729465 -0.3995638
-0.62014234 3.0233693 -0.19765124 0.45738602 -0.36906797 -0.21431403 -1.1576512 -0.7501445
0.6762751 0.19398384 0.8115312 0.1775613 -0.5922875 -0.3889438 -0.46269313 0.27076268
-1.1853358 -0.1776759 0.46960303 -0.5355393 -0.052044503 -0.101607546 1.3957427 0.93328196
-0.38312012 -0.4970012 -0.66152453 0.06952614 -0.2542931 0.06840679 -0.89152634 0.20896916
00000000: 257b 653f 35ee 96bf f8d0 c9be fbe5 b93d
00000010: c443 b33f d0e6 d1bf 6d8c ef3e f028 a4bf
00000020: ab49 00bf 2609 6abf b2ff 053f 7f58 04be
00000030: a21d 99be 6dfd 953e 167f e1be 2b75 14bf
00000040: a56a 0dbf 1510 8cbf 93f8 b73b e3fb e2be
00000050: 1895 89be 7f2d 0f3f a01d 94bf 70be 033f
00000060: 7e05 af3f 4b93 013f 70dd e73e e269 d5bf
00000070: 5821 0abe c7dc 423e 294e e4bf 80d1 163f
00000080: 027c fdbf 3b2d c2bf fefe d83f d6b5 4a3e
00000090: 2947 bd3f 2db7 5b3f 96fb 493d 1143 00c0
000000a0: 034f a23d 3fc4 d1bf 3db0 79bf c898 97be
000000b0: 7b09 4c3e 2ca9 a5be a1a1 a0be eb08 abbf
000000c0: 0df4 0fbf e066 b7be 7624 e23b 2a6f a9bf
000000d0: 8e42 ac3f d5fa bb3f ed75 ee3d 02bd 52bf
000000e0: 3308 a4be b846 193e 9c04 803f 412b 10c0
000000f0: 421b 2fbf 9319 223f 38bb 9c3e 3ce6 52bf
00000100: f0bc 27bf 8df7 8dbf cbc2 5b3e b746 54bf
00000110: d389 7b3f 77e1 e5bf 44fb c13e b13c 67bf
00000120: 41e5 703f c91b 76be fb8c c5bf e7da c3be
00000130: bff9 bd3e 8262 4dbf 9417 76bf 51c8 033f
00000140: 3184 2d3f 6ba2 813e b6bc 943f a196 9ebe
00000150: ce06 8bbe 0e5f 1bbf 3ca7 0e3f 7130 97bf
00000160: f233 3b3f 23f5 903f 5d53 a43e 1c8c efbf
00000170: 53ff c13e a86d 433f 99b9 87bf d133 903f
00000180: f83f cabf 37c8 b9bf 1e09 833f 066d a2bf
00000190: e69f 573f 6a8f 86bf dc01 7f3f 2a9c 233e
000001a0: c577 8b3f 3e35 85bd 7f27 8fbf 32d9 6cbf
000001b0: 4fab a43e 0ce4 0c3f e037 dc3e d48a f7bd
000001c0: 62e6 ab3f 71a3 333f a69f acbf b3ce 5b3f
000001d0: bd3e febf dc16 993d 2255 1e3f 093c 8e3e
000001e0: 679a 93bf 57d7 b03f 3809 b83e 0dd3 61bf
000001f0: 7b74 f5bf 3ec4 4d3f cb29 963f d439 da3f
00000200: 9590 bdbf d17d 0cc0 7f3f ebbd d45c a1bf
00000210: c6e5 a13f 05cb 5e3f 022d cebf c7e7 4dbf
00000220: a394 963f dea1 2d3e 895e b1be e566 1bbe
00000230: 4b42 c1be b477 adbd 95fb 9c3f 068d 36bf
00000240: 8f02 0540 1952 99be 0d47 9f3d 35f3 273c
00000250: 49aa 33bf 7633 cdbe 8cdf 9f3f d67b 2cbf
00000260: 52ae c03e 19b3 8cbe eb8d 1cbf 315a 8ebf
00000270: 78b6 2abf 0d1c a7bd 1253 f3be 76a2 dc3e
00000280: 05db 38be d928 4e3f 0d75 acbd ada5 c9bf
00000290: 2a84 a0be 0176 eb3f b50a edbd cc56 a03f
000002a0: 2da4 7c3f 1774 943f d627 983f 939a f73e
000002b0: e0d9 6ebf 5708 2f3f da3d 99be 8993 06be
000002c0: 31fe cbbe 76bc 283f 31ce 2cbf a241 8abf
000002d0: 9b09 92bf a4c1 acbe 601b 87bf e6e9 aebe
000002e0: 0e1c beba 6757 773f 8898 edbe c1bf 73bf
000002f0: 3a63 84bf 007c 5abd 8db5 5e3f eddc 2940
00000300: c977 32bf 1718 25bd 90ea cd3c f1e0 e9bf
00000310: e678 3ebf 35ba 363f 8784 403f 3eff c1be
00000320: 01dc d0bf a638 6b3f 1b73 803f da0b bc3f
00000330: f584 ebbe 970d 393e 5f14 00bf ec30 573e
00000340: 6d76 efbd c7de 3bbf ca1a 17bf 68a9 823e
00000350: 3fbf 803e 5439 f0be 7585 8a3f 1e2b 843f
00000360: 5584 423d aeaa 6dbf 774b 72bf d80a febf
00000370: 04a4 553f 600c d2be f964 95bd a093 ccbe
00000380: a6c1 1ebf e27e 4140 1665 4abe 802e ea3e
00000390: 7af6 bcbe 2375 5bbe ea2d 94bf 7809 40bf
000003a0: 5d20 2d3f b3a3 463e 82c0 4f3f a1d2 353e
000003b0: 27a0 17bf a423 c7be 1de6 ecbe 68a1 8a3e
000003c0: 15b9 97bf acf0 35be cf6f f03e 1b19 09bf
000003d0: 9e2c 55bd 9e17 d0bd b2a7 b23f 91eb 6e3f
000003e0: 5228 c4be f176 febe ac59 29bf b963 8e3d
000003f0: b532 82be dc18 8c3d 123b 64bf 03fc 553e

category_emb.embedding.3.weight f4 [2, 32]
-0.0137895765 0.20642172 0.015142346 -0.010073039 -0.09698593 -0.06521864 1.1485823 -0.5094453
0.005907202 0.028430998 -1.4156437 0.9323682 1.6750983 0.011071365 1.0172504 -0.3736929
0.027784482 0.5662554 -0.24064212 -0.109013416 -0.021050123 -0.32382578 -0.01825487 0.29762772
0.8618556 -0.44775572 -0.7677747 -0.084754355 -0.21147436 -0.29692248 0.07957496 -0.0074097877
-0.00044018868 -0.7288337 0.003567244 0.0025789107 -0.0023876266 -0.03323387 0.35705227 -0.002947979
0.0017500416 -0.00674471 0.5559207 0.08129737 0.5056306 -0.0023718968 -0.96161675 -0.0974489
-0.015374451 1.0536475 -0.060423117 0.015898379 0.0023295232 -0.02498875 -0.0010199057 -0.028249014
0.15556394 -0.16109951 -0.53090584 -0.014802191 -0.017027304 -0.0083083715 -0.024900233 -0.0009190014
00000000: aded 61bc 3760 533e 9a17 783c 6309 25bc
00000010: 8fa0 c6bd 5a91 85bd bf04 933f 026b 02bf
00000020: 3491 c13b 20e8 e83c d033 b5bf afaf 6e3f
00000030: 9f69 d63f ac64 353c 4335 823f ad54 bfbe
00000040: 489c e33c 1df6 103f e36a 76be 6d42 dfbd
00000050: 4f71 acbc 7ecc a5be 3d8b 95bc a962 983e
00000060: 92a2 5c3f 3d40 e5be e28c 44bf b193 adbd
00000070: bc8c 58be 3906 98be 32f8 a23d cecd f2bb
00000080: 20c9 e6b9 d894 3abf 6cc8 693b f102 293b
00000090: ba79 1cbb 3d20 08bd 8ecf b63e e132 41bb
000000a0: a761 e53a ba02 ddbb d250 0e3f 3c7f a63d
000000b0: 0271 013f d371 1bbb 842c 76bf 4a93 c7bd
000000c0: 1fe5 7bbc ecdd 863f 3b7e 77bd 513d 823c
000000d0: eaaa 183b 35b5 ccbc 5bae 85ba 7a6a e7bc
000000e0: 274c 1f3e 45f7 24be 72e9 07bf e484 72bc
000000f0: d87c 8bbc d61f 08bc 93fb cbbc 24e9 70ba

continuous_emb.embedding.0.weight f4 [32, 1]
0.0025319955 1.2260611 -1.2725316 1.7953758 -0.0905274 -0.58667123 1.298159 1.6136259
0.3180013 1.4356323 -1.1229056 0.0038147536 -1.5638056 -0.8604536 -0.23596805 -1.6166973
0.01021248 1.391376 -1.0119287 1.3277833 1.9924518 1.2110927 1.2959524 -0.6348105
0.031913713 -0.44746184 -1.3451508 -1.6063696 1.171025 -1.3829226 -1.1630454 1.4449519
00000000: d6ef 253b 92ef 9c3f 51e2 a2bf e0ce e53f
00000010: 6e66 b9bd 1630 16bf 132a a63f 4b8b ce3f
00000020: 11d1 a23e cdc2 b73f 5fbb 8fbf f200 7a3b
00000030: c82a c8bf b046 5cbf 9ca1 71be f0ef cebf
00000040: 3f52 273c 9c18 b23f e186 81bf cef4 a93f
00000050: a908 ff3f 1605 9b3f c5e1 a53f f182 22bf
00000060: f4b7 023d b819 e5be e72d acbf 859d cdbf
00000070: 26e4 953f 9c03 b1bf acde 94bf 2ff4 b83f

continuous_emb.embedding.0.bias f4 [32]
0.0016512636 -0.2868182 -0.008969706 -0.18369435 0.04605279 0.29826906 -0.47819227 0.063294746
-0.16814917 -0.52226186 0.026330477 0.001253212 -0.3005837 0.4624496 0.18261817 0.07647275
-0.007760807 -0.06497734 0.56770736 -0.19936115 0.009127663 0.14198515 0.43417874 0.33649218
-0.0067052273 0.24162374 0.20147878 0.16964665 -0.6534758 0.7413384 0.3628456 0.008653094
00000000: 366f d83a d6d9 92be acf5 12bc 5f1a 3cbe
00000010: daa1 3c3d b9b6 983e 9ed5 f4be ada0 813d
00000020: 4c2f 2cbe f4b2 05bf 03b3 d73c d142 a43a
00000030: 1be6 99be 32c6 ec3e 4200 3b3e bf9d 9c3d
00000040: 5e4e febb d712 85bd 4555 113f 5425 4cbe
00000050: 328c 153c 8e64 113e ad4c de3e b448 ac3e
00000060: 86b7 dbbb 376c 773e 7450 4e3e dab7 2d3e
00000070: 314a 27bf 5ac8 3d3f e6c6 b93e b5c5 0d3c

continuous_emb.embedding.1.weight f4 [32, 1]
0.0025319955 1.2260611 -1.2725316 1.7953758 -0.0905274 -0.58667123 1.298159 1.6136259
0.3180013 1.4356323 -1.1229056 0.0038147536 -1.5638056 -0.8604536 -0.23596805 -1.6166973
0.01021248 1.391376 -1.0119287 1.3277833 1.9924518 1.2110927 1.2959524 -0.6348105
0.031913713 -0.44746184 -1.3451508 -1.6063696 1.171025 -1.3829226 -1.1630454 1.4449519
00000000: d6ef 253b 92ef 9c3f 51e2 a2bf e0ce e53f
00000010: 6e66 b9bd 1630 16bf 132a a63f 4b8b ce3f
00000020: 11d1 a23e cdc2 b73f 5fbb 8fbf f200 7a3b
00000030: c82a c8bf b046 5cbf 9ca1 71be f0ef cebf
00000040: 3f52 273c 9c18 b23f e186 81bf cef4 a93f
00000050: a908 ff3f 1605 9b3f c5e1 a53f f182 22bf
00000060: f4b7 023d b819 e5be e72d acbf 859d cdbf
00000070: 26e4 953f 9c03 b1bf acde 94bf 2ff4 b83f

continuous_emb.embedding.1.bias f4 [32]
0.0016512636 -0.2868182 -0.008969706 -0.18369435 0.04605279 0.29826906 -0.47819227 0.063294746
-0.16814917 -0.52226186 0.026330477 0.001253212 -0.3005837 0.4624496 0.18261817 0.07647275
-0.007760807 -0.06497734 0.56770736 -0.19936115 0.009127663 0.14198515 0.43417874 0.33649218
-0.0067052273 0.24162374 0.20147878 0.16964665 -0.6534758 0.7413384 0.3628456 0.008653094
00000000: 366f d83a d6d9 92be acf5 12bc 5f1a 3cbe
00000010: daa1 3c3d b9b6 983e 9ed5 f4be ada0 813d
00000020: 4c2f 2cbe f4b2 05bf 03b3 d73c d142 a43a
00000030: 1be6 99be 32c6 ec3e 4200 3b3e bf9d 9c3d
00000040: 5e4e febb d712 85bd 4555 113f 5425 4cbe
00000050: 328c 153c 8e64 113e ad4c de3e b448 ac3e
00000060: 86b7 dbbb 376c 773e 7450 4e3e dab7 2d3e
00000070: 314a 27bf 5ac8 3d3f e6c6 b93e b5c5 0d3c
