TFT_power/best_model/best2.pth (torch, 543034 bytes, 348 tensors)

static_cate_emb.embedding.0.weight f4 [101, 32]
0	0x3ff6a529	1.9269153
1	0x3fbe5f53	1.4872841
2	0x3f669567	0.9007172
3	0xc006c0db	-2.105521
4	0x3f2dacd5	0.67841846
5	0xbf9e0591	-1.2345449
6	0xbd306786	-0.043067478
7	0xbfcd65ba	-1.604667
8	0xbf408bf0	-0.7521353
9	0x3fd3095b	1.648723
10	0xbec8f2f6	-0.39247864
11	0xbfb3a966	-1.4036071
12	0xbf3a566e	-0.7278813
13	0xbf0f36d1	-0.5594302
14	0xbf44d2a0	-0.7688389
15	0x3f432f9f	0.7624454
16	0x3fd23771	1.6423169
17	0xbe236d85	-0.15959747
18	0xbefeaae4	-0.49739754
19	0x3ee111d8	0.43958926
20	0xbf4214e2	-0.75813115
21	0x3f8a0650	1.0783176
22	0x3f4d0144	0.80080056
23	0x3fd71e93	1.6806206
24	0x3fa3ba59	1.2791244
25	0x3fa5f12f	1.2964228
26	0x3f1c4788	0.6104665
27	0x3faad8b0	1.3347378
28	0xbe6d2eed	-0.23162432
29	0x3d2b0c00	0.04175949
30	0xbe80ce7a	-0.2515753
31	0x3f5c1fb0	0.8598585
32	0xbf81423d	-1.0098339
33	0xbe81772b	-0.2528623
34	0xbebea63a	-0.37236196
35	0x3fdf1c53	1.7430519
36	0x3efc7688	0.49309182
37	0xbf060057	-0.5234427
38	0xbedcc00b	-0.43115267
39	0xbf2fb7fb	-0.68640107
40	0xbfff4f35	-1.9946047
41	0x3f58f788	0.847527
42	0xbf88c9b6	-1.0686557
43	0xbf3c82c2	-0.7363702
44	0xbfb2916b	-1.3950628
45	0x40167216	2.3507133
46	0xbecaaf5d	-0.39586917
47	0xbf9b3ce5	-1.2127959
48	0xbfb1ac89	-1.3880779
49	0xbeabad0e	-0.33530468
50	0xbdbae87d	-0.09126375
51	0x3ec2218a	0.37916213
52	0xbf229378	-0.6350627
53	0x3fb50ebf	1.4145125
54	0xbf9967dc	-1.198482
55	0xbfa17f77	-1.2617024
56	0xbf7f8e10	-0.99826145
57	0x3dfbd98d	0.12297354
58	0xbedb9e38	-0.4289415
59	0x3f634c82	0.88788617
60	0x3e87ed78	0.26548362
61	0x3ff67348	1.9253931
62	0xbf77fadd	-0.9686716
63	0x3f9901a5	1.1953627
64	0x3fa229d9	1.2669021
65	0x3f9ea34c	1.2393584
66	0x3f947311	1.1597615
67	0xbf177223	-0.59158534
68	0x3f8661bc	1.0498576
69	0xbf3b9d86	-0.73287237
70	0xbfe63e2f	-1.7987727
71	0x3fc1b17c	1.5132289
72	0xbe157f21	-0.14599277
73	0x3e3bd6a9	0.18343605
74	0x3da382a0	0.07983899
75	0x3e539d00	0.2066536
76	0x3f2e17d5	0.68005115
77	0xbeccc495	-0.3999373
78	0xbfe3b274	-1.7788835
79	0xbe582b4b	-0.21110265
80	0x3f080252	0.5312854
81	0xbebacd2f	-0.36484668
82	0xbfc0b2bb	-1.5054544
83	0xbf5f6c9d	-0.87275106
84	0x3f3d7bdf	0.7401714
85	0xbcee587f	-0.029094933
86	0x3f1db182	0.6159898
87	0x3f1d4ab3	0.61442107
88	0x3f7b7f5d	0.98241216
89	0xbfbfbbea	-1.4979222
90	0xbfc385ac	-1.5275168
91	0x3f246ed5	0.64231616
92	0xc00eeac4	-2.233079
93	0xbe6bb0b9	-0.23016633
94	0x3fa31125	1.2739607
95	0x3f6cb844	0.9246867
96	0xc035c9a1	-2.8404315
97	0x3ea0bdcf	0.31394812
98	0x3f5976b6	0.84946764
99	0x3ebaefca	0.3651107
100	0x3ef8dfde	0.48608297
101	0x3f244fce	0.6418427
102	0xbe4e0e6f	-0.20122693
103	0xbe29b285	-0.16572006
104	0xbe6a563a	-0.22884455
105	0x3fb6b6aa	1.4274495
106	0x3f850647	1.0392541
107	0xbf03e20a	-0.51516783
108	0x3ea3a73f	0.31963536
109	0x3f8ca433	1.098761
110	0x3f54eec5	0.83176833
111	0xbf5a93c2	-0.8538171
112	0xbfa5693b	-1.2922739
113	0x3deef2e4	0.116674215
114	0xbfa18af9	-1.2620536
115	0x3e9198fe	0.28437036
116	0x3ec19be4	0.37814248
117	0xbe68a44d	-0.22718926
118	0xbe4bd80f	-0.19906639
119	0x3e1341c8	0.14380562
120	0x3debf0c8	0.11520535
121	0x3d2eb2c4	0.042650953
122	0xbdf4f915	-0.11961571
123	0x3ed73537	0.42032787
124	0x3f95043d	1.1641918
125	0x3f2447e5	0.641722
126	0x3f02115a	0.50807726
127	0x3cb14867	0.02164097
128	0x3f6bdb87	0.9213185
129	0x3e92025f	0.28517434
130	0xbf7d4366	-0.98930967
131	0xbfb50b30	-1.4144039
132	0xbe136764	-0.14394909
133	0x3fe4ffcc	1.7890563
134	0x3dd3a3ec	0.10334
135	0x3f760010	0.96093845
136	0x3f900644	1.1251912
137	0x3e8267bf	0.25469777
138	0xbfc1162f	-1.5084895
139	0x3cc2ec12	0.023794208
140	0xbf66a99e	-0.90102565
141	0x3f9e818c	1.2383285
142	0x3cca8385	0.024720917
143	0x3f2f4d4a	0.6847731
144	0xbf86d7e6	-1.0534637
145	0x3fa78a8a	1.3089154
146	0x3fabf2bd	1.3433453
147	0x3f881f49	1.0634547
148	0xbe950f5d	-0.29113284
149	0xbf2ccf08	-0.67503405
150	0xbfcff8e9	-1.6247836
151	0x3e942bf3	0.2893978
152	0x3e519982	0.20468715
153	0x3eede7d1	0.46465924
154	0xbef47c06	-0.47750872
155	0x3fdad85c	1.7097278
156	0xc03fa2e6	-2.9943175
157	0xbf06a783	-0.5259935
158	0xbf4dcd96	-0.80391824
159	0x3fffebc2	1.9993823
160	0xc00458a2	-2.0679097
161	0x3eb8621c	0.36012352
162	0x3e55b046	0.20868024
163	0xbeb76ad7	-0.358237
164	0x3f90a0ba	1.129905
165	0xbe923293	-0.2855421
166	0xbe8cba68	-0.27485967
167	0xbf498236	-0.7871431
168	0xbf88f93e	-1.0701063
169	0x3fb81278	1.4380636
170	0x3f4f1c27	0.8090233
171	0xbee8ffac	-0.45507562
172	0xbfce60bd	-1.6123272
173	0x3f4b7996	0.794824
174	0x3ed9d5ad	0.42545834
175	0x3ff44a28	1.9085131
176	0xbe075776	-0.13216957
177	0x3ea7dbf6	0.32785004
178	0xbf79a59e	-0.97518337
179	0xbee776c5	-0.452078
180	0xbf3557fa	-0.70837367
181	0xc004b9be	-2.0738368
182	0xbfafa2eb	-1.3721594
183	0xbe746239	-0.23865594
184	0xbeb04b05	-0.34432235
185	0xbfe637c4	-1.7985768
186	0xc002abac	-2.041728
187	0x3dd7d9d4	0.10539594
188	0x3f0dd084	0.55396295
189	0xbf305b74	-0.68889546
190	0x3efa2a58	0.4886043
191	0x3faf50e1	1.3696557
192	0x3febc13d	1.8418347
193	0xbfa61a57	-1.2976788
194	0x3f960d3b	1.1722788
195	0xbecd5c31	-0.401094
196	0xbfb24037	-1.3925847
197	0x3e5026c9	0.20327295
198	0x3e780d46	0.24223813
199	0x3fa7b2eb	1.3101476
200	0x3dbac06e	0.09118734
201	0x4019a60f	2.4007604
202	0xbecceb4f	-0.40023276
203	0xbf9aee42	-1.210396
204	0xbded2097	-0.11578482
205	0x3fa3231f	1.2745093
206	0x3fcd2e88	1.6029825
207	0x3efa7d19	0.48923567
208	0xbf4578cf	-0.77137464
209	0xbf8b2d5d	-1.0873219
210	0xbedece0d	-0.4351658
211	0xbeca3a7b	-0.39497742
212	0xbc9125a2	-0.01771814
213	0x3f85b0ba	1.0444558
214	0xbd949461	-0.072548635
215	0xc0104d91	-2.2547343
216	0xbf0580ab	-0.52149457
217	0x3e998de2	0.2999106
218	0xbfdb86e4	-1.715054
219	0x3fe024eb	1.7511266
220	0x3ef3df5c	0.47631347
221	0xbf0c824f	-0.54886335
222	0x3f75ab0e	0.95964134
223	0x3fb92455	1.4464213
224	0xbf2aad00	-0.6667023
225	0x3ff283fb	1.8946527
226	0x3d23b459	0.039966915
227	0xbf9f6500	-1.2452698
228	0xbc8f67b1	-0.017505499
229	0x3e8e4cbc	0.2779292
230	0x3f97a188	1.184617
231	0x400f5092	2.2392926
232	0xbeaa0583	-0.3320733
233	0xbfa7fea7	-1.3124589
234	0xbfefcc63	-1.8734249
235	0xbf086e76	-0.5329355
236	0x3d6ba3df	0.057529327
237	0xbec434fa	-0.38321668
238	0xbf1ff99c	-0.6249025
239	0x3f09c458	0.5381522
240	0xbf9457a2	-1.1589243
241	0xbdccd1c3	-0.100009464
242	0xbdd786b0	-0.105237365
243	0x3ef73088	0.48279214
244	0xbe98c274	-0.29835856
245	0xbe8a07b7	-0.2695901
246	0xbef27f28	-0.47362638
247	0x3fc89eac	1.5673423
248	0x3f6f363c	0.9344213
249	0xbed10bd1	-0.40829328
250	0x3f7c0666	0.98447263
251	0x3f15559d	0.5833376
252	0x3f2e5f66	0.68114316
253	0x3e34f1d4	0.17670375
254	0x3f592f01	0.8483735
255	0x3f2281e2	0.63479435

future_emb.embedding.0.weight f4 [32, 32]
0	0x3f7baa73	0.9830696
1	0xbfd33e9d	-1.6503483
2	0xbf5840ce	-0.84473884
3	0xbfe38da4	-1.77776
4	0x3fd70213	1.6797508
5	0xbe9d7991	-0.3075681
6	0x3e367582	0.17818263
7	0x3e9ca97f	0.30598065
8	0x3f25a02f	0.64697546
9	0x3fa66975	1.3000933
10	0x3f24a216	0.64309824
11	0xbfa8da37	-1.3191594
12	0xbf11c385	-0.56938964
13	0xbff3260f	-1.899599
14	0x3e8110dd	0.25208178
15	0x3f399052	0.7248584
16	0xbc2eae30	-0.010661647
17	0x3ea71823	0.32635602
18	0xbecc5af9	-0.39913157
19	0xbf0bba3a	-0.54581034
20	0xbf7303c0	-0.949276
21	0xbf1527bf	-0.5826377
22	0x3f1bc573	0.6084816
23	0x3fede8c7	1.8586663
24	0xc003295b	-2.0493991
25	0x3f9c37a6	1.2204483
26	0x3fb00412	1.3751242
27	0x3efe7249	0.49696568
28	0xbf014849	-0.50500923
29	0x3fa7b8af	1.3103236
30	0xbdaae2a7	-0.08344012
31	0x3e5cf7d6	0.21578917
32	0x3e598c82	0.21245006
33	0xbf020615	-0.5079053
34	0x3f9a95f0	1.2077007
35	0x3f353e43	0.7079813
36	0x3f492788	0.78575945
37	0xbe448776	-0.19192299
38	0xbdd03472	-0.10166253
39	0x3d8dc8dd	0.06923077
40	0x3f6f2508	0.9341588
41	0x3f040bcb	0.51580495
42	0x3ef44dcb	0.477156
43	0x3f545fbb	0.82958573
44	0x3ec2ce67	0.38048097
45	0xc004171f	-2.0639112
46	0x3f132d28	0.5749078
47	0xbfbbbe6a	-1.4667485
48	0x3e9eace6	0.30991286
49	0xbe751858	-0.23935068
50	0xbf41a4da	-0.7564217
51	0xbfa0f91a	-1.257602
52	0xbe915805	-0.28387466
53	0x3e155142	0.14581779
54	0xbf990158	-1.1953535
55	0xbe01a753	-0.12661485
56	0xbed3283e	-0.4124164
57	0xbf8cd661	-1.1002923
58	0x3f5c2981	0.8600083
59	0x3fcbb221	1.5913736
60	0xbf83fc2f	-1.0311335
61	0xbfc782da	-1.5586808
62	0x3e15da78	0.1463412
63	0xbfd1f78a	-1.6403668
64	0xbf15de63	-0.5854246
65	0xc01eef07	-2.483339
66	0x3d0fd9ca	0.03511981
67	0x3ebf1f99	0.37328795
68	0xbf413a40	-0.7547951
69	0xbf58d735	-0.8470338
70	0x3f526ee3	0.8220045
71	0x3efbab10	0.49153948
72	0x3ebe5918	0.37177348
73	0x3d82ae43	0.06380894
74	0x3f96f606	1.179383
75	0xbdb6497d	-0.089007355
76	0x3d31cc12	0.043407507
77	0xbeb7e4a3	-0.35916623
78	0xbf842160	-1.0322685
79	0x3f088cba	0.5333973
80	0xbdf9e68a	-0.12202175
81	0xbf901fc3	-1.1259693
82	0x3d889b79	0.06670279
83	0xbe7f622e	-0.24939796
84	0xbf85e2aa	-1.0459797
85	0xbe9cbaab	-0.30611166
86	0x3f0ce0db	0.550306
87	0x3ef72a4b	0.48274454
88	0xc006fc7d	-2.1091607
89	0xbe872cba	-0.2640131
90	0x3e0d15cf	0.1377785
91	0x3ef774b3	0.48331222
92	0x3f86ac0b	1.0521253
93	0x3fb38f79	1.4028159
94	0x3f751ca6	0.9574684
95	0x3d277ee4	0.040892497
96	0x3f79543c	0.97394156
97	0x3ebe32fd	0.37148276
98	0xbe43ba4d	-0.19114037
99	0xbe2911e8	-0.16510737
100	0xbf29b374	-0.6628945
101	0xbee0196e	-0.437694
102	0x3e541fb4	0.20715219
103	0xbf870d9f	-1.0551032
104	0xc0328862	-2.7895741
105	0x3e4e3562	0.20137551
106	0x4026b3cb	2.6047237
107	0xbf5874c5	-0.84553176
108	0x3e82edae	0.2557196
109	0xbec0dc61	-0.37668136
110	0xbf34afe7	-0.70580906
111	0x3f9b356d	1.2125679
112	0x3d78c672	0.060736127
113	0xbfc1eb6b	-1.5149969
114	0x3f8cb29d	1.0992008
115	0x3ea93cf8	0.33054328
116	0xbf0ae824	-0.5426047
117	0x3e003bf0	0.12522864
118	0x40138917	2.3052423
119	0x3d9e33de	0.07724737
120	0xbf149895	-0.5804532
121	0xbf3107dd	-0.69152623
122	0x3f1f45bb	0.62215775
123	0xbf132039	-0.5747104
124	0x3ecf43d1	0.40481427
125	0x3ef49a3e	0.47773927
126	0xbfdccd61	-1.7250177
127	0x3fc80ece	1.5629518
128	0x3f63e8dd	0.89027196
129	0x3e55152b	0.20808856
130	0xbf16babe	-0.58878696
131	0xbf3fa557	-0.74861664
132	0x3f1d0daf	0.61349005
133	0x3e92d4ce	0.28677982
134	0xbefb1017	-0.49035713
135	0xbf512ab0	-0.8170576
136	0xbf3d1f9e	-0.7387637
137	0xbf634103	-0.88771075
138	0xbf8b2708	-1.0871286
139	0x3feaed4b	1.8353666
140	0x3e84fc8d	0.2597393
141	0x4015aeeb	2.3388011
142	0xbf8ce74e	-1.1008089
143	0xbf14b399	-0.58086544
144	0x3ea2c54d	0.31791154
145	0x3ea6bb11	0.32564595
146	0xbfb952a3	-1.4478344
147	0xbed75013	-0.4205328
148	0x3f89360c	1.0719619
149	0xbe53e38f	-0.20692275
150	0xbff2bfac	-1.8964744
151	0xc00b296f	-2.174404
152	0x3e04dfdb	0.12976019
153	0x4015db27	2.341501
154	0x3ee33ca8	0.44382215
155	0xbed3d980	-0.41376877
156	0x3f9c8e6c	1.2230964
157	0x3decc18c	0.11560354
158	0x3d03f7b4	0.03221865
159	0x3f8e8c66	1.1136596
160	0x3e9c0793	0.3047453
161	0x3e18c72b	0.14919727
162	0xbf1a3d7a	-0.60250056
163	0x3f250f60	0.64476585
164	0x3fa09d51	1.2548009
165	0xbea958d2	-0.33075577
166	0xbfa995ca	-1.3248837
167	0xbf1f9327	-0.6233391
168	0x3fcaf655	1.5856425
169	0x3f4373d2	0.763486
170	0xbf7ab3cd	-0.97930604
171	0x3f5c5f58	0.86082983
172	0xbfa96e5c	-1.3236804
173	0xbe06aeec	-0.13152665
174	0xbe244100	-0.1604042
175	0x4006e828	2.1079197
176	0xbf442005	-0.7661136
177	0xbe00c03b	-0.1257333
178	0x3e019ffd	0.12658687
179	0xbfce0e49	-1.609811
180	0x3ebc3648	0.36760163
181	0x3ecd7f3f	0.40136144
182	0xbf52b44c	-0.8230636
183	0xbfda92ae	-1.7076013
184	0xbed72f4a	-0.42028266
185	0x3e5dca03	0.21659093
186	0xbe3a850d	-0.18214817
187	0x3fd7f28d	1.6870896
188	0xbea2b901	-0.31781772
189	0xbe801d76	-0.25022477
190	0xbf4585c5	-0.7715724
191	0x3e36faff	0.17869185
192	0x3f91cf38	1.1391363
193	0xbeb79d94	-0.3586241
194	0x3f895a6d	1.0730721
195	0x3e09ccd0	0.13457036
196	0x3f06be11	0.5263377
197	0x3ef3e424	0.47634995
198	0x3ec919d8	0.3927753
199	0xbf9a236f	-1.2042063
200	0xbf9f083a	-1.2424386
201	0xbe8cac3e	-0.2747516
202	0xbe3fb69e	-0.18722007
203	0xbac129f9	-0.001473724
204	0xbffcca74	-1.9749284
205	0xbddb87ea	-0.10719283
206	0x3fdb74bc	1.7145
207	0xbd81a11c	-0.06329557
208	0x3ea32dd5	0.31870905
209	0x3f346ddf	0.7048015
210	0x3f6704f9	0.9024196
211	0x3ef445d9	0.4770954
212	0xbef81cea	-0.4845956
213	0x3f9faf9f	1.247547
214	0x3ee61917	0.44941017
215	0xbf96214c	-1.1728911
216	0x3f867b76	1.0506427
217	0xbe9514f8	-0.2911756
218	0xbef3e5d4	-0.47636282
219	0x3f94136e	1.156843
220	0x3e6e0b1e	0.23246428
221	0x3fa07991	1.2537099
222	0x3fe3a7cc	1.7785583
223	0xbe66ae0f	-0.22527336
224	0x3fa47a7e	1.2849882
225	0x3f6c176d	0.92223245
226	0x3f9739e7	1.1814545
227	0xbf876291	-1.0576955
228	0xbf878740	-1.058815
229	0x3ed45829	0.4147351
230	0x3fb1158c	1.38347
231	0xbfb30e0c	-1.3988662
232	0xbeb8aca5	-0.36069217
233	0x3eae1031	0.33996728
234	0x3f68fa86	0.9100727
235	0x3f4c5410	0.7981577
236	0xbe80b663	-0.2513915
237	0xbf9c46f8	-1.2209158
238	0x3df09f0b	0.11749085
239	0xbf5e086a	-0.8673159
240	0xbb13b2ea	-0.002253706
241	0xbdc17d84	-0.09447768
242	0x3f40e853	0.753545
243	0x3fae275a	1.3605759
244	0x3f1cb22c	0.6120937
245	0x3e4f072a	0.20217577
246	0xbf37eeb3	-0.718486
247	0xbf9e482a	-1.2365773
248	0xbe964c64	-0.29355156
249	0x3f4e381f	0.80554384
250	0xc005b818	-2.0893612
251	0x3f43440e	0.7627572
252	0xbeb1e8b1	-0.34747842
253	0xbf89f690	-1.077837
254	0xbe2b6ec7	-0.16741477
255	0xbf557756	-0.8338522

future_emb.embedding.1.weight f4 [7, 32]
0	0xbefd8da5	-0.4952213
1	0x3f4c85c7	0.7989163
2	0x3f86a382	1.0518649
3	0xc02ba68b	-2.68204
4	0x3f0b1344	0.5432627
5	0xbe853159	-0.26014212
6	0x3efe080e	0.4961552
7	0xbf43c1e1	-0.7646771
8	0x3fb30e1f	1.3988684
9	0xbff3373c	-1.9001231
10	0xbdb083cb	-0.086188875
11	0x391ba627	0.00014843848
12	0x3f5c5f69	0.86083084
13	0xbf032b0f	-0.5123758
14	0xbe862acf	-0.26204535
15	0xbfbe1066	-1.4848754
16	0xbe52ccaa	-0.20585886
17	0x3ea0003c	0.3125018
18	0xbe9b2be4	-0.30306923
19	0xbe63e266	-0.22254333
20	0x3f622c6e	0.88349044
21	0xbf5a6cf8	-0.85322523
22	0xbfe380a4	-1.7773633
23	0x3fdcbd53	1.7245277
24	0xbf2b0ea3	-0.6681921
25	0xbe5818f0	-0.21103263
26	0x3e795d3f	0.24351977
27	0x3f1f8c16	0.6232313
28	0xc011510c	-2.2705717
29	0x3e589412	0.21150234
30	0x3e8c8600	0.27445984
31	0xbf1658e9	-0.58729416
32	0xbfa7e342	-1.3116229
33	0xbe1528a8	-0.1456629
34	0x3eef15b2	0.4669624
35	0xbdcb7330	-0.0993408
36	0x3e958047	0.2919943
37	0xbf41f8be	-0.75770175
38	0xbf8abc26	-1.0838668
39	0xbf214cde	-0.63007915
40	0x3ea0494a	0.31305915
41	0xbfdc1994	-1.7195306
42	0x3c216fbb	0.009853299
43	0x3ff92cfd	1.9466854
44	0xbf88df56	-1.0693157
45	0xbeac146c	-0.3360933
46	0x3dffa4d9	0.12482614
47	0xbe082af5	-0.13297637
48	0xbe06d1d7	-0.13165985
49	0x3efe41b2	0.49659497
50	0x3fab6047	1.3388757
51	0xbec33212	-0.38124138
52	0xbe83f39b	-0.25771794
53	0x3ed4e14b	0.41578135
54	0xbf065a9d	-0.52482015
55	0x3f7f27ce	0.9967011
56	0x3ef8df55	0.4860789
57	0xc00966c3	-2.146897
58	0x3e8c8c73	0.27450904
59	0x3f04d192	0.5188228
60	0x3fd9a0cb	1.7002195
61	0xbeb59736	-0.35466927
62	0xbf417d40	-0.7558174
63	0x3f88dbee	1.0692117
64	0xbf9a3f97	-1.2050656
65	0x3f71acb0	0.94404125
66	0xbfa14e80	-1.2602081
67	0x3fb0070b	1.3752149
68	0xbef0377e	-0.46917337
69	0x40011ac1	2.017258
70	0xbf1f71ba	-0.6228291
71	0xbe24b4f2	-0.1608465
72	0xbf831ffd	-1.0244137
73	0xbe1854d5	-0.14876111
74	0xbfc707de	-1.5549276
75	0x3ef7be8c	0.48387563
76	0x3edf3061	0.43591598
77	0xbeeb930b	-0.46010622
78	0x3ecd10dc	0.40051925
79	0x3f78533f	0.97002023
80	0x3d8b84c3	0.06812432
81	0x3eac16e3	0.3361121
82	0x3f2e7592	0.6814815
83	0x3e20c2f5	0.1569937
84	0x3f0f4cc5	0.55976516
85	0x3fd3708c	1.6518722
86	0xbf0747d7	-0.52843994
87	0xbf12c212	-0.5732738
88	0xbf3b1ec2	-0.7309381
89	0xbf5e4e40	-0.8683815
90	0x3ef5243f	0.47879216
91	0xbfafe87c	-1.3742824
92	0x3f8c8e1a	1.0980866
93	0xbffd89bb	-1.9807657
94	0x3fb4df92	1.4130728
95	0xbf0f220f	-0.55911344
96	0x3e3503ab	0.1767718
97	0x3e659e88	0.22423756
98	0xbf9c0c73	-1.2191299
99	0xbf09e51c	-0.5386522
100	0xbfe8999a	-1.8171875
101	0xbf3caf3d	-0.7370489
102	0xbe7a8b51	-0.24467207
103	0xbf3e778d	-0.7440117
104	0x3f5fbb08	0.8739476
105	0x3fbec7c0	1.4904709
106	0x3f15b9f8	0.5848689
107	0x3e1b28a2	0.15152219
108	0xbe7b0717	-0.24514423
109	0x3f7236e9	0.94615036
110	0xbee92e38	-0.45543075
111	0x3e01227e	0.12610814
112	0x3e47a0cf	0.19494937
113	0x3ef2b80e	0.47406048
114	0x3ea8d3d3	0.3297411
115	0x3f562f54	0.83665967
116	0x3dbddee3	0.09271028
117	0xbf79e382	-0.97612774
118	0xbd94853e	-0.072519764
119	0x3f07c24f	0.53030866
120	0xbf41e0c2	-0.7573358
121	0x3e8bfad7	0.27339813
122	0x3f7c58d6	0.9857305
123	0x3f1201a6	0.57033765
124	0xbe56afee	-0.2096555
125	0xbf950e8b	-1.1645063
126	0x3e911a9b	0.2834061
127	0xbfc7768c	-1.5583053
128	0x3f49c070	0.7880926
129	0x3e6377ab	0.22213618
130	0xbf774b20	-0.96599007
131	0xbe906a40	-0.28206062
132	0x3efc70d9	0.49304846
133	0x3fd78a3f	1.6839064
134	0xbf8b42a2	-1.087971
135	0xbec76f69	-0.38952187
136	0xbfb5ead5	-1.421229
137	0x3f19fa01	0.601471
138	0x3f55d6dc	0.83530974
139	0xbf44d58c	-0.76888347
140	0xbee0735d	-0.43838015
141	0xbe18b9fe	-0.149147
142	0x3eac06bf	0.33598897
143	0xbee9c042	-0.45654494
144	0xbd2440c2	-0.04010082
145	0x3f8817fb	1.0632318
146	0x3f6d5eab	0.92722577
147	0xbf5d3cfb	-0.86421174
148	0xbd3f5634	-0.04671307
149	0xbf6f6a3e	-0.9352149
150	0x3cb8c002	0.022552494
151	0x3fca4943	1.5803608
152	0x3caf07ec	0.021366082
153	0xbe1e965f	-0.1548705
154	0x3f194c62	0.59882176
155	0x3fa89b27	1.3172349
156	0xbf364d2b	-0.712115
157	0xbf86c248	-1.052804
158	0xbfd27742	-1.6442645
159	0x3fe6cace	1.8030641
160	0xbf624ace	-0.8839539
161	0xbe540b84	-0.20707518
162	0xbf28ba47	-0.65909237
163	0x3fafd7e0	1.3737755
164	0x3e3c773c	0.1840486
165	0x3f200262	0.62503636
166	0x3f0c3d89	0.54781395
167	0x3f9ec5e3	1.240414
168	0xbf94a4e0	-1.1612816
169	0x3e7df53b	0.24800579
170	0xbe666e97	-0.22503124
171	0xbc1f70a2	-0.009731444
172	0x3dcc9709	0.09989745
173	0x3cd9e111	0.026596578
174	0x3cabc6a5	0.020968745
175	0xc003839a	-2.0549073
176	0x3f682d2b	0.9069392
177	0x3df3ff36	0.11913912
178	0xbed1343e	-0.4086017
179	0xbfd1026e	-1.6328866
180	0xbe8f7cd6	-0.2802493
181	0xbf46c044	-0.77637124
182	0x4000cec2	2.0126195
183	0x3f3b4abf	0.7316093
184	0x3f846c78	1.0345602
185	0xbef7f0c8	-0.4842589
186	0xbe3522a0	-0.1768899
187	0x3de3535b	0.11099883
188	0xbf842951	-1.0325109
189	0x3f049fe2	0.5180646
190	0xbee128b4	-0.43976367
191	0xc00dfd20	-2.2185745
192	0x3f68d336	0.9094728
193	0x3e5b6d19	0.21428336
194	0xbda4789e	-0.080308184
195	0x3fdd92aa	1.7310383
196	0x3d962736	0.07331698
197	0xbe19f79a	-0.15035859
198	0x3d17adfb	0.037031155
199	0x3ea9e224	0.33180344
200	0xbcb310e9	-0.02185865
201	0x3d8eae98	0.06966895
202	0xbc339aca	-0.010962198
203	0xbf45d0d8	-0.77271795
204	0x3f0012c2	0.5002862
205	0x3f2a608a	0.66553557
206	0x3f1a0e1d	0.60177785
207	0xbee507f9	-0.44732645
208	0xbeb94630	-0.3618636
209	0x3dad38db	0.0845811
210	0xbf3a3f1b	-0.7275254
211	0xbf67a1a3	-0.90481013
212	0x3e94fb1f	0.2909784
213	0x3fc3c577	1.5294636
214	0xbda6ca57	-0.08144062
215	0xbefac2bf	-0.48976704
216	0x3f188d08	0.59590197
217	0x3fd5bb9c	1.6697879
218	0x3d3e9f8e	0.046538882
219	0x3fb7ea25	1.436833
220	0x40138017	2.304693
221	0x3ee5eb85	0.4490625
222	0x3ffbd820	1.9675331
223	0xbf12a3ca	-0.5728117

future_emb.embedding.2.weight f4 [24, 32]
0	0x3fe09cb4	1.7547822
1	0x3ec309e7	0.38093492
2	0xc0250236	-2.57826
3	0xbf3cebb3	-0.7379715
4	0xbf098e58	-0.53732824
5	0xbee02f8e	-0.4378628
6	0x3fd5cad6	1.6702526
7	0xbeb9415d	-0.3618268
8	0x3f45de8a	0.7729269
9	0x3dd6f9c1	0.104968555
10	0x3e4141f3	0.18872814
11	0xc022e62a	-2.545298
12	0x3f4faaaf	0.8111982
13	0xbf4c4986	-0.7979969
14	0xbfc1d3f6	-1.514281
15	0xbf3006fb	-0.6876065
16	0xbe4fc0f0	-0.20288444
17	0x3ed4b9cf	0.4154801
18	0x397717cb	0.00023564619
19	0xbfcc456c	-1.5958686
20	0x3e58f1b3	0.21185951
21	0xbd4de40c	-0.05026631
22	0xbff8cd82	-1.9437716
23	0x3e009093	0.1255515
24	0x3e8fc645	0.28080955
25	0xbe2e2b13	-0.17008619
26	0x3f3a7954	0.7284138
27	0xbe629496	-0.22126994
28	0x3e8eac33	0.27865753
29	0xbf9847bc	-1.1896892
30	0x3fc39399	1.5279418
31	0x3f3c3ab8	0.735271
32	0x3fc48321	1.5352517
33	0x3f9dd37a	1.2330163
34	0xbfa4430a	-1.2832959
35	0xbf02abeb	-0.51043576
36	0xbf6e901e	-0.93188655
37	0xbf07a36d	-0.5298374
38	0x3e73f44a	0.23823658
39	0xbfe82dfd	-1.8139035
40	0x3fefca59	1.8733627
41	0x3fa6a65f	1.3019522
42	0xbb56e867	-0.0032792331
43	0xbf14eedd	-0.58176976
44	0x3f4df46d	0.8045109
45	0x3f06dc3b	0.52679795
46	0x3ed2cfbd	0.41174117
47	0xbfd80a16	-1.6878078
48	0x3fbad6fc	1.4596858
49	0x3fbc0550	1.4689121
50	0x3f02e5a3	0.5113165
51	0xbf63a6f0	-0.889266
52	0xbf36e121	-0.7143727
53	0x3ff2a57c	1.8956752
54	0xbff46d98	-1.9095945
55	0xbf7a4288	-0.9775777
56	0x3da57471	0.0807885
57	0x3fb6ae67	1.4271973
58	0x3f28b63f	0.65903085
59	0xc023e380	-2.5607605
60	0xbf3f9fda	-0.7485329
61	0xbfa91b0c	-1.3211379
62	0x3ff7c56f	1.9357127
63	0x3facfce2	1.3514674
64	0x3ed45570	0.41471434
65	0x3f9ac6ae	1.2091882
66	0xc05f859a	-3.4925294
67	0xbcbf6405	-0.023363123
68	0xbedefa16	-0.43550175
69	0xbde7677c	-0.11299035
70	0x3fc33492	1.5250418
71	0xbf43e6d6	-0.765241
72	0x3ff1bde7	1.8886079
73	0xbec443df	-0.38333032
74	0xbfb0637b	-1.3780359
75	0xbfeab601	-1.8336793
76	0x3fccbe4a	1.5995572
77	0x3f9d183e	1.2273023
78	0x3fb896ff	1.442108
79	0x3e1253a5	0.1428972
80	0x3f93de6b	1.1552252
81	0x3fba4f17	1.4555386
82	0x3ea60945	0.32428947
83	0xbd125d0d	-0.03573327
84	0xbf354915	-0.7081464
85	0xbf0d4713	-0.55186576
86	0x3e5201e3	0.20508532
87	0x3f12a21c	0.5727861
88	0x3dc90369	0.098151036
89	0x3fd784a9	1.683736
90	0xbe89f2b9	-0.26942995
91	0xbe3f248f	-0.1866629
92	0xbfd98922	-1.6994975
93	0x3dd94449	0.106087275
94	0xbebb0380	-0.36526108
95	0x3f2b7723	0.66978663
96	0x3f426c99	0.75946957
97	0x3d0f529d	0.034990896
98	0xbf9fa71a	-1.247287
99	0xbf8dea41	-1.1087114
100	0x3d2a3e27	0.04156318
101	0xbf6cf260	-0.92557335
102	0x4015598c	2.3335905
103	0xbfd13970	-1.6345654
104	0x3f62213e	0.88331974
105	0x3f330f63	0.69945353
106	0x3e555410	0.20832849
107	0xbf0617bb	-0.5237996
108	0x3f38e15a	0.7221886
109	0xbefdcbca	-0.4956954
110	0xbdea0769	-0.114271946
111	0xbf8718f0	-1.0554485
112	0x3f8caacb	1.0989622
113	0x3e4eaa8d	0.20182247
114	0x3d829f19	0.06378002
115	0xbe2f2582	-0.17104152
116	0xbd0163a0	-0.03158915
117	0xbf9c9832	-1.2233946
118	0x3f577759	0.84166485
119	0xbd452cbe	-0.048138373
120	0x3f7f6a35	0.99771434
121	0x3fa90cb4	1.3207002
122	0xbd8cf54a	-0.06882723
123	0xbf87fe11	-1.062441
124	0x3f80e0e0	1.0068626
125	0xbfa0292f	-1.2512568
126	0x402b6f5d	2.678672
127	0x3f31197e	0.69179523
128	0x3f9d4c39	1.2288886
129	0x3f323777	0.6961588
130	0xbf98d422	-1.1939738
131	0xbeb4ea93	-0.35335216
132	0x3f098a53	0.5372669
133	0x3fadbf35	1.3573977
134	0x3f42d74d	0.7610977
135	0xbf429fef	-0.7602529
136	0x3faee819	1.366458
137	0x3e9a9c62	0.30197436
138	0x3ef9cf0a	0.4879077
139	0x3ebadbe9	0.36495903
140	0x3e3f4170	0.18677306
141	0x3fa6313b	1.2983774
142	0xc01a62b4	-2.4122744
143	0xbf83d732	-1.0300047
144	0xbed790fa	-0.42102796
145	0xbbe66257	-0.007030766
146	0x3fc231bc	1.5171428
147	0x3e9f4255	0.31105295
148	0xbd7e8bce	-0.062145047
149	0x3e151895	0.14560159
150	0x3ed30cfb	0.4122084
151	0x3fe41531	1.7818967
152	0x3f5ffc6f	0.8749456
153	0x40168fb0	2.35252
154	0x3e389642	0.18026069
155	0xbfe319e0	-1.7742271
156	0xbe249296	-0.16071543
157	0xbe9bb876	-0.3041417
158	0x4016e376	2.357633
159	0xbfd17d49	-1.6366359
160	0x3fc8da7c	1.5691676
161	0x3ff39771	1.9030591
162	0xbff5ad29	-1.9193469
163	0xbee5581a	-0.4479378
164	0xbe5e2fab	-0.21697871
165	0xbe1c2d3b	-0.15251629
166	0xbe9c81a2	-0.30567652
167	0x40063421	2.0969317
168	0xbeaf2c84	-0.3421365
169	0xbf774556	-0.96590173
170	0x3e375be5	0.17906149
171	0x3eac63ad	0.33669797
172	0x3fd3f3e3	1.6558803
173	0xbfa81ba7	-1.3133439
174	0x3e15e38a	0.1463758
175	0xbfe39232	-1.777899
176	0xbfd87fea	-1.6914036
177	0x3f4bacd1	0.7956057
178	0x3ec7d942	0.39032942
179	0xbefc0b3d	-0.49227324
180	0xbc835a04	-0.016034134
181	0xbf11242d	-0.56695825
182	0x3e681832	0.2266548
183	0x3f81ccf6	1.0140674
184	0xbf99fbe0	-1.2029991
185	0x3fbf47d8	1.49438
186	0xbe880d12	-0.26572472
187	0xc003c172	-2.058682
188	0x40067f5d	2.1015236
189	0x3f8c30c0	1.0952377
190	0x3f824883	1.0178379
191	0xbe9bb5a1	-0.3041201
192	0x3ecf00b8	0.40430236
193	0xbfa71212	-1.305239
194	0x3e98077d	0.29693213
195	0xbfcf9f32	-1.6220458
196	0xc0742cdf	-3.8152387
197	0x3f6edaa0	0.93302345
198	0x3e3698ef	0.17831777
199	0x40179fab	2.3691204
200	0x3ff995e5	1.9498869
201	0xbf3e9bc9	-0.7445646
202	0x3f990b98	1.1956663
203	0x3e97800a	0.29589874
204	0x3d858291	0.06519044
205	0x3fb0f88e	1.3825853
206	0xbe1a2eb2	-0.15056875
207	0xbf289188	-0.65847063
208	0x3ee06a71	0.43831208
209	0x3ce074c6	0.027399432
210	0xbed080ba	-0.4072321
211	0xbf5c18c5	-0.85975295
212	0x3f943dbe	1.1581342
213	0xbfb65277	-1.4243916
214	0x3f3d83c8	0.7402921
215	0xbf0fef7d	-0.56224805
216	0xbf5de76d	-0.8668125
217	0x3fc5940e	1.5435808
218	0x3d38c947	0.045113828
219	0xbea87321	-0.32900336
220	0xbfb2fca5	-1.3983351
221	0xbf0034c1	-0.50080496
222	0xbf60a3ba	-0.87749827
223	0xbe9ac583	-0.30228814
224	0x4023df27	2.5604951
225	0xbe5b1c6b	-0.2139756
226	0x3fb3b4ec	1.4039588
227	0x3ea86232	0.32887417
228	0xbf6a9d2a	-0.91646063
229	0x3f027c63	0.5097105
230	0xbfd4beb1	-1.6620694
231	0x3fdaf32c	1.710546
232	0x3f0ee31a	0.5581528
233	0xbfaa7b01	-1.3318788
234	0x3e98aa2e	0.29817337
235	0x404affb9	3.171858
236	0xbdc6f4f3	-0.09714689
237	0xbf59dcef	-0.8510274
238	0x3f8333a8	1.0250139
239	0xbf4b8942	-0.79506314
240	0x3e8890f1	0.26673082
241	0x3eef1be7	0.46700975
242	0xbe1251c2	-0.14289
243	0x3f6325ae	0.8872937
244	0xbf44e15e	-0.76906383
245	0x3f66260d	0.8990181
246	0x3f8af114	1.0854821
247	0xbec5231d	-0.38503352
248	0xc066ec2c	-3.6081648
249	0x400fbed5	2.2460225
250	0x3ea5ec17	0.32406685
251	0xbd021702	-0.031760223
252	0x3e9386a4	0.2881366
253	0xbf9c7547	-1.222329
254	0x3e36259d	0.17787786
255	0x3fc324db	1.5245622

future_emb.embedding.3.weight f4 [2, 32]
0	0xbf98df9e	-1.1943243
1	0xbf3d710f	-0.7400064
2	0x3e8b3932	0.27192074
3	0x3f8a5ec5	1.0810171
4	0x4000553d	2.0052025
5	0x3e96ae92	0.29430062
6	0x3f5976c7	0.84946865
7	0x3f999d89	1.2001201
8	0x3f3ead5f	0.74483293
9	0xbf4ec37b	-0.8076703
10	0x400b20e5	2.1738827
11	0x3f7c4c8f	0.9855432
12	0xbe9b2dea	-0.30308467
13	0x3f56cda5	0.8390754
14	0x400d3189	2.2061484
15	0x3e1b0821	0.1513982
16	0xbec8e850	-0.3923974
17	0xbe3d0ff7	-0.18463121
18	0x3ed633b3	0.41836318
19	0x3f0f1452	0.5589038
20	0xbf9295f1	-1.1452008
21	0x3dc7a4a7	0.09748202
22	0x3e845f7e	0.25854105
23	0xbf7ec5c8	-0.9952054
24	0x3ece0d70	0.40244627
25	0x3f278a13	0.6544506
26	0xbf9dba2f	-1.2322444
27	0x3e342479	0.17592038
28	0x3f0d5bae	0.5521802
29	0x3d22a630	0.03970927
30	0xbf9b4af3	-1.2132248
31	0xbf84fb78	-1.0389242
32	0xbebd96e8	-0.37029195
33	0x3e7b0539	0.24513711
34	0x3f90f03f	1.1323317
35	0xbeac52f9	-0.33657053
36	0x3f26f474	0.65216756
37	0xbde51d0f	-0.11187183
38	0x3fb6ce02	1.4281619
39	0xbf00c1f9	-0.5029598
40	0x3f089549	0.5335279
41	0xbfaeb624	-1.3649335
42	0x4013114f	2.2979314
43	0xbf4a2240	-0.7895851
44	0xbe0c4519	-0.13698234
45	0x3c4a3916	0.012342712
46	0x3f9d7296	1.2300594
47	0xbf985f3f	-1.1904067
48	0xbf2bbfb2	-0.6708938
49	0xbddcb59f	-0.10776829
50	0xbe05bbf2	-0.13059977
51	0x3f2b94a1	0.67023665
52	0xbf8822b7	-1.0635594
53	0xbea2358f	-0.31681487
54	0xbea785ff	-0.32719418
55	0xbefecb7d	-0.49764624
56	0xbf938ca6	-1.1527297
57	0xbfd88280	-1.6914825
58	0x3d6b9cd3	0.057522606
59	0xbec7e435	-0.39041296
60	0x3db77827	0.08958464
61	0xbf180bb7	-0.59392875
62	0xbf38d237	-0.7219576
63	0x3e69c3ed	0.22828646

category_emb.embedding.0.weight f4 [32, 32]
0	0x3f708ec9	0.9396787
1	0x3f8a95c7	1.0826958
2	0xbf26e3f0	-0.65191555
3	0x3e9299f1	0.28633073
4	0x3dcfc894	0.10145679
5	0x3dc88680	0.09791279
6	0xbf4eeba9	-0.8082834
7	0x3fb88d3a	1.4418099
8	0xbf256339	-0.64604527
9	0x3d4512b0	0.048113525
10	0x3fb0f812	1.3825705
11	0xbf2aa4b7	-0.66657585
12	0x3f49a559	0.78767926
13	0xbe236732	-0.15957335
14	0xbdd3021a	-0.10303135
15	0x3e8c536a	0.2740739
16	0x3f942dfa	1.1576531
17	0xbe60f55a	-0.21968594
18	0x3ed7d50e	0.42154735
19	0xbea73fb2	-0.32665783
20	0x4015d779	2.3412764
21	0xbf090215	-0.535188
22	0x3f87048b	1.0548261
23	0xbece67d0	-0.40313578
24	0x3f253bbc	0.6454427
25	0xbf21a939	-0.6314884
26	0xbfa3f5f6	-1.2809436
27	0x3c174505	0.009232764
28	0x3f9dd319	1.2330047
29	0x3f1fb49e	0.62384975
30	0x3fc2bb58	1.5213423
31	0xbefec822	-0.49762064
32	0x3f0e917a	0.5569073
33	0xbed1e80d	-0.40997353
34	0x40240e79	2.5633833
35	0x3f29ad19	0.6627975
36	0xc0159edf	-2.3378217
37	0x3f10aff6	0.56518495
38	0x3f622958	0.88344336
39	0xbe37397c	-0.17893022
40	0x3f6bfeef	0.9218587
41	0xbffc6136	-1.9717166
42	0xc044dc80	-3.0759583
43	0xbf3e9a56	-0.7445425
44	0xbef71834	-0.48260653
45	0x3fef171e	1.867893
46	0x3f3f8322	0.7480947
47	0xbdb7af8c	-0.0896903
48	0xbf5415b0	-0.8284559
49	0xbf7ca8e1	-0.9869519
50	0x400db66a	2.2142587
51	0xbefe13f6	-0.49624604
52	0x3fe09e65	1.7548338
53	0x3fc553fa	1.5416253
54	0x3ab743f2	0.0013982041
55	0x3f3ee329	0.7456537
56	0x3fb5d687	1.4206094
57	0xbf2e6c09	-0.681336
58	0xbf395dac	-0.72408557
59	0xbf04698e	-0.51723564
60	0xbf7b9804	-0.9827883
61	0xbfcaef38	-1.5854254
62	0xbee7e245	-0.45289817
63	0x3eec9e2e	0.46214432
64	0x3d794534	0.060857013
65	0xbfa311c2	-1.2739794
66	0x3eca84d6	0.3955447
67	0xbf3b4c34	-0.7316315
68	0xbf7b07a4	-0.98058534
69	0xbf423e06	-0.7587589
70	0x3c3e909d	0.011631158
71	0xbeec5a9b	-0.46162876
72	0x3e7fc0f8	0.24975955
73	0xbfd1febf	-1.6405867
74	0xbfd4d014	-1.6626
75	0xbf5d028e	-0.86332023
76	0xc0053300	-2.0812378
77	0xc031a4e7	-2.7756898
78	0x3e899754	0.26873267
79	0xbf87ab4d	-1.0599152
80	0xbf841917	-1.0320157
81	0x3ea8ad93	0.32944927
82	0x3f6da726	0.92833173
83	0xbf503a73	-0.81339186
84	0x3e8e2d76	0.2776906
85	0xbe960d92	-0.29307228
86	0xbf578543	-0.84187716
87	0xbe93132b	-0.28725561
88	0x3f5e8c12	0.8693248
89	0xbefffe08	-0.49998498
90	0xbfb079a4	-1.3787122
91	0x3ef467c6	0.47735423
92	0x3f226fc3	0.63451785
93	0x3f8f4885	1.1194006
94	0x3fb916aa	1.4460042
95	0xbe307277	-0.17231165
96	0xbf1ce4e8	-0.61286783
97	0x4035a44b	2.8381526
98	0x3fc030d0	1.5014896
99	0xbf2ee2c2	-0.68314755
100	0x3fc1689e	1.5110052
101	0x3dcfcffe	0.10147093
102	0xc02c7251	-2.6944773
103	0x3e88ee5d	0.26744357
104	0x3eb66baf	0.3562903
105	0x3e02e4f5	0.12782653
106	0xbda865c0	-0.08222532
107	0xbc861b93	-0.01637057
108	0xbf30554c	-0.6888015
109	0x3fa7f9e1	1.3123132
110	0xbfe6a40b	-1.8018812
111	0x3f6d71f2	0.9275199
112	0xbf36a418	-0.7134414
113	0xbf27798e	-0.6541985
114	0xbda2c91b	-0.07948514
115	0x3f116b35	0.5680421
116	0x3fba7f5a	1.4570115
117	0x3f0b4a16	0.5440992
118	0x3ffa651f	1.956211
119	0x3fb13886	1.3845375
120	0x3ec4f87f	0.38470837
121	0x3f2c4b4f	0.6730241
122	0x3f2d4d06	0.67695653
123	0x39a65784	0.00031727192
124	0xbf262d4b	-0.6491286
125	0xbf14b993	-0.58095664
126	0x3f9d1ac7	1.2273797
127	0x3f344e67	0.7043213
128	0x3e6f22ed	0.23353167
129	0x3f9751b8	1.1821814
130	0xbfa097d4	-1.2546334
131	0xbd84d083	-0.06485083
132	0x3f5c4a1b	0.86050576
133	0x3f095bb2	0.5365554
134	0xbf3686f4	-0.7129967
135	0x3e83a270	0.25709867
136	0x3ee7bb14	0.45259917
137	0x3f7c3c72	0.9852973
138	0xbd9b9263	-0.075962804
139	0x3f629410	0.88507175
140	0xbff31675	-1.8991228
141	0xbf80bbd4	-1.005732
142	0x3e73a1a0	0.23792124
143	0xbe9a436c	-0.30129564
144	0x3e697f95	0.22802575
145	0x3f953258	1.1655989
146	0x3ed96987	0.42463323
147	0xbf0f0d39	-0.5587955
148	0xbf044c6c	-0.5167911
149	0x3ecd664b	0.40117106
150	0x3f2b24e5	0.6685317
151	0x3fb92f34	1.446753
152	0xbf77bc9c	-0.9677217
153	0xbd978b58	-0.073996246
154	0x3fba4cd8	1.4554701
155	0xbec05d04	-0.37570965
156	0x3f0c91d3	0.5491001
157	0x3f8f7ca1	1.1209909
158	0xbe51f217	-0.20502506
159	0xbfe2dbb3	-1.7723297
160	0xbf8189de	-1.0120199
161	0xbf7d9534	-0.9905579
162	0xbd564177	-0.052308526
163	0xbde6c1ed	-0.11267457
164	0x3f216c34	0.6305573
165	0xbf672313	-0.90287894
166	0x3f86f951	1.0544835
167	0xbfe52907	-1.7903146
168	0xbfa89679	-1.3170921
169	0x3f2b8fe7	0.6701645
170	0xbf808c8c	-1.0042892
171	0xbed585eb	-0.41703734
172	0x3f3c43a2	0.735407
173	0xbf660a65	-0.8985961
174	0x3ef816a1	0.48454764
175	0x3fc6c4e9	1.5528842
176	0xbf7ddea5	-0.99167854
177	0x401bcbaa	2.4343057
178	0xbf05f82d	-0.5233181
179	0x3fb528cf	1.4153079
180	0x3e8b4051	0.27197507
181	0x3fcaf285	1.5855261
182	0xbf90c40a	-1.1309826
183	0xbf5b69d6	-0.8570837
184	0xbe443fa4	-0.19164902
185	0xbf1d0490	-0.61335087
186	0x3e1193ae	0.14216492
187	0x3e3323dd	0.1749415
188	0x3f83d526	1.0299423
189	0xbeb373f4	-0.35049403
190	0xbf6c19dc	-0.9222696
191	0xbe2aa86f	-0.16665815
192	0xbe8b3351	-0.2718759
193	0x3f4d37e3	0.801634
194	0x3f7cce6a	0.9875246
195	0xbf35454f	-0.7080888
196	0x3f9b28da	1.2121842
197	0xbf134488	-0.57526445
198	0x3f9791be	1.1841352
199	0xbf03bdd5	-0.51461536
200	0x3f9f8358	1.2461958
201	0xbf986a7e	-1.1907499
202	0xbf719319	-0.9436508
203	0x3e04a2e6	0.12952766
204	0x400eb3ff	2.229736
205	0xbfa70dd4	-1.3051095
206	0xbf0c86a0	-0.5489292
207	0xbf8a8248	-1.0821009
208	0xbfa3c2fc	-1.279388
209	0xbf888df5	-1.0668322
210	0xbeb3fdb2	-0.35154492
211	0xbf18e388	-0.59722185
212	0xbf9405a9	-1.1564227
213	0x3f9ea5bb	1.2394327
214	0x3fa20199	1.2656738
215	0xbeae9f9b	-0.34106144
216	0x3fc5fddd	1.5468098
217	0x3f0b608a	0.5444418
218	0xbf2d0d02	-0.67597973
219	0x3f87f0f3	1.0620407
220	0xbecfc1b9	-0.40577486
221	0xbfe4dde8	-1.788022
222	0xbf231a42	-0.6371194
223	0xbfa040dd	-1.2519795
224	0xbfa5a582	-1.2941134
225	0x3eee41ee	0.46534675
226	0xbf98ad73	-1.1927933
227	0x3f291735	0.66051036
228	0x3faceca7	1.350972
229	0x3fb3a264	1.4033933
230	0x3ec03828	0.37542844
231	0xbf9a31dc	-1.2046466
232	0xbeef1c99	-0.46701506
233	0xc0022dfd	-2.034057
234	0xc01c907e	-2.446319
235	0x3e06e989	0.13175024
236	0xbef39f78	-0.47582603
237	0x40024109	2.0352194
238	0xbf6513c1	-0.8948327
239	0x3f18a5ba	0.5962788
240	0xbc75d638	-0.015004687
241	0xbebbd255	-0.36683908
242	0x3f5888b9	0.8458362
243	0x3f956784	1.1672215
244	0x3ef7dcfb	0.48410782
245	0x3d30455f	0.043034907
246	0x3f5de62f	0.8667936
247	0x40093621	2.1439288
248	0xbf7c2869	-0.9849916
249	0xbfb0d333	-1.3814453
250	0xbef75de8	-0.48313832
251	0x3f1e9194	0.61940885
252	0x3f011562	0.5042325
253	0xbf68d1f2	-0.9094535
254	0x3dd15b36	0.10222475
255	0xbebabfc5	-0.36474434

category_emb.embedding.1.weight f4 [7, 32]
0	0x3f48c07d	0.78418714
1	0xbf3d5707	-0.7396092
2	0x4006211f	2.0957716
3	0x3f4b2816	0.7935804
4	0x400bd354	2.1847734
5	0xbe7fdc78	-0.24986446
6	0xbfc442a4	-1.5332837
7	0xbf02319e	-0.5085696
8	0xbf83ad06	-1.0287178
9	0xbfcf93ce	-1.6216981
10	0x3f4a41b8	0.7900653
11	0x4025259c	2.5804205
12	0x3f4a3592	0.7898799
13	0x3f48f905	0.78504974
14	0xbee1e677	-0.44121143
15	0x3f91396e	1.1345651
16	0xbec70a18	-0.38874888
17	0xbdcd01fb	-0.10010143
18	0x3fb543cb	1.4161314
19	0x3f849298	1.0357237
20	0xbe758778	-0.23977458
21	0xbf0e26d5	-0.55528
22	0x3faf1cad	1.3680626
23	0xbf271d8f	-0.6527948
24	0x3ec72f9c	0.3890351
25	0x3f040306	0.51567113
26	0xbdfcd0bc	-0.123445004
27	0x3e1c29cb	0.15250318
28	0x3f7e66d0	0.9937563
29	0xbf75a63e	-0.9595679
30	0xbcb1b067	-0.02169056
31	0x3e5a5e5c	0.21325058
32	0x3fbba07f	1.4658355
33	0xc01d32a7	-2.4562166
34	0x3e8dba9d	0.27681437
35	0x3ec1040a	0.37698394
36	0x3d1e924b	0.038713735
37	0x3c286c87	0.010279781
38	0x3f8b5a6e	1.0886972
39	0x3eb67048	0.3563254
40	0x3fe8b9da	1.8181717
41	0x3fbe96ae	1.4889734
42	0x3e0f2078	0.1397723
43	0x3e2d46fc	0.1692161
44	0xbeba402d	-0.36377087
45	0x3ec3770a	0.38176757
46	0xbee002b5	-0.43752065
47	0x3fa0d6f7	1.2565602
48	0x4009bb7c	2.1520681
49	0xbe0eaeac	-0.1393382
50	0xbf76047d	-0.961006
51	0xbff2464e	-1.8927705
52	0xbe2be25f	-0.16785572
53	0xbf52d566	-0.8235687
54	0xbf584a36	-0.84488237
55	0x3f56cd29	0.839068
56	0xbf6b593a	-0.91933024
57	0x3f02eafa	0.51139796
58	0x3eb497bb	0.3527201
59	0xbf546e8b	-0.82981175
60	0x3fd81fca	1.6884701
61	0x3fc4aaa9	1.5364581
62	0xbdc6b19d	-0.09701846
63	0xbf5c098d	-0.85952073
64	0xbf7ce572	-0.98787606
65	0xbf804e16	-1.002383
66	0xc01fc718	-2.4965267
67	0xbe23e37c	-0.16004747
68	0x3f3a69f4	0.7281792
69	0x3e30dc95	0.17271645
70	0xc003da9c	-2.0602179
71	0x3f4ed960	0.8080044
72	0x3f9e14a5	1.235005
73	0x3f21a706	0.6314548
74	0xbeac31fa	-0.3363188
75	0x3f5f5b2d	0.872485
76	0xbf97041f	-1.1798133
77	0x3f9b7481	1.2144929
78	0xbf3167e9	-0.6929918
79	0x3f9caf57	1.224101
80	0x3fe741a9	1.8066913
81	0x3ea43dcf	0.32078406
82	0xbf577277	-0.84159034
83	0xbff76f4b	-1.9330839
84	0x3d9bb37c	0.07602593
85	0xbebfa59e	-0.37431043
86	0x3f690aeb	0.91032284
87	0x3f8aad1c	1.0834079
88	0xbed44092	-0.41455513
89	0xbf433a05	-0.76260406
90	0xbea4168a	-0.32048446
91	0x3d8dd35c	0.06925079
92	0xbd6820ea	-0.056672014
93	0x3fb6419b	1.4238771
94	0x3fa9e043	1.3271564
95	0xbd9e234c	-0.07721576
96	0x3d4818dc	0.048851833
97	0x3fa32c6f	1.2747935
98	0xbf625b78	-0.8842082
99	0xc008352d	-2.1282456
100	0xc06f8b8a	-3.7428918
101	0xbd645161	-0.05574167
102	0x3f284b33	0.65739745
103	0x3e3836e6	0.17989692
104	0xbedddd3b	-0.43332848
105	0xbdb894a5	-0.09012727
106	0x3f91d8aa	1.1394246
107	0xbf7b7ab6	-0.9823412
108	0x40461f21	3.09565
109	0x3d970bf6	0.07375328
110	0xbece7c08	-0.40329003
111	0xbdef13b9	-0.11673684
112	0x3fa21c26	1.266484
113	0x3f2be16d	0.6714085
114	0x3e1e4201	0.15454866
115	0xbf2e0d0b	-0.6798865
116	0x3fea2ac4	1.8294301
117	0x3d8a75dc	0.06760761
118	0xbf260c26	-0.6486229
119	0xbecebe4d	-0.40379563
120	0xbceae29d	-0.02867251
121	0x3e31f95e	0.17380282
122	0xbf8a74de	-1.0816915
123	0x3fcad83d	1.5847241
124	0xbf39e03a	-0.7260777
125	0x3f432a81	0.7623673
126	0xbed7dd5c	-0.4216107
127	0xbee47197	-0.44617912
128	0x3edc1494	0.4298445
129	0x3f3ef88b	0.74597996
130	0xbdc9ef8e	-0.098601446
131	0xbf85c37b	-1.0450281
132	0xbf03cf9d	-0.5148867
133	0xbf88d8dc	-1.069118
134	0xc0109754	-2.2592363
135	0x3f92b907	1.1462716
136	0x4001f6c0	2.0306854
137	0xbfbf704c	-1.4956145
138	0xc0026cc3	-2.0378883
139	0x3f0b22ee	0.54350173
140	0xbd38e582	-0.04514075
141	0x3da53655	0.08067004
142	0xbf5515bc	-0.8323629
143	0x401a4053	2.410176
144	0x3b119520	0.002221413
145	0x401ccf35	2.450147
146	0x400d3a8e	2.206699
147	0xbe09cd1b	-0.13457148
148	0x3f9695a6	1.1764419
149	0x3f475a72	0.77872384
150	0xbe61d3e0	-0.2205348
151	0x3f1a37fd	0.6024168
152	0xbfa63b5c	-1.2986865
153	0xbf9b7b7d	-1.2147061
154	0xbf7fa293	-0.99857444
155	0x3f001a46	0.5004009
156	0xbf3fd65c	-0.7493646
157	0xbfa136f4	-1.2594895
158	0x3f4dc830	0.80383587
159	0xbf115f62	-0.5678617
160	0x40076915	2.1157887
161	0x3f8b6f7b	1.0893396
162	0x3f8bb22c	1.0913749
163	0x3fd90407	1.6954354
164	0xbf07b022	-0.5300313
165	0xc00858e7	-2.1304262
166	0xbf96b87e	-1.1775053
167	0x3f9ef3e9	1.2418185
168	0x3e0c1080	0.13678169
169	0xbc2d59fe	-0.010580538
170	0xbd986855	-0.07441775
171	0xbfa7f957	-1.3122967
172	0x3e0221ab	0.12708156
173	0x3fae9792	1.3640006
174	0xbf275f34	-0.65379643
175	0xbf2524fd	-0.64509565
176	0xbed7d057	-0.42151138
177	0x3f4b82e5	0.79496604
178	0x3fe93d1d	1.8221775
179	0xbf8b9c28	-1.090703
180	0xbf1facc1	-0.62372977
181	0x3eb9def9	0.36302927
182	0xbf4539c3	-0.7704126
183	0xbfec8237	-1.8477238
184	0x3f33a661	0.7017575
185	0xbea17b30	-0.31539297
186	0x3ee64b3f	0.44979283
187	0xbf08d339	-0.534473
188	0x3eaf8647	0.34282133
189	0xbffb21e6	-1.961972
190	0xbf966876	-1.1750629
191	0x3d34903e	0.044082873
192	0x3ffe42e8	1.9864168
193	0x3f904ffb	1.1274408
194	0xbeb091a6	-0.3448612
195	0x3f914882	1.1350253
196	0x3f42fcb0	0.7616682
197	0xbf7f3459	-0.9968925
198	0xbf506678	-0.81406355
199	0x3f209467	0.62726444
200	0xc0193c99	-2.3943236
201	0xbf85666f	-1.0421885
202	0x3fb067f1	1.378172
203	0xbe24dee5	-0.16100653
204	0xbfb4ddcf	-1.4130191
205	0xbfac8b57	-1.3480023
206	0xbf42ca4c	-0.7608993
207	0x3fb82161	1.4385186
208	0x3e975d1d	0.29563227
209	0x3f470204	0.7773745
210	0xbe59d104	-0.2127114
211	0xbfc10f45	-1.5082785
212	0x3e87c9bb	0.26521096
213	0x3f0969cf	0.53677076
214	0xbf42d268	-0.76102304
215	0x3fb0e69f	1.382038
216	0xbea32c57	-0.31869766
217	0x3e605c9d	0.21910329
218	0x3fa36276	1.2764423
219	0xbf7f2554	-0.99666333
220	0xbe2e2880	-0.17007637
221	0x3ec0e187	0.37672064
222	0xbf5c2e50	-0.8600817
223	0x3f9c900e	1.2231462

category_emb.embedding.2.weight f4 [24, 32]
0	0xbee05d0b	-0.43820986
1	0xbf9bd0a6	-1.217305
2	0xc0068d3b	-2.10237
3	0x3de1ae50	0.110195756
4	0xbec13b89	-0.37740734
5	0x3d5a53dd	0.053302635
6	0xbed9218b	-0.42408404
7	0x4041b1d6	3.0264792
8	0x3fa92bd5	1.3216501
9	0x3ea0f3fe	0.3143615
10	0x3fa74aab	1.3069662
11	0xbe957e69	-0.29198006
12	0x3ff2668d	1.8937546
13	0xbf593069	-0.84839493
14	0xc02c4f86	-2.6923537
15	0xbf0b2f3c	-0.5436895
16	0x3e85cbde	0.261321
17	0xbfdf27c5	-1.7434012
18	0x3e017808	0.12643445
19	0xbf5793f1	-0.84210116
20	0x3f1074eb	0.564284
21	0x3f5eb940	0.8700142
22	0x3fbfc6c3	1.4982532
23	0xbfa69c54	-1.3016458
24	0xbfc9eeb6	-1.5775974
25	0xbe584287	-0.21119128
26	0x3eb85177	0.35999653
27	0x3f72d90e	0.9486245
28	0xbf2836c4	-0.65708566
29	0x3e99b649	0.30021885
30	0x3f8002ce	1.0000856
31	0xbfcf1e70	-1.6181164
32	0x401b10d5	2.4229023
33	0xbf373afd	-0.71574384
34	0xbf2b9362	-0.67021763
35	0xbe02faab	-0.12790935
36	0x3f46ecda	0.77705157
37	0x3ec22899	0.379216
38	0x3f37bf98	0.71776724
39	0x3ec20fd3	0.37902698
40	0x3d47a31f	0.04873955
41	0x3f352591	0.70760447
42	0x4024a6bf	2.5726774
43	0x3f39294c	0.7232864
44	0x3f14ccfa	0.5812527
45	0xbe57eff0	-0.21087623
46	0x3e397184	0.18109709
47	0x3f809d9a	1.0048096
48	0xbdebbc16	-0.11510484
49	0x3f27a927	0.6549248
50	0x3f3f6302	0.7476045
51	0xc037374f	-2.8627508
52	0x3f6971e2	0.91189396
53	0xbfd1362e	-1.6344659
54	0x3fcaf8eb	1.5857214
55	0xc0368be9	-2.8522894
56	0xbf8142fa	-1.0098565
57	0xbfbdd709	-1.4831249
58	0xbf07e3ae	-0.53081787
59	0xbf8acd93	-1.0843986
60	0xbf8d5cee	-1.1043985
61	0xbf557e71	-0.8339606
62	0x3f3b89c4	0.7325709
63	0xbf907a2b	-1.1287283
64	0x3f13bcb8	0.57709837
65	0xc004268a	-2.0648522
66	0xbedd1a84	-0.43184292
67	0xbdb285f7	-0.08716958
68	0x3fa67f28	1.3007555
69	0xbfe4c85b	-1.7873644
70	0x3f05489a	0.52063906
71	0xbfa46aff	-1.2845153
72	0xbe89daa7	-0.2692463
73	0xbe60580e	-0.2190859
74	0x3e2b8721	0.16750766
75	0xbf0b873d	-0.5450323
76	0x3c905173	0.017616963
77	0x3f1c657d	0.6109236
78	0xbf6d696e	-0.92739
79	0xbd1ee232	-0.038789935
80	0x3f81ee32	1.0150816
81	0xbfb508e7	-1.4143342
82	0x3dc2f7d3	0.09519925
83	0xbfe5a40b	-1.7940687
84	0xbecefe0a	-0.4042819
85	0xbf0c7dd1	-0.5487948
86	0xbebeb3f6	-0.37246674
87	0xbf2b7cd7	-0.66987365
88	0x3f95880e	1.1682146
89	0x3f54687e	0.8297194
90	0x3def171c	0.1167433
91	0xbfa04549	-1.2521144
92	0xbf818ef9	-1.0121757
93	0xbd2117e5	-0.03932943
94	0xbe20a92b	-0.15689532
95	0x3f3f91b0	0.74831676
96	0xc01459f1	-2.3179896
97	0xbfce7186	-1.6128395
98	0x3fa959e6	1.323056
99	0x3e48faf2	0.19626978
100	0x3ff0dda5	1.881764
101	0x3e3a33eb	0.18183868
102	0x3e6a8040	0.22900486
103	0xbfd397dd	-1.653072
104	0x3e9b960e	0.3038792
105	0xbedfad28	-0.43686795
106	0xbfbf16e0	-1.4928856
107	0xbeff2b32	-0.49837643
108	0x3e012a9a	0.12613907
109	0xbd8f1825	-0.06987027
110	0xbe97651e	-0.29569334
111	0xbfb47ec8	-1.410119
112	0x3e6f5ec0	0.23375988
113	0xbf256207	-0.646027
114	0x3f1625e1	0.5865155
115	0xc00f08a8	-2.2349033
116	0x3f86fa7b	1.054519
117	0x3f6e546b	0.9309756
118	0x3f982885	1.1887366
119	0xbfb40df9	-1.4066764
120	0xbee9e9b8	-0.45686126
121	0x3f68e90a	0.9098059
122	0x3f89d9db	1.0769609
123	0xc02528ac	-2.5806074
124	0xc012a5d1	-2.2913706
125	0x3f77d9ea	0.96816885
126	0x3f846dc9	1.0346004
127	0xbe075835	-0.13217242
128	0xbfb9602f	-1.4482478
129	0xbfa801b0	-1.3125515
130	0x3f8e034a	1.1094754
131	0xbf9d423a	-1.2285836
132	0x3fb5851e	1.4181249
133	0xc0019fa7	-2.0253694
134	0x3f474dfe	0.7785338
135	0xbf1a86dc	-0.6036203
136	0x3f54fe54	0.83200574
137	0xbe9dfd60	-0.30857372
138	0xbf712944	-0.9420359
139	0xbf13a72f	-0.57676977
140	0x3e899481	0.26871112
141	0xbf229910	-0.63514805
142	0xc01115f0	-2.266964
143	0x3f866afe	1.0501401
144	0x3ef66646	0.48124903
145	0xbcd26f8c	-0.025687955
146	0x3fb2a50e	1.3956621
147	0xbfb71b0d	-1.430513
148	0xbf837606	-1.0270393
149	0xbf924e20	-1.1430092
150	0x3f25ad08	0.6471715
151	0xbf7d7f4a	-0.9902235
152	0x3ecbf8f3	0.3983837
153	0x3f8af668	1.0856447
154	0x3f3106ca	0.69150984
155	0xbfb904ba	-1.4454567
156	0xbf5f4213	-0.87210196
157	0x3f7876a2	0.9705602
158	0xbf04110c	-0.5158851
159	0x3f236c2b	0.63836926
160	0xbfa77b15	-1.3084437
161	0xbe41f2ae	-0.18940231
162	0x3facc5ed	1.3497902
163	0xbf73a435	-0.95172435
164	0x3ef2bb55	0.47408548
165	0xbf750daa	-0.95723975
166	0x3fa0e919	1.2571136
167	0xbe4f85af	-0.2026584
168	0x3f976581	1.1827852
169	0xbf2f187a	-0.68396723
170	0xbf992ea0	-1.1967354
171	0xbf7edd85	-0.9955676
172	0x3e832ef9	0.25621775
173	0x3f0ecb44	0.5577891
174	0xbe1fa887	-0.15591632
175	0x3e7fb651	0.24971892
176	0x3e88dcbe	0.26730913
177	0x3f884d5c	1.0648608
178	0xbfb2a8d1	-1.3957769
179	0x3ebb46fc	0.36577594
180	0xc0248a74	-2.5709505
181	0xbf814dc0	-1.0101852
182	0x3ec07cc4	0.3759519
183	0x3f661fd0	0.8989229
184	0xbfb6bd85	-1.4276587
185	0x3fc194ec	1.5123572
186	0x3f0c0570	0.54695797
187	0xbf8e4316	-1.1114223
188	0xc020e99d	-2.5142586
189	0x3fb16dc8	1.3861628
190	0x3f388d30	0.72090435
191	0x3fe36d5f	1.7767752
192	0xbe9316b4	-0.2872826
193	0xbf2410ad	-0.64087945
194	0xbd1d3960	-0.038384795
195	0xbf38271d	-0.7193468
196	0x3f793e88	0.9736104
197	0xbbe24f5d	-0.0069064335
198	0xbffd75ce	-1.9801576
199	0xbf79401f	-0.97363466
200	0x4002f971	2.0464747
201	0xbf2bfb44	-0.67180276
202	0xbf22397b	-0.6336896
203	0xbf782932	-0.9693786
204	0xbf758a57	-0.95914215
205	0xbeb7b52c	-0.3588041
206	0x3f02150c	0.50813365
207	0xbf206a23	-0.6266195
208	0x3f977014	1.1831079
209	0x3f62469a	0.8838898
210	0xbd76e1d3	-0.060273957
211	0xbfc5dc0f	-1.5457782
212	0xbf47408f	-0.77832884
213	0xbe2a1c71	-0.16612412
214	0x3f106e7b	0.5641858
215	0xbf4ad496	-0.7923063
216	0xbecc1d4d	-0.39866105
217	0xbf32407c	-0.69629645
218	0x3ec0efae	0.3768286
219	0xbf8d1d5f	-1.1024588
220	0xbf6f2c38	-0.9342685
221	0x3e15e120	0.1463666
222	0xbfd9a46a	-1.70033
223	0x3e4ef23d	0.20209594
224	0x3e8bd07e	0.27307504
225	0x3fdc8495	1.7227961
226	0xbdc70d3c	-0.09719321
227	0xbfc86ec0	-1.5658798
228	0xbef2c82a	-0.47418338
229	0x3f995f29	1.1982166
230	0xbdcd7a32	-0.100330725
231	0x3f8b8f27	1.0903062
232	0x3f908b58	1.1292524
233	0x3fa744d9	1.3067886
234	0x3f09333d	0.5359381
235	0x3eee04ef	0.4648814
236	0xc0081b3a	-2.1266618
237	0x3f828006	1.019532
238	0xbe6d084f	-0.231477
239	0xbf5398fc	-0.8265531
240	0xbefdd578	-0.49576926
241	0x3f869ee4	1.051724
242	0xbf55aca7	-0.8346657
243	0xbfec3411	-1.845339
244	0xbf1d0f2e	-0.6135129
245	0xbf211c0d	-0.6293343
246	0xbf60cfdb	-0.8781716
247	0x3ea5ad34	0.32358706
248	0xbeaaa666	-0.33330077
249	0x3f628f1f	0.88499635
250	0x3e35f85e	0.17770526
251	0xbf929570	-1.1451855
252	0xbfa650c3	-1.2993397
253	0x3efea42d	0.4973463
254	0x3db8e391	0.0902778
255	0x4050d7ac	3.2631636

category_emb.embedding.3.weight f4 [2, 32]
0	0xbf168aae	-0.5880536
1	0x3f8b0ea4	1.0863843
2	0x3f5e080d	0.86731035
3	0x3fb07f68	1.3788881
4	0x3f437ca8	0.76362085
5	0x3e3178d0	0.17331243
6	0xbcd0ec9c	-0.02550345
7	0x3f070b74	0.5275185
8	0x3f0c6cb5	0.54853374
9	0xbf6b1053	-0.91821784
10	0xbe801c63	-0.25021657
11	0x3ffea048	1.9892664
12	0xbff1326e	-1.8843515
13	0x3e80296d	0.25031605
14	0xbf7d687f	-0.98987573
15	0x3fc3d32d	1.5298821
16	0xbf92258e	-1.1417711
17	0x40036863	2.0532463
18	0x3f661a1f	0.8988361
19	0xbf28a172	-0.65871346
20	0x3fc4773f	1.5348891
21	0x3e26ae2b	0.16277377
22	0xbff1dab0	-1.8894863
23	0x3c6a3512	0.0142948795
24	0x3e9f250c	0.31082952
25	0x3fdcbbb3	1.7244781
26	0x40138f5c	2.305625
27	0x3e6caebd	0.23113532
28	0x3fe05a6d	1.7527596
29	0x3f1eb7d5	0.61999255
30	0x3fc970b6	1.5737522
31	0x3ebfd656	0.37468213
32	0xbf121d2f	-0.5707578
33	0xbd0728f3	-0.032998037
34	0x3e12fdaa	0.14354578
35	0xbdf540ee	-0.11975275
36	0x3f83f038	1.0307684
37	0xc010f1a2	-2.264748
38	0x3f46d164	0.77663255
39	0xbf0dffe3	-0.5546858
40	0x3b203ca3	0.0024450205
41	0x3fb35683	1.4010776
42	0xbeced043	-0.40393266
43	0xbfc963dc	-1.57336
44	0xbfced626	-1.6159103
45	0x3fcbcb67	1.5921448
46	0x3f9fdc33	1.2489074
47	0xbf7b57c4	-0.98180795
48	0xc005299c	-2.0806646
49	0xbf230011	-0.63671976
50	0x4005b1e1	2.0889819
51	0x3f395413	0.7239391
52	0xbef2c90e	-0.47419018
53	0x3eecf0b6	0.46277398
54	0x3e6a7925	0.22897775
55	0x3f7529c1	0.95766836
56	0x3f162e0a	0.58664
57	0x3eb48bf5	0.3526303
58	0x3c830414	0.015993156
59	0x3fd77246	1.6831748
60	0x3f8618bd	1.04763
61	0xbf24e0b5	-0.64405376
62	0xbf5f475b	-0.87218255
63	0x3e760671	0.24025895

continuous_emb.embedding.0.weight f4 [32, 1]
0	0xbf2def4f	-0.6794328
1	0xbf004192	-0.5010005
2	0x3f380bd2	0.71893036
3	0x3b3d54cc	0.0028889654
4	0x3ebaccad	0.3648428
5	0xbf35d49f	-0.7102756
6	0x3f3c2081	0.734871
7	0x3f480b25	0.78142005
8	0x3e109c7b	0.14122193
9	0xbebcb0fd	-0.3685378
10	0x3e92c19b	0.28663334
11	0xbee707ea	-0.45123225
12	0x3c4b66a1	0.012414605
13	0x3e7d6f8e	0.24749586
14	0xbdd7821c	-0.10522863
15	0xbc549cf7	-0.012976876
16	0xbde8fc16	-0.113762066
17	0xbdbddcb2	-0.0927061
18	0xbd17d448	-0.03706768
19	0x3e1083c6	0.14112768
20	0xbec705cd	-0.38871613
21	0x3eaca59d	0.33720103
22	0xbf56ad6c	-0.8385837
23	0x3e4db942	0.20090201
24	0xbf25230c	-0.645066
25	0x3e764cbb	0.24052708
26	0xbd562321	-0.052279595
27	0x3e275aa9	0.16343178
28	0x3ce84b5d	0.028356249
29	0x3d7f7816	0.062370382
30	0xbe831f1c	-0.25609672
31	0xbf492a68	-0.7858033

continuous_emb.embedding.0.bias f4 [32]
0	0x3f5c60a7	0.8608498
1	0x3f80b9d6	1.0056713
2	0xbf054f67	-0.52074283
3	0xbe814694	-0.2524916
4	0xbec93dcb	-0.39304957
5	0x3dcafed6	0.09911887
6	0x3eca1186	0.39466494
7	0xbf61cf7a	-0.8820721
8	0xbf93d028	-1.1547899
9	0x3d8c6029	0.068542786
10	0xbf84bc5a	-1.036998
11	0xbee9907b	-0.45618042
12	0xbe68d02e	-0.22735664
13	0xbec91baf	-0.39278933
14	0x3fa2cf23	1.2719463
15	0x3f02979e	0.510126
16	0x3f63c50d	0.8897255
17	0x3f6352ff	0.88798517
18	0x3f07fe94	0.5312283
19	0xbead5b10	-0.33858538
20	0x3edfc77e	0.43706888
21	0xbf9049ee	-1.1272562
22	0x3ed30d20	0.4122095
23	0xbf0901c4	-0.5351832
24	0x3d6a8093	0.057251524
25	0x3f298117	0.662126
26	0x3f1670ad	0.5876568
27	0x3f173985	0.5907214
28	0x3ee3708d	0.44421807
29	0xbf225c70	-0.634223
30	0x3f0a68f8	0.5406642
31	0x3e56254c	0.20912665

continuous_emb.embedding.1.weight f4 [32, 1]
0	0xbf2def4f	-0.6794328
1	0xbf004192	-0.5010005
2	0x3f380bd2	0.71893036
3	0x3b3d54cc	0.0028889654
4	0x3ebaccad	0.3648428
5	0xbf35d49f	-0.7102756
6	0x3f3c2081	0.734871
7	0x3f480b25	0.78142005
8	0x3e109c7b	0.14122193
9	0xbebcb0fd	-0.3685378
10	0x3e92c19b	0.28663334
11	0xbee707ea	-0.45123225
12	0x3c4b66a1	0.012414605
13	0x3e7d6f8e	0.24749586
14	0xbdd7821c	-0.10522863
15	0xbc549cf7	-0.012976876
16	0xbde8fc16	-0.113762066
17	0xbdbddcb2	-0.0927061
18	0xbd17d448	-0.03706768
19	0x3e1083c6	0.14112768
20	0xbec705cd	-0.38871613
21	0x3eaca59d	0.33720103
22	0xbf56ad6c	-0.8385837
23	0x3e4db942	0.20090201
24	0xbf25230c	-0.645066
25	0x3e764cbb	0.24052708
26	0xbd562321	-0.052279595
27	0x3e275aa9	0.16343178
28	0x3ce84b5d	0.028356249
29	0x3d7f7816	0.062370382
30	0xbe831f1c	-0.25609672
31	0xbf492a68	-0.7858033
