TFT_power/best_model/best5.pth (torch, 235002 bytes, 348 tensors)

static_cate_emb.embedding.0.weight f4 [101, 16]
0	0x3ff6a529	1.9269153
1	0x3fbe5f53	1.4872841
2	0x3f669567	0.9007172
3	0xc006c0db	-2.105521
4	0x3f2dacd5	0.67841846
5	0xbf9e0591	-1.2345449
6	0xbd306786	-0.043067478
7	0xbfcd65ba	-1.604667
8	0xbf408bf0	-0.7521353
9	0x3fd3095b	1.648723
10	0xbec8f2f6	-0.39247864
11	0xbfb3a966	-1.4036071
12	0xbf3a566e	-0.7278813
13	0xbf0f36d1	-0.5594302
14	0xbf44d2a0	-0.7688389
15	0x3f432f9f	0.7624454
16	0x3fdb735d	1.7144581
17	0xbf890667	-1.0705079
18	0xbed14d70	-0.40879393
19	0x3f0bc735	0.5460084
20	0xbf506020	-0.81396675
21	0x3f4fab7a	0.8112103
22	0x3f4a91cc	0.7912872
23	0x3f4af573	0.79280776
24	0x3ec61886	0.38690585
25	0x3f85bd9d	1.044849
26	0xc00d593a	-2.208571
27	0x40572d62	3.362145
28	0x3e71a0b4	0.2359646
29	0xbe522caa	-0.2052485
30	0x3f029c86	0.51020086
31	0x3ed36997	0.41291496
32	0x3dd9b4c8	0.106301844
33	0xbff3e820	-1.9055214
34	0xbf840056	-1.0312603
35	0x3f8548f9	1.0412894
36	0x3f1ea864	0.61975694
37	0x3f527e17	0.8222365
38	0x3f9b198f	1.2117175
39	0xbe1bdbaa	-0.15220514
40	0xbffd239d	-1.9776493
41	0x3f5d643b	0.86481065
42	0xbf072905	-0.52796966
43	0x3daad83e	0.08342026
44	0xbfd95a68	-1.6980715
45	0x4009b05e	2.1513896
46	0xbf614be0	-0.880064
47	0xbfa94f26	-1.3227279
48	0xbf9e8459	-1.2384139
49	0xbfc192c1	-1.5122911
50	0x3f258ce9	0.64668137
51	0x3f63dded	0.89010507
52	0x3fe56eae	1.7924402
53	0x3fc02331	1.501074
54	0x3d4d6fb0	0.05015534
55	0xc030e912	-2.7642255
56	0xbda1dbee	-0.079032764
57	0x3fce67b1	1.6125394
58	0x3e425d0e	0.1898081
59	0xbe54a1fa	-0.20764914
60	0xbf267422	-0.65020955
61	0x3f01d61a	0.5071732
62	0xbfaa4d74	-1.3304887
63	0x3f811a0e	1.0086076
64	0x3f390ec9	0.72288185
65	0xbd0e5199	-0.034745786
66	0x3f1a5366	0.60283506
67	0x3fc823ac	1.5635886
68	0xbf0a4b1f	-0.54020876
69	0xbeb0a702	-0.34502417
70	0xbc537918	-0.012907289
71	0x3fbdf8ec	1.484159
72	0xbeeee105	-0.4665605
73	0x3f620b2e	0.8829831
74	0xbfd85ffc	-1.6904292
75	0x3f8d803e	1.1054761
76	0x3fe0da25	1.7566572
77	0xc03393c0	-2.805893
78	0x3dd7bf15	0.10534493
79	0xbfd5b1ac	-1.6694846
80	0x3eac39df	0.33637902
81	0xbf2cf7f7	-0.67565864
82	0xbfa277d2	-1.2692816
83	0x3cce8512	0.025209937
84	0x3f172efa	0.59056056
85	0x3f6d65bf	0.9273338
86	0x3efdd7ce	0.49578708
87	0xbf7d4f6e	-0.98949325
88	0xbf0d529a	-0.55204165
89	0x3f52f7c4	0.8240931
90	0xbeab8232	-0.3349777
91	0x3f8fddcb	1.1239561
92	0xc0007e8d	-2.007724
93	0xbebe7a49	-0.3720267
94	0x3f5881e8	0.8457322
95	0xbe8e27d2	-0.27764755
96	0xc038bb89	-2.8864462
97	0x3f3c883d	0.73645383
98	0x3f8c42a6	1.095784
99	0xbfaac0a0	-1.3340034
100	0x3ec1f3c5	0.37881294
101	0xbe41efb9	-0.18939103
102	0x3f0a365e	0.5398921
103	0x3e196ed1	0.1498368
104	0x3fb8cf02	1.4438174
105	0x3ee21fb2	0.44164807
106	0xbd8fd9f1	-0.07023991
107	0x3ea2dff8	0.318115
108	0x3e203aa7	0.15647374
109	0x3e854079	0.2602575
110	0x3cd7b6d6	0.0263323
111	0xbf3f562b	-0.74740857
112	0x3e2b6d8f	0.16741012
113	0x3e170dff	0.14751433
114	0xbedd1970	-0.4318347
115	0x3ed3c447	0.41360685
116	0x3e467dc9	0.1938392
117	0x3e1d0e66	0.15337524
118	0x3f745818	0.9544692
119	0xbff0c9f8	-1.8811636
120	0xbd6066b9	-0.054785464
121	0x3dc11db2	0.09429492
122	0x3f3a6415	0.72808963
123	0xbd1de47b	-0.038547974
124	0x3fbcd4d0	1.4752445
125	0xbe38c12f	-0.18042444
126	0x3e6bc00b	0.23022477
127	0x3f0afb26	0.5428947
128	0x40341505	2.813783
129	0x3f957e21	1.1679116
130	0xc01e5a8d	-2.4742768
131	0xbdcd701d	-0.100311495
132	0xbf176fc4	-0.59154916
133	0x3f97c250	1.1856174
134	0x3f9ce64f	1.2257785
135	0x401a8847	2.4145677
136	0x3f6661a9	0.8999277
137	0x3e1318aa	0.14364877
138	0xbf905b1e	-1.1277807
139	0xbe36af04	-0.178402
140	0xbf2ef783	-0.6834642
141	0xbe0ad820	-0.13559008
142	0xbf7adaab	-0.9798991
143	0xbdb0fb1a	-0.08641644
144	0xbff7e59a	-1.9366944
145	0x3fa52fa1	1.290516
146	0x404708a6	3.1099029
147	0xbf9a5e71	-1.2060071
148	0x3d9f15c4	0.07767823
149	0xbf230525	-0.63679725
150	0xbe909522	-0.2823878
151	0xbcfbd59e	-0.030741509
152	0x3fb12aab	1.3841146
153	0x3e96b00c	0.29431188
154	0xbea62a5e	-0.324542
155	0x3fe66743	1.8000263
156	0xbfdc14e9	-1.7193881
157	0x3e88de55	0.26732126
158	0xbf21f5a3	-0.63265437
159	0x3f93019d	1.1484867
160	0xbf3f48c1	-0.7472039
161	0x3fdc96fc	1.7233577
162	0xbf9ca9ac	-1.223928
163	0x3e8f2f3d	0.27965727
164	0x3d7c6fe9	0.061630163
165	0xbfaf298d	-1.3684555
166	0x3f7e14b2	0.9925033
167	0xbec852dd	-0.3912572
168	0xbe7faef8	-0.24969089
169	0x3e958b3f	0.292078
170	0x40321fee	2.7831988
171	0xbf52ec72	-0.82392037
172	0xbff26bab	-1.8939108
173	0xbfe70294	-1.8047662
174	0xbbf6ec31	-0.0075354804
175	0x3f0501af	0.51955694
176	0x3f879ae0	1.0594139
177	0xbf0ffe0d	-0.56247026
178	0xbfaada9d	-1.3347965
179	0x3ef395d0	0.47575235
180	0xbf1f4df3	-0.62228316
181	0xbeda76df	-0.42668816
182	0x3d06f82a	0.03295151
183	0x4064a5c1	3.5726168
184	0xbf94b45a	-1.1617539
185	0xbe911c53	-0.28341922
186	0xc0094076	-2.1445594
187	0x3f5fb011	0.8737803
188	0x3f528bd8	0.82244635
189	0xbff0155a	-1.8756516
190	0x3f1b7898	0.60730886
191	0x3e50cd2b	0.20390765
192	0x404708c3	3.1099098
193	0xbf23bfd5	-0.6396459
194	0xbe57e696	-0.21084055
195	0x3f401d28	0.7504449
196	0xbe83f97e	-0.25776285
197	0x3cabb328	0.020959452
198	0x3fae7d3f	1.3631972
199	0x3f5f03e0	0.8711529
200	0x3eb5de6f	0.35521266
201	0x3f971491	1.1803151
202	0xc004034f	-2.062702
203	0xbeebb5b4	-0.46037066
204	0x3f47c001	0.7802735
205	0xbe49f218	-0.19721258
206	0xbe90655e	-0.28202337
207	0x3e4c9300	0.19977951
208	0x3e6ed624	0.23323876
209	0x3e070155	0.13184102
210	0xbed63a26	-0.4184124
211	0x3ea094aa	0.31363422
212	0x3f85c059	1.0449325
213	0xbf906a7d	-1.1282498
214	0x3e2ddc67	0.16978608
215	0xbf9f5ef6	-1.2450855
216	0x3df581a0	0.11987615
217	0xbc82fcbf	-0.01598966
218	0x3ff63ffa	1.9238274
219	0xbfaafcfd	-1.3358456
220	0xc02530d3	-2.581105
221	0xc046bd49	-3.105303
222	0x3fca40cb	1.5801023
223	0xbffa1461	-1.9537469
224	0x3e979ef0	0.29613447
225	0x3fcd517f	1.6040496
226	0xbe3d538f	-0.18488906
227	0xbea70075	-0.32617536
228	0xbec48470	-0.38382292
229	0x3cddf3ed	0.027093852
230	0x3f229a0b	0.635163
231	0x3fde9ceb	1.7391638
232	0xbe05ca83	-0.13065533
233	0xbf2a4b31	-0.66520983
234	0xbe96becf	-0.2944245
235	0xc0072547	-2.1116502
236	0xbfce951c	-1.6139255
237	0xbf81fef2	-1.0155928
238	0x3e4236f3	0.18966274
239	0xbf8189cd	-1.0120178
240	0xbf5fa0de	-0.8735484
241	0x3ea5483d	0.32281676
242	0xbf2e68f9	-0.68128926
243	0x3f2984b8	0.6621814
244	0xbec59164	-0.38587487
245	0x3e082dda	0.13298741
246	0xbe61503e	-0.22003266
247	0xbe4bda79	-0.1990756
248	0x3fdc4ea5	1.72115
249	0x3edd70dd	0.4325017
250	0x400c040e	2.1877475
251	0xbf3dd053	-0.74146
252	0xbec90fab	-0.39269766
253	0xbf312cb9	-0.69208866
254	0x3f1d4a2e	0.61441314
255	0xbf5ad932	-0.85487664

future_emb.embedding.0.weight f4 [32, 16]
0	0x3f62f9c5	0.8866237
1	0xbf5c73d9	-0.8611427
2	0xbe8b987f	-0.27264783
3	0x3f7afce1	0.9804211
4	0xbe338a95	-0.17533334
5	0xbdfb6e68	-0.12276918
6	0x3f3dccd8	0.7414069
7	0x3eb5392f	0.3539519
8	0xbf08da39	-0.5345798
9	0x3f2536cd	0.64536744
10	0xc03f4cdb	-2.989066
11	0x3e3c1dcc	0.18370742
12	0xbef20574	-0.47269785
13	0xbf757588	-0.95882463
14	0xbfc194c9	-1.5123531
15	0x3fc0dd9f	1.5067633
16	0x3de1b0a7	0.11020022
17	0xbec4f71a	-0.38469774
18	0x3be970e9	0.0071240556
19	0x3dd87c1e	0.105705485
20	0xbf2db6f4	-0.6785729
21	0x3e535a4d	0.20639916
22	0x3f1c071a	0.60948336
23	0x3fccfbdc	1.6014361
24	0xbf4c518d	-0.79811937
25	0xbeb8db84	-0.36104977
26	0x403138ee	2.7690997
27	0x3e9b6d8a	0.3035701
28	0x3e9a355f	0.30118844
29	0x3f2eb123	0.6823904
30	0xbf375d61	-0.7162686
31	0xbeb7afbc	-0.35876262
32	0x3d9a13a4	0.075232774
33	0x3d8d789e	0.069077715
34	0xbe7a13d3	-0.24421625
35	0xbf27d424	-0.65558076
36	0xbfa53a42	-1.2908404
37	0x3d7d5730	0.061850727
38	0x3f0931cd	0.53591615
39	0x3c87ef61	0.016593637
40	0xbfaee79c	-1.3664432
41	0xbee0986c	-0.4386629
42	0xbfb6f35a	-1.4293015
43	0xbe6fc90d	-0.23416539
44	0xbeb2662d	-0.3484358
45	0x3e28ae25	0.16472681
46	0xbff68408	-1.9259043
47	0x3f0b035e	0.5430201
48	0x3e25024d	0.16114159
49	0xbec64124	-0.38721573
50	0x3edbcab7	0.42928097
51	0x3f22ef58	0.6364646
52	0xbfbf42b5	-1.4942232
53	0x3ebc8217	0.36818
54	0x3f96fea8	1.1796465
55	0xbfaca895	-1.3488947
56	0x3e73a2af	0.23792528
57	0xbf8c4794	-1.0959344
58	0xbea84511	-0.32865193
59	0xbfbbcd5f	-1.4672049
60	0xbef3804c	-0.4755882
61	0x3f6dc7f6	0.9288324
62	0xbf1af64e	-0.6053208
63	0x3fd654cc	1.6744628
64	0x3fb82fe8	1.438962
65	0xbf26e4b8	-0.6519275
66	0x3dcc78c1	0.099839695
67	0x3ef8a746	0.4856512
68	0x3f4baf82	0.7956468
69	0x3f8b5254	1.08845
70	0xbe2d1cd2	-0.16905525
71	0x3ecdee21	0.4022074
72	0xbf25bb32	-0.6473876
73	0x3ed22b53	0.4104868
74	0x3fa42480	1.2823639
75	0x4029a6f9	2.6508162
76	0xbda4dc78	-0.080498636
77	0x3e7b9ba5	0.24571092
78	0xbfca7251	-1.5816137
79	0x3e8739dc	0.2641133
80	0x3fb13a42	1.3845904
81	0x3ec75d6c	0.38938463
82	0x3eae2dbc	0.34019268
83	0x3f003b73	0.5009071
84	0xbea68256	-0.32521313
85	0x3f5ae9a1	0.8551274
86	0x3f353740	0.7078743
87	0x3fa0a0f8	1.2549124
88	0xbfc8f89f	-1.5700873
89	0xbfbec332	-1.4903319
90	0x3f88da26	1.0691574
91	0x3ff39096	1.9028499
92	0x3f3e7387	0.7439503
93	0xbea01a63	-0.3127013
94	0xc02acae8	-2.6686344
95	0xbf1ff932	-0.62489617
96	0x3e9ecb85	0.31014648
97	0x3e0e9c7f	0.13926886
98	0x3f7b9798	0.9827819
99	0x3f9e4aca	1.2366574
100	0x3e89a20a	0.26881438
101	0x3f45ef8e	0.77318656
102	0x3f4d12c7	0.80106777
103	0xbda5a91a	-0.08088894
104	0xbd172179	-0.036897156
105	0xbfbed712	-1.4909384
106	0x3d7beb3b	0.06150363
107	0x3e45c21b	0.19312327
108	0x3e3021d2	0.17200401
109	0xbebea2f0	-0.37233686
110	0xbfca487b	-1.5803369
111	0x3f80635b	1.0030321
112	0x3e84b873	0.25921974
113	0x3e3850d3	0.17999582
114	0x3ec48870	0.38385344
115	0x3d92c8c7	0.071672015
116	0xbf7c5cc8	-0.9857907
117	0x3c0b247f	0.008492588
118	0x3eb501b7	0.3535287
119	0xbf1eadcf	-0.6198396
120	0xbf5d4763	-0.8643705
121	0x3eb4f364	0.35341942
122	0xbcdd95d4	-0.027048983
123	0xbf0200ce	-0.5078248
124	0xc0002bc1	-2.0026705
125	0xbf1977af	-0.5994825
126	0x3f33913e	0.70143497
127	0xbfdb53b1	-1.7134916
128	0xbf0691f8	-0.5256648
129	0x3f7dbcfc	0.9911649
130	0xbf213338	-0.6296878
131	0xc013dffe	-2.3105464
132	0x3f5c1ffb	0.859863
133	0xbf2f653b	-0.6851384
134	0x3fc27a61	1.5193597
135	0x3ff53ad2	1.9158576
136	0x3ffebeee	1.9902017
137	0x3e2c6b43	0.16837792
138	0xc0013272	-2.018704
139	0x3fb128c6	1.3840568
140	0xbdca0ba9	-0.09865505
141	0x3f84c016	1.037112
142	0xbfdaff27	-1.7109116
143	0xbf3aa2e8	-0.72904825
144	0x3ebf79a8	0.37397504
145	0xbe3e4570	-0.18581176
146	0xbf4f10bf	-0.8088493
147	0x3e8b8a38	0.2725389
148	0x3f08a6a7	0.5337929
149	0xbf9aed77	-1.2103719
150	0x3fa85f13	1.3154014
151	0xbfb59f18	-1.4189177
152	0xbeeefeaa	-0.46678668
153	0xbf8c3c5a	-1.0955918
154	0xbe69a4f9	-0.22816838
155	0x3f245395	0.64190036
156	0x3e5d5f69	0.21618427
157	0x3ef7f378	0.4842794
158	0x3e8fddfa	0.28099042
159	0xbe908187	-0.28223822
160	0xc00bc894	-2.1841173
161	0xbe5143a0	-0.20435953
162	0xbfbb8f55	-1.4653116
163	0xbd123136	-0.035691462
164	0x3fda08e9	1.7033969
165	0x3f7cd84b	0.98767537
166	0xbf5a30cc	-0.8523071
167	0x3fa88aff	1.3167418
168	0x3ec779e2	0.38960177
169	0xbeb288f7	-0.3487012
170	0xbf4dc801	-0.80383307
171	0x3dff521b	0.12466832
172	0x3e73a024	0.23791558
173	0x3f074197	0.5283446
174	0x3f41bf28	0.75682306
175	0x3f0d31b7	0.55153984
176	0xbddffc7f	-0.10936832
177	0x402f6ed7	2.7411401
178	0xbe8148d6	-0.25250882
179	0x3ef91ce3	0.4865485
180	0xbf107bd3	-0.5643894
181	0xbf614022	-0.87988484
182	0xbe671f3b	-0.22570507
183	0xbe7a6c46	-0.24455366
184	0x3e73af2e	0.23797294
185	0x3f5a98fb	0.8538968
186	0x3f5bf354	0.85918164
187	0x3e4d5191	0.20050646
188	0x3cae64e2	0.021288339
189	0x3f86e7b9	1.0539466
190	0x3f5c7c19	0.8612686
191	0xbf9ac241	-1.2090532
192	0xbfec69fe	-1.8469846
193	0xbe9e1057	-0.3087184
194	0x3e0626d1	0.13100745
195	0x3ea74a79	0.32674006
196	0x3fb09936	1.3796756
197	0xbe1e14ae	-0.15437576
198	0xbf60d7dd	-0.8782938
199	0xbf98d31c	-1.1939425
200	0x3f79302b	0.97339123
201	0x3f047c15	0.51751834
202	0x3fa5f5c2	1.2965624
203	0xbf141f11	-0.57859904
204	0x3ed5ae81	0.41734698
205	0xbfc9427a	-1.5723412
206	0xbee2b779	-0.44280604
207	0xbf9df84a	-1.2341397
208	0xbf6adc4d	-0.917424
209	0xbec42aba	-0.38313848
210	0x3f0bb2bc	0.545696
211	0x3e31baf5	0.17356475
212	0xbfa4af6d	-1.2866036
213	0xbf89495e	-1.0725515
214	0x3ec6ff11	0.38866475
215	0xbbe632bf	-0.0070250924
216	0x3f4bad0f	0.7956094
217	0x3fae3f52	1.3613074
218	0xbfd0d96d	-1.6316353
219	0xbd05ffae	-0.03271454
220	0x3f400f35	0.75023204
221	0xbfe67d83	-1.8007053
222	0xbfabaf78	-1.3412924
223	0xbf0ff367	-0.5623078
224	0x3f72e55f	0.9488124
225	0x3fad8025	1.3554732
226	0xbe7fad5d	-0.24968477
227	0x3d960507	0.07325178
228	0x3f1f61b2	0.62258446
229	0x3f61c2bd	0.8818777
230	0xbfbc192c	-1.4695182
231	0x3ec42306	0.3830797
232	0xbf6fab51	-0.93620783
233	0x400ee16b	2.2325084
234	0xbfd947e5	-1.6975065
235	0x3e6adb2b	0.22935168
236	0x3ed58b50	0.4170785
237	0xbf858416	-1.0430934
238	0xbef9194d	-0.48652115
239	0xbff2f57f	-1.898117
240	0x3fa5e6ae	1.2961023
241	0xbf15690d	-0.5836342
242	0xbee2bcf1	-0.44284776
243	0xbfb9d17d	-1.4517056
244	0x3f7ceb6c	0.98796725
245	0xbdba0237	-0.09082454
246	0xbf7cd4c8	-0.9876218
247	0x3f897a73	1.0740494
248	0xbf640cde	-0.89082134
249	0x3fa11558	1.2584639
250	0x3e6df63f	0.23238467
251	0xbf3209cc	-0.695462
252	0x3f677f07	0.90428203
253	0xbd83bc2a	-0.06432374
254	0xbf1ca292	-0.6118556
255	0xc0246d57	-2.5691736

future_emb.embedding.1.weight f4 [7, 16]
0	0x3f132f29	0.57493836
1	0x3faec49b	1.3653749
2	0xbfb51ef3	-1.415007
3	0x3d01f098	0.03172359
4	0x3f04494c	0.5167434
5	0x3f1ded4d	0.6169022
6	0x3f30098a	0.68764555
7	0x3e5b4e6c	0.21416634
8	0xbfbbf765	-1.4684874
9	0x3ef4a0f7	0.47779056
10	0xbf7812c3	-0.9690363
11	0x3f22ede5	0.6364425
12	0xbf0351ee	-0.5129689
13	0x3fe959b9	1.8230506
14	0xbfc0eaef	-1.5071696
15	0xbfee7722	-1.8630106
16	0xbf3da1c4	-0.7407496
17	0xbd0ec792	-0.034858294
18	0x3f88a7b5	1.067618
19	0xbee13504	-0.4398576
20	0x3ff32dd1	1.8998357
21	0x3f756109	0.9585119
22	0x3f48423c	0.78226066
23	0x3d9f1f5d	0.07769654
24	0xbdbd3419	-0.092384525
25	0x40259432	2.5871701
26	0xbe671a6e	-0.22568676
27	0xbea5ec36	-0.32406777
28	0xbfbc20eb	-1.4697546
29	0xbefeeca5	-0.4978992
30	0x3e7c88d9	0.24661578
31	0xbeff3c2d	-0.49850598
32	0xbede6bdd	-0.43441668
33	0xbf14c69f	-0.5811557
34	0xbea4ec7e	-0.3221168
35	0xbfac39db	-1.3455156
36	0x402abda5	2.667825
37	0x3dff179e	0.124556765
38	0x3e695d94	0.22789603
39	0xbf01f3b0	-0.5076246
40	0xbf927257	-1.1441144
41	0x3d05548c	0.032551333
42	0xbfd2412b	-1.6426138
43	0x3e96c1af	0.29444644
44	0xba749c58	-0.00093311584
45	0x3f0f97bf	0.5609092
46	0x3daed224	0.08536175
47	0x3e8aaac7	0.27083418
48	0xbf9497de	-1.1608846
49	0xbfa7ad08	-1.309968
50	0x3d2bd140	0.041947603
51	0x3f1b907f	0.6076736
52	0x3f4c28be	0.7974967
53	0x3f731f2a	0.9496943
54	0x3f1d56ff	0.6146087
55	0xbc45fff8	-0.0120849535
56	0xbfc591e1	-1.5435144
57	0xbe0b879c	-0.1362595
58	0x3fb3c72e	1.404516
59	0xc0036b62	-2.0534291
60	0x3f82487d	1.0178372
61	0x3ea6016c	0.3242296
62	0x3ea6b496	0.3255965
63	0xbf83ce95	-1.0297419
64	0x3e05a500	0.13051224
65	0xbf07a911	-0.5299235
66	0x3fa5a975	1.2942339
67	0xbf676b57	-0.9039816
68	0x3f3fded3	0.7494938
69	0xbe325749	-0.17416109
70	0xbf800dd4	-1.000422
71	0x3ff1031a	1.8829072
72	0xbf993544	-1.196938
73	0x3f09d095	0.53833896
74	0x3f88f672	1.0700209
75	0xbe7b1a24	-0.2452169
76	0x3fa8f7eb	1.3200659
77	0xbf93578a	-1.151109
78	0x3ed95a14	0.42451537
79	0xbffe58b2	-1.9870818
80	0x3f85e186	1.0459449
81	0x3f65be30	0.8974333
82	0xbfdbf944	-1.7185445
83	0x3eb21d30	0.34787893
84	0x3ea2a6ad	0.3176779
85	0xc0059aab	-2.0875652
86	0xbf2003b6	-0.6250566
87	0xbfb5fd3a	-1.4217904
88	0x3fd3f6d0	1.6559696
89	0x3f605c78	0.87641096
90	0x3ebb9c19	0.3664253
91	0xbee0b3d4	-0.43887198
92	0xbe425633	-0.18978195
93	0xbf8546f5	-1.0412279
94	0x3d3ca60f	0.046056803
95	0x3ebf7dca	0.37400657
96	0xbebd023a	-0.3691576
97	0x3f1f2ad2	0.62174714
98	0xbfa17a0a	-1.2615368
99	0x3fc507c1	1.5392991
100	0x3ed42e93	0.41441783
101	0xbf35aeab	-0.7096965
102	0xbd8ad796	-0.06779401
103	0x3ded069a	0.11573525
104	0x3f8a2b2f	1.0794429
105	0x3ec2d243	0.38051042
106	0xbeede001	-0.46459964
107	0x3ff12763	1.8840145
108	0x3f87799e	1.058399
109	0x3d3b6b8d	0.045756865
110	0x3febfe75	1.8437029
111	0x3f26d312	0.6516582

future_emb.embedding.2.weight f4 [24, 16]
0	0xbf390629	-0.72275025
1	0xbfe8739c	-1.8160281
2	0x3fa87eba	1.3163674
3	0x3f86af6a	1.0522282
4	0x3f22135f	0.6331081
5	0x3f0680c0	0.52540207
6	0xc02f4295	-2.7384388
7	0xbf57bb50	-0.8427019
8	0xbf6a0afd	-0.91423017
9	0x3fced752	1.615946
10	0xbfc80881	-1.5627595
11	0xbf16e635	-0.5894502
12	0x40423f84	3.0351267
13	0xbede6559	-0.43436697
14	0xbf60ded8	-0.8784003
15	0xbfee03e6	-1.859494
16	0xbf38d9a4	-0.72207093
17	0xbf90861e	-1.1290929
18	0x3fbb3fde	1.4628866
19	0x3f6251ff	0.88406366
20	0x3f37ccc2	0.7179681
21	0x3f3777a6	0.71666944
22	0xc03883b9	-2.8830397
23	0xbd97c52f	-0.07410657
24	0xbf23468a	-0.6377951
25	0x4024732d	2.5695298
26	0xbfc75149	-1.5571681
27	0xbf0f2c6c	-0.5592716
28	0x401593a1	2.3371356
29	0xbe8e4878	-0.27789664
30	0xbf7226d0	-0.94590473
31	0xbfb6fc8b	-1.429582
32	0xbfa0c638	-1.2560492
33	0xbfd6d06c	-1.6782355
34	0x400d617d	2.2090752
35	0x3f14e2d1	0.58158594
36	0xbe68fada	-0.22751942
37	0x3e95af1e	0.29235166
38	0xc0340770	-2.812954
39	0xbf09dfe1	-0.5385724
40	0x3da31e51	0.07964767
41	0x40507afe	3.2575068
42	0xbf70ccce	-0.9406251
43	0xbf505738	-0.81383085
44	0x40176eed	2.3661454
45	0xbe1e423e	-0.15454957
46	0xbf14195e	-0.5785121
47	0xbf43b418	-0.76446676
48	0xbfa3fbbc	-1.2811198
49	0xc0007e97	-2.0077264
50	0x4037df19	2.8729918
51	0x3f8f2b8b	1.1185163
52	0xbdd75b3b	-0.10515448
53	0xbd9ecaa4	-0.077534944
54	0xc0458448	-3.0861988
55	0xbf217982	-0.6307603
56	0xbf76ab16	-0.96354806
57	0x405fb67b	3.4955127
58	0xbfa0419b	-1.2520021
59	0xbf994113	-1.1972984
60	0x40285b02	2.6305547
61	0xbf69380d	-0.9110115
62	0x3ecc6740	0.39922523
63	0xbd6da3fa	-0.05801771
64	0xbfbd4342	-1.478615
65	0xbfe4a72b	-1.7863516
66	0x3f5a8124	0.853533
67	0x3f80f71f	1.0075415
68	0xbda1881d	-0.0788729
69	0x3fec4aae	1.846029
70	0xc02aece3	-2.6707084
71	0xbfa16b3b	-1.2610849
72	0xbfbaccfa	-1.4593804
73	0x4015956d	2.3372452
74	0xbf58d2cc	-0.8469665
75	0xbfb2f18a	-1.3979962
76	0x404b1d6c	3.1736708
77	0x3f1ad639	0.6048313
78	0xbe47bc40	-0.19505405
79	0x3f2a7b57	0.6659445
80	0x3e0ab8a5	0.13546999
81	0xbebd916c	-0.3702501
82	0xbfbafe75	-1.4608904
83	0xc01a9479	-2.415312
84	0x3fea6703	1.8312687
85	0xbf91ca40	-1.1389847
86	0x3f24a39d	0.64312154
87	0x3e11bcf3	0.14232235
88	0xbfa157fb	-1.2604975
89	0x3f4ebbc2	0.80755246
90	0x403165ed	2.771846
91	0x402b5042	2.6767735
92	0x3c67253e	0.014108
93	0xbe858568	-0.26078343
94	0xbf7b8f42	-0.9826547
95	0x3fd37f8e	1.6523302
96	0xbf3ff281	-0.74979407
97	0x3f39fd9e	0.72652614
98	0xbf5d9e79	-0.86569935
99	0xc033c3e7	-2.808832
100	0x3f629025	0.885012
101	0x3eeb2709	0.4592822
102	0x3f3b0a23	0.7306234
103	0x3f4e08e2	0.80482304
104	0xbfd93d54	-1.6971841
105	0xbfb3f250	-1.4058323
106	0x4004b5bb	2.073592
107	0x404c23aa	3.1896768
108	0x3f4ef5a3	0.8084356
109	0x3f94c5fa	1.1622918
110	0xbf7a10a5	-0.9768165
111	0x3ee44d1c	0.4459008
112	0xbe3a982a	-0.18222108
113	0x3fb7e264	1.4365964
114	0xbeb794b7	-0.35855648
115	0xc01cd267	-2.450342
116	0x3fe397ee	1.778074
117	0x3fe6b4d1	1.8023931
118	0x3e5089c4	0.20365053
119	0x3fc5f9a4	1.5466809
120	0x3c75c8cc	0.015001487
121	0x3d9c1595	0.07621304
122	0x3f9a31ea	1.2046483
123	0x4001dfde	2.0292888
124	0xbf086d44	-0.53291726
125	0xbee08259	-0.43849447
126	0xbfd3a7e2	-1.6535609
127	0x3eec85a9	0.46195725
128	0xbdd91e79	-0.10601515
129	0xbebd50e0	-0.36975765
130	0xbe045e1a	-0.12926522
131	0xbfe74507	-1.806794
132	0x3eaecbf2	0.34139973
133	0x3e676247	0.22596084
134	0x3f60c053	0.87793463
135	0x3f8047a3	1.0021862
136	0x3f18ef6d	0.59740335
137	0xbffc38e1	-1.9704858
138	0x3f403623	0.75082606
139	0x3f29aebf	0.66282266
140	0x3e8fdb93	0.2809721
141	0x3e9e942d	0.30972424
142	0xbe7ed7c0	-0.2488699
143	0x3f58924d	0.8459824
144	0xbe8bcf75	-0.27306715
145	0x3f8d3895	1.1032892
146	0x3fb2bcb6	1.396384
147	0xbf7abedf	-0.97947496
148	0x3f807015	1.0034205
149	0xbc84f017	-0.016227765
150	0x3f1cb768	0.61217356
151	0x3f16acad	0.5885723
152	0x3facc92e	1.3498895
153	0xbe9ceb4a	-0.3064826
154	0x3f2d27d5	0.67638904
155	0xbe9d8211	-0.30763295
156	0xbf9c9aa1	-1.2234689
157	0xbea085c4	-0.31352055
158	0x3db94f63	0.09048345
159	0x3ed42198	0.4143188
160	0xbdc0a62a	-0.09406693
161	0x3db835a8	0.08994609
162	0x3f9371f3	1.151915
163	0xbf8322cc	-1.0244994
164	0x3ece6cb6	0.40317315
165	0x3e54ff9d	0.20800634
166	0x3eb7a1f3	0.35865745
167	0xbeed3799	-0.4633148
168	0x3f575c24	0.8412497
169	0xbf84df7d	-1.0380703
170	0x3e3de367	0.18543778
171	0xbfc45085	-1.5337073
172	0xbf8486c5	-1.0353628
173	0xbe91184d	-0.28338853
174	0x3fd97c35	1.699103
175	0xbea3c0dc	-0.31983078
176	0x3f424ca9	0.75898224
177	0x3fd18174	1.6367631
178	0x3f1e3fb7	0.6181597
179	0xbf058a1d	-0.5216387
180	0xbc0b138f	-0.00848855
181	0xbf3d01ad	-0.7383068
182	0xbf726012	-0.9467784
183	0x3f887fa9	1.0663959
184	0x3e9b0af8	0.30281806
185	0xbf9f23ff	-1.243286
186	0xbca8f38d	-0.020623947
187	0x3ede85bf	0.43461415
188	0xbf3637f4	-0.7117913
189	0x3cf8e4c6	0.030382525
190	0x3e7e5ef8	0.24840915
191	0x3e8e1f09	0.27758053
192	0xbef8234f	-0.48464438
193	0xbe8c108e	-0.2735638
194	0x3f053cff	0.520462
195	0x3f34a6b9	0.705669
196	0xbebd8676	-0.37016648
197	0x3dd73fac	0.10510191
198	0xbfdc37eb	-1.7204565
199	0x3f83d3e3	1.0299038
200	0x3ede126f	0.4337344
201	0xbfdf3153	-1.7436928
202	0xbe6663ec	-0.22499055
203	0x3f2637bf	0.6492881
204	0xbfd87a21	-1.6912271
205	0x3fa5307b	1.290542
206	0x3ea555fd	0.32292166
207	0x3eed95d4	0.46403372
208	0x3f3d4cc5	0.73945266
209	0x3faa443a	1.3302071
210	0x3f1fbfd8	0.62402105
211	0x3fb04942	1.3772357
212	0x3fbacb16	1.4593227
213	0xbedc0ced	-0.42978612
214	0x3b078c64	0.0020683045
215	0x3f159d93	0.58443564
216	0x3e8dd0b0	0.27698278
217	0xbf9e83d4	-1.2383981
218	0x3d42b67e	0.04753732
219	0x3f1b0b1a	0.60563815
220	0xbfc52fa3	-1.5405163
221	0x3ca93443	0.020654803
222	0x3cb44f35	0.022010425
223	0x3ec4b0a9	0.3841603
224	0x3f3cd354	0.7375996
225	0xbec2a6bc	-0.38017833
226	0x3f5c5e3c	0.8608129
227	0x3fc4b304	1.5367131
228	0x3f3f3cac	0.7470195
229	0xbe2cd94c	-0.16879767
230	0xbf106a81	-0.5641251
231	0x3ed541b3	0.41651687
232	0x3f3c0efc	0.73460364
233	0xbf85ca9b	-1.0452455
234	0x3fa10a4b	1.2581266
235	0x3f2079b7	0.6268572
236	0xbfe72fb2	-1.806143
237	0x3d0522b6	0.032503806
238	0xbefe5333	-0.4967285
239	0x3f10f45f	0.5662288
240	0x3f428782	0.7598802
241	0xbf03044d	-0.5117844
242	0x3f43f441	0.76544577
243	0x3fa83030	1.3139706
244	0xbed65eb9	-0.41869143
245	0xbf293d9e	-0.66109645
246	0xbe7c1f45	-0.24621303
247	0xbdb8e775	-0.09028522
248	0xbdf25683	-0.11832907
249	0xbf9007c9	-1.1252376
250	0x3fbe8c6d	1.4886605
251	0x3dfce7d7	0.123489074
252	0xbf9cefb2	-1.2260649
253	0x3f513584	0.81722283
254	0xbe9fb919	-0.31195906
255	0x3f1ab6e0	0.60435295

future_emb.embedding.3.weight f4 [2, 16]
0	0x3e80bf72	0.2514606
1	0x3f878265	1.0586668
2	0xbdf6c940	-0.12050104
3	0xbf6bf64e	-0.92172706
4	0x3fa0a5f6	1.2550647
5	0x3d58ad21	0.052899484
6	0xbf58f12f	-0.84743017
7	0x3e5302b7	0.20606504
8	0xbfb071bc	-1.3784709
9	0x3f6433dc	0.8914163
10	0x3f8a7e7c	1.081985
11	0x3eca751b	0.3954247
12	0xbece4ceb	-0.4029306
13	0x3f38e252	0.7222034
14	0x3ea3f934	0.32026064
15	0xbcec4a95	-0.028844157
16	0x3b66c8fe	0.0035215016
17	0xbebabc4e	-0.3647179
18	0xbd7757d3	-0.06038649
19	0xbf8190b0	-1.012228
20	0x3cfe6ef3	0.031058764
21	0xbc756e34	-0.014979888
22	0xbcd498d2	-0.025951777
23	0x3e8a89c0	0.2705822
24	0xbf26eb53	-0.65202826
25	0x3f26b980	0.651268
26	0x3fa314cd	1.2740723
27	0x3ae2ad50	0.0017294083
28	0xbb3d853f	-0.0028918532
29	0x3f92b45d	1.1461293
30	0x3e274713	0.16335706
31	0xbc83ff69	-0.016113

category_emb.embedding.0.weight f4 [32, 16]
0	0xbfb36fb6	-1.4018466
1	0x3f0fa626	0.561129
2	0x3f935e57	1.1513165
3	0x3f32e859	0.69885784
4	0xbf16fa45	-0.5897563
5	0xbe288f43	-0.164609
6	0xbefc7719	-0.49309614
7	0x3f010bbd	0.50408536
8	0x3e0d0656	0.13771948
9	0x3e8cd741	0.27507976
10	0x3eefc4a4	0.46829712
11	0xbf33f77e	-0.7029952
12	0xbe37ea6b	-0.17960517
13	0x3f65bb0d	0.8973854
14	0x3d53bcf1	0.05169386
15	0xbf0812a7	-0.5315346
16	0xbec45805	-0.38348404
17	0xbe7c870d	-0.24660893
18	0xbd734718	-0.059393972
19	0xbefc7ee2	-0.49315554
20	0x3d9fa416	0.07794969
21	0x3f27332f	0.65312475
22	0x3f8720f5	1.0556933
23	0xbea57a79	-0.32320002
24	0xbf71e571	-0.94490725
25	0x3f35b3f9	0.7097774
26	0x3eda410c	0.42627752
27	0xbfc15554	-1.5104165
28	0x4004b7b7	2.073713
29	0xbf86d052	-1.0532324
30	0x3f9c3aa6	1.2205398
31	0x3ee070e1	0.4383612
32	0x3fabe860	1.343029
33	0xbf40ffd2	-0.7539035
34	0x3f8611e1	1.0474206
35	0x3fbd5f74	1.4794755
36	0x3ea04cf9	0.31308725
37	0xbfd80ac6	-1.6878288
38	0x3fc0236d	1.5010811
39	0xbf3ac883	-0.72962207
40	0xbf281e88	-0.65671587
41	0x3f4daaa9	0.8033853
42	0x3f64dd5f	0.89400285
43	0x3fa190b6	1.2622287
44	0x3e38d559	0.18050136
45	0xbbc9615d	-0.00614564
46	0x3f54411e	0.8291186
47	0xbf85894c	-1.0432525
48	0xbe5ae851	-0.21377684
49	0x4004ab09	2.0729392
50	0x3fcf5805	1.6198736
51	0xbee5d434	-0.4488846
52	0x3fcbde29	1.5927173
53	0x3ef267a3	0.47344694
54	0xbe2c2956	-0.16812643
55	0xbf4fa95f	-0.81117815
56	0xc00bf338	-2.18672
57	0x3f4b7fcd	0.79491884
58	0x3f5c7e44	0.86130166
59	0xbed9fb70	-0.42574644
60	0x3f16fcdb	0.58979577
61	0xbeb0bffc	-0.34521472
62	0x3ed17949	0.40912846
63	0xbfc2e893	-1.5227226
64	0xbf8a374e	-1.0798128
65	0xbf8fdbe2	-1.1238978
66	0xbf4d9973	-0.8031227
67	0xbcf0a189	-0.029373901
68	0x3f945379	1.1587974
69	0xbc64e3cb	-0.013970326
70	0x3ccc77f1	0.024959536
71	0xbf8fc09c	-1.1230655
72	0xbfb5940d	-1.4185807
73	0x3fc07b58	1.5037642
74	0xbf9c8da4	-1.2230725
75	0x3f17d05d	0.5930231
76	0x3e60b56e	0.2194421
77	0xbfdb1d7a	-1.711837
78	0xbf0071a4	-0.501734
79	0xbfb2ce2a	-1.3969166
80	0xbd1f323c	-0.038866267
81	0xbeb0a3f0	-0.34500074
82	0x3f4d18a9	0.80115753
83	0x3f9d85a6	1.2306411
84	0x3edbf45a	0.42959863
85	0x3eba36a5	0.36369815
86	0xbf95b8d5	-1.1697031
87	0xbf4116d6	-0.7542547
88	0xc043a0ce	-3.0566897
89	0xbfc1c38f	-1.5137805
90	0x3f74b393	0.9558651
91	0x3f6f3116	0.93434274
92	0x3f3bf552	0.73421204
93	0xbf602914	-0.8756268
94	0xbfa43aba	-1.2830422
95	0xbfd67792	-1.675524
96	0x3fdbcf8a	1.7172711
97	0x3fc8f34a	1.5699246
98	0x3fc5074d	1.5392853
99	0x3ec66381	0.3874779
100	0x3f97c417	1.1856717
101	0x3e34a36e	0.17640468
102	0x3fceed55	1.6166178
103	0xbec2fe03	-0.3808442
104	0xc053903b	-3.3056781
105	0xbf940ec3	-1.1567005
106	0x3fbf6e34	1.4955506
107	0xbf81eabd	-1.0149761
108	0x405383af	3.3049123
109	0x3f25f8e4	0.648329
110	0x3f588611	0.8457957
111	0xbed84fc7	-0.42248365
112	0x3f310b4e	0.69157875
113	0xbf828646	-1.0197227
114	0xbf291bf0	-0.66058254
115	0x3f3c6832	0.7359649
116	0x402441af	2.566509
117	0xbf77d91a	-0.96815646
118	0x3fbb6f1f	1.4643286
119	0xbfc3347d	-1.5250393
120	0x3f291ff5	0.6606439
121	0xbdd1ae6f	-0.10238349
122	0x40310f84	2.766572
123	0x40064fff	2.0986326
124	0x3e728a0f	0.23685478
125	0xbf0517c8	-0.5198941
126	0xc049253d	-3.1428978
127	0x3f0a3693	0.53989524
128	0xbe3d1330	-0.1846435
129	0x3c6ea132	0.014564799
130	0xbf36f4ca	-0.7146727
131	0xc00916d3	-2.142018
132	0x3f5cf3f7	0.8630976
133	0x3dbfa524	0.0935767
134	0x3f9de4b0	1.2335415
135	0xbfc3dc13	-1.5301536
136	0x3f92933b	1.1451181
137	0x3ef51f83	0.47875604
138	0x3f1e4620	0.6182575
139	0xbd012931	-0.031533424
140	0xbfa5281a	-1.2902863
141	0xbf8d8282	-1.1055453
142	0xbeb256bd	-0.348318
143	0xbf9633aa	-1.1734517
144	0x3fde9060	1.738781
145	0xbfc08211	-1.5039693
146	0xc031a16a	-2.775477
147	0xbe1956ea	-0.14974561
148	0x3fd0f83f	1.6325759
149	0x3ea420f5	0.32056394
150	0xbf0caa48	-0.5494733
151	0xbf51726c	-0.8181522
152	0xbe8875d6	-0.26652402
153	0xbe5221c8	-0.20520699
154	0x3ccf9863	0.025341218
155	0x3f4bca81	0.7960587
156	0x3df03657	0.117291145
157	0xbf89ff66	-1.0781066
158	0x3f6b17e4	0.9183333
159	0x3f1ec749	0.62022835
160	0x3f941f48	1.1572046
161	0xbfab2b16	-1.3372524
162	0x3f24b5ff	0.64340204
163	0xbfcbc6c9	-1.592004
164	0x3f7edcb7	0.99555534
165	0x3f3510db	0.70728844
166	0x3f9c4954	1.2209878
167	0x3e8fc557	0.28080246
168	0xbf525ef4	-0.82176137
169	0x3fca4d73	1.5804886
170	0xbe879ec3	-0.26488313
171	0x3edff592	0.43742043
172	0xbf82ebc8	-1.0228205
173	0x3fdff58b	1.7496809
174	0xbf29fe91	-0.6640406
175	0x3fa52ca2	1.2904246
176	0x3e8fd6ee	0.28093666
177	0xbf8f4b96	-1.1194942
178	0xbd4b9d7f	-0.049710747
179	0xbf935470	-1.1510143
180	0xbe99753f	-0.29972264
181	0x3ec3e80e	0.3826298
182	0x3f40aae6	0.7526077
183	0x3e564789	0.20925726
184	0x3e61c8f3	0.22049312
185	0x3f33699f	0.7008304
186	0x3e678a47	0.22611342
187	0xbe5e8163	-0.21729045
188	0xbf3e26fe	-0.7427825
189	0xbf42c792	-0.7608577
190	0xbf44783a	-0.7674595
191	0xbfec077d	-1.8439785
192	0xbf908d6f	-1.1293162
193	0x3fd7a498	1.6847105
194	0x3e40f0c0	0.18841839
195	0xbfd29c26	-1.6453903
196	0xbf23d562	-0.6399747
197	0x3ed082d1	0.40724805
198	0x3f738a40	0.9513283
199	0xbf6dc5fe	-0.9288024
200	0xbe922c2c	-0.28549325
201	0x3f900966	1.1252868
202	0x3e613029	0.21991028
203	0x3f240441	0.6406899
204	0x3e92eef0	0.2869792
205	0x3f83b139	1.0288459
206	0xbd2257cd	-0.039634515
207	0xbface374	-1.3506913
208	0x3e22cb6d	0.15897913
209	0x402067bc	2.5063314
210	0xc008737c	-2.1320486
211	0xbf9b7a70	-1.214674
212	0xbf276e92	-0.6540309
213	0x3e3d573e	0.18490312
214	0xbf9ccad2	-1.2249396
215	0xbff4b1cd	-1.911676
216	0xbf6335d1	-0.8875399
217	0x3e09dd4b	0.13463323
218	0x4001f6d4	2.0306902
219	0xbfe60370	-1.7969799
220	0xbf8b69c8	-1.0891657
221	0xbf3991f0	-0.7248831
222	0x3d7c913f	0.061661955
223	0xbff24767	-1.892804
224	0xbefa8138	-0.4892671
225	0x3f3e78c2	0.7440301
226	0x3f43fe56	0.7655996
227	0xbf5b4968	-0.85658884
228	0x3d357dd1	0.04430944
229	0xbfd449ac	-1.6584983
230	0xbf0fd9df	-0.5619182
231	0xbf1cf1a9	-0.61306244
232	0xbe10d5ca	-0.14144054
233	0x3f451a87	0.769936
234	0x3f8341c2	1.0254443
235	0xbedbb5b1	-0.42912057
236	0x403b529e	2.9269176
237	0x4007d467	2.122339
238	0x3de6419e	0.11242984
239	0xbf9ff000	-1.2495117
240	0xbf57594e	-0.84120643
241	0x3fa75a82	1.3074496
242	0x3f07ee3a	0.5309788
243	0xbf17e5c5	-0.59334975
244	0x3ddb77e9	0.107162304
245	0xbe4d142c	-0.20027226
246	0xbf93cdad	-1.1547142
247	0xbfe3461d	-1.7755772
248	0x3fb8b48e	1.4430101
249	0x3fae8eef	1.363737
250	0x3f4bc75b	0.7960107
251	0xbf81dc66	-1.0145385
252	0xbf8fc08d	-1.1230637
253	0x3f905362	1.1275446
254	0xbf2ae571	-0.6675635
255	0xbf865456	-1.0494487

category_emb.embedding.1.weight f4 [7, 16]
0	0xbf8297a5	-1.0202528
1	0x3f92103a	1.1411202
2	0xbfec0d87	-1.8441628
3	0xc027e02c	-2.6230574
4	0x3eac3863	0.3363677
5	0xbe6fa756	-0.23403677
6	0xbf5ff0c4	-0.87476754
7	0xbe9d1c79	-0.30685785
8	0xbe8d9653	-0.2765375
9	0x3fa66b76	1.3001544
10	0xc01af1ec	-2.4210157
11	0xbea71333	-0.32631835
12	0x4048331e	3.12812
13	0x3e4b04e5	0.19826086
14	0xbfb3ae7f	-1.4037627
15	0x3e66eff1	0.22552468
16	0x3f939cad	1.1532189
17	0x3fb4ff79	1.4140464
18	0xbef667d8	-0.48126101
19	0xbe40145a	-0.18757764
20	0x3fc00a6e	1.5003183
21	0xbecd03e7	-0.4004204
22	0x3e474baf	0.19462465
23	0xbfae1014	-1.3598657
24	0x3fe3eeae	1.7807214
25	0xbee1dda6	-0.44114417
26	0x3f27399a	0.6532227
27	0xbf5784c8	-0.84186983
28	0x3e9a775a	0.30169183
29	0x3eb8c3cf	0.3608689
30	0xbf4a51c2	-0.79031
31	0xbf6e3016	-0.93042123
32	0x3f329ef1	0.69773775
33	0x3e1914d8	0.14949358
34	0x3ea75ccb	0.32687983
35	0x4019b75e	2.4018168
36	0x3de1bcde	0.11022352
37	0xc0191eac	-2.392497
38	0x3f6e5db6	0.9311174
39	0x400edee1	2.2323534
40	0x3e7d7188	0.2475034
41	0x3fef71fd	1.8706661
42	0xbf92a5bf	-1.1456832
43	0xbf9d2d39	-1.2279426
44	0x3dba05dc	0.09083149
45	0x3fa21b1a	1.2664521
46	0xbf902c13	-1.126345
47	0xbfd53037	-1.6655339
48	0x3e11226f	0.14173292
49	0x3fe20555	1.7657877
50	0xbeb828a3	-0.35968503
51	0x3f15a5e9	0.58456284
52	0x3edd2de6	0.4319908
53	0xbf931d7d	-1.1493374
54	0xbfb260cd	-1.3935791
55	0x3e2d66fb	0.16933815
56	0x3f8900b7	1.0703343
57	0x3f9d98bd	1.2312237
58	0xbef79f12	-0.4836355
59	0xbe8481b3	-0.25880203
60	0x3d55eb6e	0.052226476
61	0xbf522654	-0.82089734
62	0x3e969be0	0.29415798
63	0x3e952f20	0.29137516
64	0x3f85e3ed	1.0460182
65	0xbfa56631	-1.2921811
66	0xbf8cd16f	-1.1001414
67	0xbfad37d3	-1.3532661
68	0x3ff165fe	1.885925
69	0xbf5feff9	-0.87475544
70	0xbdf9629d	-0.12177012
71	0x3f2ca123	0.67433375
72	0x3f4b4412	0.7940074
73	0x3fab33e1	1.3375207
74	0xbeb820e1	-0.35962585
75	0xbf839490	-1.0279713
76	0xbf0d3b25	-0.5516837
77	0xbf8a414c	-1.0801177
78	0xbd5511d5	-0.05201896
79	0x3f44f296	0.76932657
80	0xbe94edbd	-0.2908763
81	0x3f133cc7	0.57514614
82	0xbe40967b	-0.18807404
83	0xbf3b918d	-0.7326897
84	0xbef3ddb4	-0.47630084
85	0xbf642b9d	-0.8912905
86	0x3f1465dd	0.5796793
87	0x40254df3	2.5828826
88	0xbfdd2bcd	-1.7278992
89	0x3fbac9be	1.4592817
90	0x3f817c7e	1.0116117
91	0x3e6c1e92	0.23058537
92	0xbf8695d1	-1.051447
93	0x3ee7333c	0.45156276
94	0xbe9dae80	-0.30797195
95	0xbec6b266	-0.38807982
96	0xbeec2faa	-0.46130115
97	0xbe47d3d7	-0.19514404
98	0x3ffb278d	1.9621445
99	0xbb4496f0	-0.0029997192
100	0x3f815c92	1.0106375
101	0xbf4d6e2c	-0.80246234
102	0x3e8c8522	0.27445322
103	0x3f91885e	1.1369741
104	0x3f76066d	0.96103555
105	0x3c6c3fe7	0.014419532
106	0x3f102a5a	0.56314623
107	0x3f2583e3	0.6465437
108	0x3ef87e98	0.48534083
109	0xc00c2af9	-2.1901228
110	0xbed322f1	-0.41237596
111	0xbfda894a	-1.7073147

category_emb.embedding.2.weight f4 [24, 16]
0	0x3f6e5f1b	0.9311387
1	0xbec2788a	-0.3798259
2	0x3d925b8c	0.071463674
3	0xbfd85721	-1.690159
4	0xbed2e7ae	-0.41192383
5	0xbea7809b	-0.32715306
6	0xbfaf2eb6	-1.368613
7	0xbe868981	-0.26276782
8	0xbf94975b	-1.160869
9	0xbfab4f61	-1.33836
10	0xbf29de7c	-0.6635511
11	0x3ecdd60c	0.40202367
12	0xbe917427	-0.2840893
13	0xbf29134c	-0.6604507
14	0xbfee0758	-1.8595991
15	0xbe8e138e	-0.27749294
16	0x3f27efaf	0.65600103
17	0xbf84396d	-1.0330025
18	0x3f08516a	0.5324923
19	0xbfb141d6	-1.3848217
20	0xbe5cfb31	-0.21580197
21	0xbfa33f41	-1.2753679
22	0x3e28b30a	0.16474548
23	0x3d8e716b	0.069552265
24	0xbea9efa9	-0.3319066
25	0x3e8594e9	0.26090172
26	0xbe128cf5	-0.14311583
27	0x3cb695cc	0.022288226
28	0xb9618ff1	-0.00021511294
29	0x3ee2a8e3	0.44269475
30	0xc00b2c88	-2.174593
31	0x3f3b3282	0.73123944
32	0x3f07524a	0.5285994
33	0xbf173b1c	-0.5907457
34	0x3f1c5878	0.6107249
35	0xbf90c13f	-1.1308974
36	0xbf35f0af	-0.7107038
37	0xbfa7a591	-1.3097402
38	0xbe158c5b	-0.14604323
39	0x3e5906c8	0.21193993
40	0xbf73f432	-0.9529449
41	0xbe490582	-0.19631007
42	0xbf275b2e	-0.65373504
43	0x3e70aae5	0.23502691
44	0x3efa8675	0.48930708
45	0x3fc9e7cf	1.5773867
46	0xbfc85686	-1.5651405
47	0x3f928155	1.1445719
48	0x3f1de253	0.6167347
49	0x3e86df95	0.26342455
50	0xbe0d3df8	-0.1379317
51	0xbf7934a6	-0.9734596
52	0xbfa0ecc3	-1.2572254
53	0xbf98bfb0	-1.1933498
54	0x3e36b272	0.17841509
55	0xbf23627a	-0.6382214
56	0xbff19cac	-1.8875937
57	0x3f364ad3	0.7120792
58	0x3bf3dc2f	0.0074420194
59	0xbea8115e	-0.3282575
60	0x3f08e072	0.53467476
61	0x3eb234ad	0.34805813
62	0xc0089cf8	-2.1345806
63	0x3fe4179c	1.7819705
64	0x3e4686b1	0.19387318
65	0xbf4d0178	-0.80080366
66	0xbe0b4ddb	-0.13603918
67	0xbf33bf05	-0.7021335
68	0xbf14bb52	-0.5809833
69	0xbf71546e	-0.94269454
70	0x3f4a15de	0.78939617
71	0xbeeeb059	-0.46618918
72	0xbf92b219	-1.1460601
73	0x3eb3cc87	0.3511698
74	0xbf4dba4b	-0.80362386
75	0xbee3b7e2	-0.4447623
76	0x3efd9639	0.49528673
77	0x3fb9fffa	1.4531243
78	0xc03f5318	-2.9894466
79	0x3fa4bcac	1.2870078
80	0x3f9e1be3	1.235226
81	0xbf8a84d6	-1.0821788
82	0xbf8c4a50	-1.0960178
83	0xbea339d8	-0.3188007
84	0xbf83a311	-1.0284139
85	0xbd800e97	-0.06252783
86	0xbf618ff7	-0.881103
87	0xbf6d67a4	-0.9273627
88	0xbf5aea13	-0.8551342
89	0x3f8ff570	1.1246777
90	0xbf6d1d6c	-0.9262302
91	0x3f019819	0.5062271
92	0x3f17c90f	0.59291166
93	0x4018bb74	2.3864412
94	0xc0045c79	-2.068144
95	0xbdd796b1	-0.10526789
96	0x3f0a61c1	0.5405541
97	0x3e89b3c5	0.26894966
98	0xc006f866	-2.108911
99	0xbf614f79	-0.8801189
100	0x3f307055	0.68921405
101	0x3e72308a	0.23651329
102	0xbfc7e0f8	-1.561553
103	0xbf785ab0	-0.9701338
104	0x3d90c78a	0.07069309
105	0x3ff42d6a	1.9076359
106	0x3dc7996b	0.09746059
107	0x3e89a50a	0.26883727
108	0x3eb2918a	0.34876662
109	0x3f80d347	1.0064477
110	0xbf4ee6a8	-0.80820704
111	0x3f575dc0	0.84127426
112	0x3e2be4d3	0.16786508
113	0xbe2a2433	-0.16615371
114	0xbfaf83eb	-1.3712133
115	0x3f82c5da	1.021663
116	0x3f946ed2	1.159632
117	0x3d2118ca	0.03933028
118	0xbfcdc469	-1.6075565
119	0xbf18558f	-0.5950555
120	0x3fa2aa32	1.270819
121	0x3fd9089b	1.6955751
122	0xbf8abe93	-1.0839409
123	0x3fccba97	1.5994443
124	0xbfdfb3af	-1.747671
125	0xbed19d3e	-0.4094028
126	0xbf6208aa	-0.8829447
127	0x3f9c932c	1.2232413
128	0xbf977277	-1.1831807
129	0x3fcbe450	1.592905
130	0xbf883977	-1.0642537
131	0xbfb4d364	-1.4127011
132	0x3f8cd742	1.1003191
133	0x3f290eb9	0.6603809
134	0xbebebcc5	-0.37253395
135	0xbfed4156	-1.8535564
136	0x3ea65160	0.3248396
137	0x3fd47a93	1.6599907
138	0xbdb6d75d	-0.08927796
139	0x40450314	3.0783129
140	0xbf86871c	-1.0509982
141	0xbf60f878	-0.87879133
142	0x3f400cdd	0.7501963
143	0xbdd2ece9	-0.10299093
144	0xbf6c2b2a	-0.92253363
145	0xbd5b6808	-0.05356601
146	0x3fe7849e	1.8087347
147	0x3f59ee32	0.8512908
148	0x3f2aef43	0.66771334
149	0x3f363e3c	0.7118871
150	0x3f6ae03e	0.91748416
151	0x3c43cf76	0.011951318
152	0xbf3cb7b6	-0.7371782
153	0x3f248c45	0.64276534
154	0xbebd5794	-0.3698088
155	0x3f17c5f2	0.59286416
156	0xc0010da4	-2.0164576
157	0xbe40517a	-0.18781081
158	0x3ff66543	1.9249653
159	0xbf8314c6	-1.0240715
160	0xbf9455f6	-1.1588733
161	0x3fa814d4	1.3131356
162	0x3f93555e	1.1510427
163	0x3f7e7b26	0.9940666
164	0x3f1204a5	0.57038337
165	0x3ffc2193	1.9697746
166	0x3fb4e98a	1.413377
167	0xbfc5aeb5	-1.5443941
168	0x3f6b5db5	0.9193986
169	0x3f1d01fa	0.6133114
170	0xbf3d6819	-0.73986965
171	0x3f9ddbd6	1.2332714
172	0xbfb0bb0f	-1.3807086
173	0x3f4b49cc	0.7940948
174	0x3fad9398	1.3560667
175	0xbf49e5d3	-0.7886631
176	0xbe90650c	-0.28202093
177	0x3ea85f0f	0.32885024
178	0x3ffb6a4b	1.9641813
179	0x3e3f75d5	0.18697293
180	0x3e2f87d0	0.17141652
181	0x3f5c3308	0.8601537
182	0x3fd2acf2	1.6459029
183	0xbfbd4a42	-1.4788287
184	0xbf625f54	-0.8842671
185	0x3fa68f4f	1.3012484
186	0x3f390d12	0.7228557
187	0x3f36cc66	0.7140564
188	0xbeb08e7b	-0.34483704
189	0xbfb692c4	-1.4263539
190	0x3fbfcc68	1.4984255
191	0xbfa8e5b7	-1.3195103
192	0xbfcb5e9a	-1.5888245
193	0x3db28589	0.08716876
194	0x402f5e89	2.740145
195	0x3fc58485	1.5431067
196	0x3f29f93f	0.66395944
197	0x3f82784f	1.0192965
198	0x3e93db08	0.28878045
199	0xbec9ea84	-0.39436734
200	0xbf9d9dcf	-1.2313784
201	0x3f017a74	0.50577474
202	0xbf7e04db	-0.9922616
203	0x3e459e39	0.19298638
204	0x3e2cd494	0.16877967
205	0xbf923b07	-1.1424264
206	0x3f54ced9	0.83128124
207	0xbf010756	-0.5040182
208	0xc010f15c	-2.2647314
209	0xbdc6f8a0	-0.0971539
210	0x40089d41	2.134598
211	0x3eecbea2	0.4623919
212	0x3f9da079	1.2314597
213	0x3f1be15c	0.60890746
214	0x3f7bb023	0.9831564
215	0xbf4fd1af	-0.81179327
216	0xbfee1fd0	-1.8603458
217	0x3f8cd96f	1.1003855
218	0xbdb127b9	-0.086501546
219	0xbd241dd8	-0.040067524
220	0x3f758764	0.95909715
221	0xbf768140	-0.9629097
222	0x3e573076	0.2101458
223	0xbe307404	-0.17231756
224	0xbf91db14	-1.1394982
225	0x3f25586c	0.64588046
226	0x3fee8e85	1.8637244
227	0x3eb5f1fd	0.35536185
228	0x3f90d2b1	1.1314298
229	0x40035008	2.0517597
230	0x3eea7bfe	0.45797724
231	0xbf10d395	-0.5657285
232	0xbf8242c7	-1.0176629
233	0x3d1755df	0.036947127
234	0xbf710d7e	-0.9416121
235	0x3e153b3c	0.14573377
236	0x3fd459ad	1.6589867
237	0xbf83980f	-1.028078
238	0x3ddce895	0.10786549
239	0x3e8304fa	0.25589734
240	0xc00b637c	-2.177947
241	0xbf169d9c	-0.5883424
242	0x401e3704	2.472108
243	0xbe573ff9	-0.21020497
244	0x3f2ffd9b	0.68746346
245	0x3f80608d	1.0029465
246	0x3fba624c	1.4561248
247	0xbee10396	-0.43948048
248	0x3de0d7da	0.109786704
249	0x3fb5c88f	1.4201831
250	0xbdfd6821	-0.12373377
251	0x3d16cbe2	0.03681553
252	0x3fae987d	1.3640286
253	0xbfc92ae7	-1.5716218
254	0xbf528629	-0.8223596
255	0xbebedf41	-0.37279704

category_emb.embedding.3.weight f4 [2, 16]
0	0x3de04871	0.10951317
1	0x3f74eba0	0.95672035
2	0xbf982250	-1.1885471
3	0xbf77e476	-0.9683298
4	0xbf946cc4	-1.1595693
5	0x3eda9fd3	0.4270006
6	0xbf9711aa	-1.1802266
7	0x3edc6553	0.43046054
8	0xbe36c568	-0.17848742
9	0x400069b8	2.0064526
10	0xbf9f83ae	-1.246206
11	0x3eee195b	0.4650372
12	0xbee1af66	-0.4407913
13	0x40173404	2.3625498
14	0xbf3a512d	-0.72780114
15	0xbe76fa83	-0.24119
16	0xbf322bf0	-0.69598293
17	0x3f60a4dc	0.87751555
18	0xbf6eff2c	-0.9335811
19	0xbf99f79a	-1.2028687
20	0x3f8d12f8	1.1021414
21	0x3f2214b5	0.63312846
22	0xc008575e	-2.1303325
23	0x4014edfd	2.3270257
24	0x3ede72f0	0.43447065
25	0x3f2b39e6	0.6688522
26	0xbf963055	-1.17335
27	0xbf8cacf6	-1.0990283
28	0x3e54d106	0.20782861
29	0x3f2211f5	0.6330865
30	0xbf8ae563	-1.0851253
31	0xbecae61c	-0.39628685

continuous_emb.embedding.0.weight f4 [16, 1]
0	0x3b356b2e	0.0027682292
1	0xbe03695c	-0.1283316
2	0xbe8c715a	-0.2743023
3	0xbe146701	-0.14492418
4	0xbe167aa9	-0.14695229
5	0x3e72e547	0.23720275
6	0x3e394e40	0.18096256
7	0xbebc7e1d	-0.36814967
8	0xbe0f18a4	-0.13974243
9	0xbd444372	-0.047915883
10	0x3d922dca	0.0713764
11	0xbe81fc2e	-0.2538771
12	0xbd9a4dd7	-0.07534378
13	0xbeb43466	-0.35196227
14	0xba388454	-0.00070387614
15	0x3b41e54c	0.0029586134

continuous_emb.embedding.0.bias f4 [16]
0	0xbe760620	-0.24025774
1	0x3f27c036	0.65527666
2	0x3fc00111	1.5000325
3	0x3fa500b9	1.2890846
4	0x3db1c918	0.08680934
5	0xbf34676b	-0.70470303
6	0xbf2a8491	-0.6660853
7	0x3fa92872	1.3215468
8	0x3f604d3d	0.87617856
9	0xbed3ba00	-0.41352844
10	0x3fb36324	1.401463
11	0x3f650143	0.8945505
12	0x3f2717d8	0.6527076
13	0x3fc19518	1.5123625
14	0x3ec0a6da	0.37627298
15	0x3e34cda7	0.17656575

continuous_emb.embedding.1.weight f4 [16, 1]
0	0x3b356b2e	0.0027682292
1	0xbe03695c	-0.1283316
2	0xbe8c715a	-0.2743023
3	0xbe146701	-0.14492418
4	0xbe167aa9	-0.14695229
5	0x3e72e547	0.23720275
6	0x3e394e40	0.18096256
7	0xbebc7e1d	-0.36814967
8	0xbe0f18a4	-0.13974243
9	0xbd444372	-0.047915883
10	0x3d922dca	0.0713764
11	0xbe81fc2e	-0.2538771
12	0xbd9a4dd7	-0.07534378
13	0xbeb43466	-0.35196227
14	0xba388454	-0.00070387614
15	0x3b41e54c	0.0029586134

continuous_emb.embedding.1.bias f4 [16]
0	0xbe760620	-0.24025774
1	0x3f27c036	0.65527666
2	0x3fc00111	1.5000325
3	0x3fa500b9	1.2890846
4	0x3db1c918	0.08680934
5	0xbf34676b	-0.70470303
6	0xbf2a8491	-0.6660853
7	0x3fa92872	1.3215468
8	0x3f604d3d	0.87617856
9	0xbed3ba00	-0.41352844
10	0x3fb36324	1.401463
11	0x3f650143	0.8945505
12	0x3f2717d8	0.6527076
13	0x3fc19518	1.5123625
14	0x3ec0a6da	0.37627298
15	0x3e34cda7	0.17656575

continuous_emb.embedding.2.weight f4 [16, 1]
0	0x3b356b2e	0.0027682292
1	0xbe03695c	-0.1283316
2	0xbe8c715a	-0.2743023
3	0xbe146701	-0.14492418
4	0xbe167aa9	-0.14695229
5	0x3e72e547	0.23720275
6	0x3e394e40	0.18096256
7	0xbebc7e1d	-0.36814967
8	0xbe0f18a4	-0.13974243
9	0xbd444372	-0.047915883
10	0x3d922dca	0.0713764
11	0xbe81fc2e	-0.2538771
12	0xbd9a4dd7	-0.07534378
13	0xbeb43466	-0.35196227
14	0xba388454	-0.00070387614
15	0x3b41e54c	0.0029586134

continuous_emb.embedding.2.bias f4 [16]
0	0xbe760620	-0.24025774
1	0x3f27c036	0.65527666
2	0x3fc00111	1.5000325
3	0x3fa500b9	1.2890846
4	0x3db1c918	0.08680934
5	0xbf34676b	-0.70470303
6	0xbf2a8491	-0.6660853
7	0x3fa92872	1.3215468
8	0x3f604d3d	0.87617856
9	0xbed3ba00	-0.41352844
10	0x3fb36324	1.401463
11	0x3f650143	0.8945505
12	0x3f2717d8	0.6527076
13	0x3fc19518	1.5123625
14	0x3ec0a6da	0.37627298
15	0x3e34cda7	0.17656575

continuous_emb.embedding.3.weight f4 [16, 1]
0	0x3b356b2e	0.0027682292
1	0xbe03695c	-0.1283316
2	0xbe8c715a	-0.2743023
3	0xbe146701	-0.14492418
4	0xbe167aa9	-0.14695229
5	0x3e72e547	0.23720275
6	0x3e394e40	0.18096256
7	0xbebc7e1d	-0.36814967
8	0xbe0f18a4	-0.13974243
9	0xbd444372	-0.047915883
10	0x3d922dca	0.0713764
11	0xbe81fc2e	-0.2538771
12	0xbd9a4dd7	-0.07534378
13	0xbeb43466	-0.35196227
14	0xba388454	-0.00070387614
15	0x3b41e54c	0.0029586134

continuous_emb.embedding.3.bias f4 [16]
0	0xbe760620	-0.24025774
1	0x3f27c036	0.65527666
2	0x3fc00111	1.5000325
3	0x3fa500b9	1.2890846
4	0x3db1c918	0.08680934
5	0xbf34676b	-0.70470303
6	0xbf2a8491	-0.6660853
7	0x3fa92872	1.3215468
8	0x3f604d3d	0.87617856
9	0xbed3ba00	-0.41352844
10	0x3fb36324	1.401463
11	0x3f650143	0.8945505
12	0x3f2717d8	0.6527076
13	0x3fc19518	1.5123625
14	0x3ec0a6da	0.37627298
15	0x3e34cda7	0.17656575

continuous_emb.embedding.4.weight f4 [16, 1]
0	0x3b356b2e	0.0027682292
1	0xbe03695c	-0.1283316
2	0xbe8c715a	-0.2743023
3	0xbe146701	-0.14492418
4	0xbe167aa9	-0.14695229
5	0x3e72e547	0.23720275
6	0x3e394e40	0.18096256
7	0xbebc7e1d	-0.36814967
8	0xbe0f18a4	-0.13974243
9	0xbd444372	-0.047915883
10	0x3d922dca	0.0713764
11	0xbe81fc2e	-0.2538771
12	0xbd9a4dd7	-0.07534378
13	0xbeb43466	-0.35196227
14	0xba388454	-0.00070387614
15	0x3b41e54c	0.0029586134

continuous_emb.embedding.4.bias f4 [16]
0	0xbe760620	-0.24025774
1	0x3f27c036	0.65527666
2	0x3fc00111	1.5000325
3	0x3fa500b9	1.2890846
4	0x3db1c918	0.08680934
5	0xbf34676b	-0.70470303
6	0xbf2a8491	-0.6660853
7	0x3fa92872	1.3215468
8	0x3f604d3d	0.87617856
9	0xbed3ba00	-0.41352844
10	0x3fb36324	1.401463
11	0x3f650143	0.8945505
12	0x3f2717d8	0.6527076
13	0x3fc19518	1.5123625
14	0x3ec0a6da	0.37627298
15	0x3e34cda7	0.17656575

continuous_emb.embedding.5.weight f4 [16, 1]
0	0x3b356b2e	0.0027682292
1	0xbe03695c	-0.1283316
2	0xbe8c715a	-0.2743023
3	0xbe146701	-0.14492418
4	0xbe167aa9	-0.14695229
5	0x3e72e547	0.23720275
6	0x3e394e40	0.18096256
7	0xbebc7e1d	-0.36814967
8	0xbe0f18a4	-0.13974243
9	0xbd444372	-0.047915883
10	0x3d922dca	0.0713764
11	0xbe81fc2e	-0.2538771
12	0xbd9a4dd7	-0.07534378
13	0xbeb43466	-0.35196227
14	0xba388454	-0.00070387614
15	0x3b41e54c	0.0029586134

continuous_emb.embedding.5.bias f4 [16]
0	0xbe760620	-0.24025774
1	0x3f27c036	0.65527666
2	0x3fc00111	1.5000325
3	0x3fa500b9	1.2890846
4	0x3db1c918	0.08680934
5	0xbf34676b	-0.70470303
6	0xbf2a8491	-0.6660853
7	0x3fa92872	1.3215468
8	0x3f604d3d	0.87617856
9	0xbed3ba00	-0.41352844
10	0x3fb36324	1.401463
11	0x3f650143	0.8945505
12	0x3f2717d8	0.6527076
13	0x3fc19518	1.5123625
14	0x3ec0a6da	0.37627298
15	0x3e34cda7	0.17656575

continuous_emb.embedding.6.weight f4 [16, 1]
0	0x3b356b2e	0.0027682292
1	0xbe03695c	-0.1283316
2	0xbe8c715a	-0.2743023
3	0xbe146701	-0.14492418
4	0xbe167aa9	-0.14695229
5	0x3e72e547	0.23720275
6	0x3e394e40	0.18096256
7	0xbebc7e1d	-0.36814967
8	0xbe0f18a4	-0.13974243
9	0xbd444372	-0.047915883
10	0x3d922dca	0.0713764
11	0xbe81fc2e	-0.2538771
12	0xbd9a4dd7	-0.07534378
13	0xbeb43466	-0.35196227
14	0xba388454	-0.00070387614
15	0x3b41e54c	0.0029586134

continuous_emb.embedding.6.bias f4 [16]
0	0xbe760620	-0.24025774
1	0x3f27c036	0.65527666
2	0x3fc00111	1.5000325
3	0x3fa500b9	1.2890846
4	0x3db1c918	0.08680934
5	0xbf34676b	-0.70470303
6	0xbf2a8491	-0.6660853
7	0x3fa92872	1.3215468
8	0x3f604d3d	0.87617856
9	0xbed3ba00	-0.41352844
10	0x3fb36324	1.401463
11	0x3f650143	0.8945505
12	0x3f2717d8	0.6527076
13	0x3fc19518	1.5123625
14	0x3ec0a6da	0.37627298
15	0x3e34cda7	0.17656575
