TFT_power/best_tft.pth (torch, 775502 bytes, 395 tensors)

static_cate_emb.embedding.0.weight f4 [100, 40]
0	0x3ff6a529	1.9269153
1	0x3fbe5f53	1.4872841
2	0x3f669567	0.9007172
3	0xc006c0db	-2.105521
4	0x3f2dacd4	0.6784184
5	0xbf9e0591	-1.2345449
6	0xbd306786	-0.043067478
7	0xbfcd65ba	-1.604667
8	0xbf408bf0	-0.7521353
9	0x3fd3095b	1.648723
10	0xbec8f2f6	-0.39247864
11	0xbfb3a966	-1.4036071
12	0xbf3a566e	-0.7278813
13	0xbf0f36d1	-0.5594302
14	0xbf44d2a0	-0.7688389
15	0x3f432f9f	0.7624454
16	0x3fd23771	1.6423169
17	0xbe236d85	-0.15959747
18	0xbefeaae4	-0.49739754
19	0x3ee111d8	0.43958926
20	0xbf4214e2	-0.75813115
21	0x3f8a0650	1.0783176
22	0x3f4d0144	0.80080056
23	0x3fd71e93	1.6806206
24	0x3fa3ba59	1.2791244
25	0x3fa5f12f	1.2964228
26	0x3f1c4788	0.6104665
27	0x3faad8b0	1.3347378
28	0xbe6d2eed	-0.23162432
29	0x3d2b0c00	0.04175949
30	0xbe80ce7a	-0.2515753
31	0x3f5c1fb0	0.8598585
32	0xbfb13cfd	-1.3846737
33	0xbf5f0955	-0.87123615
34	0xbe64ba09	-0.22336592
35	0x3fdbd280	1.7173615
36	0x3ea34448	0.31888032
37	0xbed95a8d	-0.42451897
38	0x3e9c8774	0.30572093
39	0xbf464bb2	-0.7745925
40	0xc03017a4	-2.751443
41	0x3efb7446	0.49112147
42	0xbfeb153d	-1.8365856
43	0x3df1004c	0.11767635
44	0x3cbc2a34	0.022969343
45	0x40363927	2.8472383
46	0xc008f2e1	-2.1398242
47	0xbfad49a1	-1.3538095
48	0xbf52d88d	-0.8236168
49	0xc0046ff4	-2.069333
50	0xbf49edf2	-0.788787
51	0xbf0f71fa	-0.5603329
52	0xbe13b6ab	-0.14425151
53	0x400d558b	2.2083461
54	0x3eab47a3	0.33453092
55	0xbff2ee25	-1.8978926
56	0xbeb910e2	-0.36145693
57	0xbf503be5	-0.8134139
58	0xbdffc04f	-0.12487852
59	0x3f678b29	0.90446717
60	0xbf288aec	-0.6583698
61	0x3fa099b5	1.2546908
62	0xc011c483	-2.2776191
63	0x3eb38a37	0.35066387
64	0x3f5a3830	0.85241985
65	0x3f284b79	0.6574016
66	0x3facfb2f	1.3514155
67	0x3fe77e7f	1.8085479
68	0xbf7c5ab9	-0.9857593
69	0xbe3cca33	-0.18436508
70	0xbf24dbdb	-0.6439797
71	0x3fb4b922	1.4118998
72	0xbfb26064	-1.3935666
73	0x3f9ec4a3	1.2403759
74	0xbf078075	-0.52930385
75	0x3f4674ad	0.77521783
76	0x3fbaef21	1.4604226
77	0xbe9844c7	-0.29739973
78	0xbfc5e11f	-1.5459327
79	0xbf691ba4	-0.910578
80	0xbf2c0ba8	-0.67205286
81	0xbf8e57b0	-1.112051
82	0xc007b478	-2.12039
83	0xbf833174	-1.0249467
84	0x3fc2fa77	1.5232686
85	0x3ea2bdc0	0.31785393
86	0x3f2f7c5f	0.6854915
87	0xbf2fc588	-0.68660784
88	0x3fe1f5ad	1.7653099
89	0xbf5c5fd0	-0.860837
90	0xbf7dd562	-0.9915372
91	0x3f754fbc	0.9582479
92	0xc0277d4d	-2.6170228
93	0xbee4fbee	-0.44723457
94	0x4018d228	2.387827
95	0x3dc725c3	0.09723999
96	0xc0083dbb	-2.1287677
97	0x3f405e44	0.7514384
98	0xbeb3aa14	-0.35090697
99	0xbe311cf4	-0.17296201
100	0xbe0d3027	-0.137879
101	0x3e1e39f2	0.15451792
102	0x3f913a8a	1.134599
103	0xbf46e9e2	-0.77700627
104	0xbf9d2d7c	-1.2279506
105	0x3ed70c6b	0.42001662
106	0xbebe29e0	-0.37141323
107	0xbee782f1	-0.45217088
108	0x3eda1422	0.42593485
109	0x3fef2000	1.8681641
110	0x3f894b2f	1.0726069
111	0x3ee73913	0.45160732
112	0xbf7ccebd	-0.9875296
113	0x3f369f04	0.7133639
114	0xbf0d6af9	-0.5524135
115	0x3f99f73b	1.2028574
116	0x3d99c311	0.07507909
117	0xbe3fb0b8	-0.18719757
118	0x3eeb3a1b	0.45942768
119	0x3f4ece27	0.80783314
120	0xbdedf210	-0.116184354
121	0xbefde353	-0.49587497
122	0x3f3fb18f	0.7488031
123	0x3e9ccee7	0.30626604
124	0x3e819563	0.25309286
125	0xbeb4c72f	-0.35308215
126	0x3fe036a6	1.7516677
127	0xbe573f39	-0.21020211
128	0x4035630e	2.8341708
129	0x3f483c62	0.78217137
130	0xbf920f17	-1.1410855
131	0xbfd928c1	-1.6965562
132	0xbee16239	-0.4402025
133	0x40005fee	2.005855
134	0x3f0fcaae	0.5616864
135	0x3f0659fa	0.52481043
136	0x3f2aab42	0.6666757
137	0x3fffe312	1.9991171
138	0xc003bbc9	-2.0583365
139	0x3e809ff0	0.25122023
140	0xbf74f8cf	-0.9569215
141	0x3d902329	0.07037956
142	0xbf2fcc71	-0.6867133
143	0x3efd04fb	0.49417862
144	0xbf64880c	-0.8927009
145	0x3f97d66e	1.1862314
146	0x3fc78e3b	1.559028
147	0x3fa8927f	1.3169707
148	0xbceec9aa	-0.029148895
149	0x3dadb311	0.0848142
150	0xbe379aab	-0.17930095
151	0xbfd5d175	-1.6704546
152	0x3f633a9f	0.88761324
153	0x3ac12b1d	0.001473758
154	0x3f60a332	0.87749016
155	0x3fdb9daa	1.715749
156	0xc00d4346	-2.207231
157	0x3cf45df6	0.02982996
158	0xbedb8984	-0.42878354
159	0x3f76b0ce	0.9636353
160	0xc01aa173	-2.416104
161	0x3e04643e	0.12928864
162	0x3fb594ea	1.418607
163	0xbf2e643a	-0.68121684
164	0xbfb6ff16	-1.4296596
165	0xc0628422	-3.5393147
166	0xbf5b85b0	-0.85750866
167	0xbebf0ac3	-0.37312898
168	0xbed2d612	-0.41178948
169	0x404a1b90	3.1579323
170	0x403c41c1	2.9415133
171	0xbf8c989d	-1.0984074
172	0xbf70c58f	-0.9405145
173	0xbf121e51	-0.5707751
174	0x3fb6d947	1.4285058
175	0x402ff399	2.749243
176	0xc00d3166	-2.20614
177	0x4003c079	2.0586226
178	0xbfeac0bd	-1.8340069
179	0xbf804150	-1.0019932
180	0xc03d88b8	-2.9614697
181	0xc002b21a	-2.0421205
182	0x3f81163d	1.0084912
183	0xbe8a2125	-0.26978412
184	0x3d9f9c57	0.07793491
185	0xbfe262ad	-1.7686363
186	0xbe5a862c	-0.21340245
187	0x3ef905a0	0.48637104
188	0x3fbf2aec	1.4934974
189	0x3f44bafd	0.7684782
190	0x3ed61f08	0.4182055
191	0xbe926c2f	-0.28598163
192	0x401c1c3d	2.4392235
193	0xc012971c	-2.290473
194	0x3ee5b806	0.4486696
195	0x3eb461ef	0.35230967
196	0xc00ae367	-2.1701295
197	0x3fb07980	1.3787079
198	0x3f621dd7	0.8832678
199	0xbdefd72c	-0.11710963
200	0x3fdb0725	1.7111555
201	0x40077d8d	2.117038
202	0xbea51479	-0.32242182
203	0xbf74420b	-0.95413274
204	0xbf6ea508	-0.9322057
205	0x3f82898f	1.019823
206	0x3f0e68e2	0.5562879
207	0x3f9c8809	1.2229015
208	0xbf23b141	-0.63942343
209	0xbeac471f	-0.3364801
210	0x3cc6cb77	0.024266941
211	0x3e9c334c	0.30507886
212	0xbd9821c2	-0.07428314
213	0xbe8376cd	-0.25676575
214	0xbf436e88	-0.7634053
215	0xbfa87d02	-1.3163149
216	0xbf225423	-0.6340963
217	0x3f829b0d	1.0203568
218	0xbfc9b7fc	-1.5759273
219	0x3fa93b13	1.3221153
220	0x3da6cad1	0.08144153
221	0xbe96d774	-0.29461253
222	0x3fb7f227	1.4370774
223	0x3ffc5fca	1.9716733
224	0x3e1210e2	0.14264253
225	0x3f5c5dc8	0.860806
226	0x3ef8ce53	0.48594913
227	0xc02004c5	-2.500291
228	0x3e734826	0.23757991
229	0xbf517f9b	-0.81835335
230	0xbf596f8b	-0.84935826
231	0x401367cb	2.30321
232	0xbf1463d0	-0.579648
233	0xbfcb5dcc	-1.5888
234	0xbfd7faac	-1.6873374
235	0xbffde1de	-1.9834554
236	0xbed13128	-0.40857816
237	0xbec4388f	-0.383244
238	0xbd07cd0c	-0.033154532
239	0x3ef8c58e	0.48588222
240	0xbfc7c0cd	-1.5605713
241	0xbf5a4100	-0.8525543
242	0xbf5c2dd6	-0.8600744
243	0x3f3ae712	0.73008835
244	0x3d74e942	0.059792764
245	0x3e4820ba	0.19543734
246	0xbf08e3d4	-0.5347264
247	0x3f500efd	0.8127287
248	0x3fdc8fc3	1.7231373
249	0xbfc17e87	-1.5116738
250	0x3f6c2ec8	0.9225888
251	0x3eeadc0d	0.4587101
252	0xbe13657e	-0.14394185
253	0x3f29b3f9	0.6629024
254	0x3f9fe188	1.2490702
255	0xbf26a14d	-0.65089875

static_conti_emb.embedding.0.weight f4 [40, 1]
0	0x3f90f751	1.1325475
1	0x3d9c355a	0.076273635
2	0xbf552770	-0.832633
3	0x3f1d28f1	0.61390597
4	0xbf5f3bfd	-0.8720091
5	0x3ef19b73	0.4718891
6	0x3f66cacc	0.90153193
7	0xbdd87969	-0.10570032
8	0xbf5dfaf5	-0.86711055
9	0xbf57f26b	-0.84354275
10	0xbebe4c1c	-0.37167442
11	0x3fd0c073	1.6308731
12	0xbf0dbc2f	-0.5536527
13	0xbf122c8f	-0.5709924
14	0xbf06e1c4	-0.5268824
15	0x3f388526	0.7207817
16	0x3f4d1d88	0.80123186
17	0xbfb1df4a	-1.3896267
18	0x3f6fac7a	0.93622553
19	0x3f892c4c	1.0716643
20	0x3f70d94a	0.94081557
21	0x3fffc92b	1.9983267
22	0xbf94c805	-1.1623541
23	0x3ebb051e	0.36527342
24	0x3ea9105c	0.33020294
25	0x3f92ef77	1.1479329
26	0x3e21930e	0.15778753
27	0xbe45d144	-0.1931811
28	0xbe5281bc	-0.20557302
29	0xbedf557a	-0.436199
30	0xbeb1e313	-0.34743556
31	0x3f7e0941	0.9923287
32	0x3b863c68	0.0040965565
33	0xbe15c756	-0.14626822
34	0xbe2badb6	-0.16765484
35	0x3d86c9c6	0.06581454
36	0x3f827849	1.0192958
37	0x3ee8e102	0.45484167
38	0x3ea7c4a0	0.327672
39	0xbf4c45d7	-0.7979407

static_conti_emb.embedding.0.bias f4 [40]
0	0x3f8eba14	1.1150537
1	0x3f497933	0.7870056
2	0xbf184d0c	-0.59492564
3	0x3ee9be73	0.45653114
4	0xbcc0c1bf	-0.023529885
5	0x3e8d0275	0.27540937
6	0xbeac29db	-0.33625683
7	0x3f935d78	1.1512899
8	0xbf549d78	-0.8305278
9	0x3f7e687c	0.9937818
10	0x3e2d4748	0.16921723
11	0x3f53e427	0.8277001
12	0xbf21cf20	-0.6320667
13	0xbefd6e6f	-0.49498317
14	0xbf128fbb	-0.57250565
15	0x3fb3b226	1.4038742
16	0x3e8091ef	0.25111338
17	0xbf1a512e	-0.6028012
18	0x3e719110	0.23590493
19	0x3f68a3b5	0.908748
20	0x3f326f68	0.6970124
21	0x3f9c1f00	1.219696
22	0x3f142dca	0.5788237
23	0x3f320b51	0.6954852
24	0x3f82c449	1.0216151
25	0xbf51badd	-0.81925756
26	0x3f40dd02	0.7533723
27	0xbeb3dac2	-0.35127836
28	0x3f54447f	0.82917017
29	0x3e370373	0.1787241
30	0xbf37be90	-0.7177515
31	0x3f775985	0.9662097
32	0xbf047610	-0.5174265
33	0x3f62330d	0.8835915
34	0x3f00844a	0.5020186
35	0xbe8e6033	-0.2780777
36	0x3f08e0c4	0.53467965
37	0xbf1f1b3b	-0.62150925
38	0xbf85f37d	-1.0464932
39	0x3e9696de	0.29411978

static_conti_emb.embedding.1.weight f4 [40, 1]
0	0x3f90f751	1.1325475
1	0x3d9c355a	0.076273635
2	0xbf552770	-0.832633
3	0x3f1d28f1	0.61390597
4	0xbf5f3bfd	-0.8720091
5	0x3ef19b73	0.4718891
6	0x3f66cacc	0.90153193
7	0xbdd87969	-0.10570032
8	0xbf5dfaf5	-0.86711055
9	0xbf57f26b	-0.84354275
10	0xbebe4c1c	-0.37167442
11	0x3fd0c073	1.6308731
12	0xbf0dbc2f	-0.5536527
13	0xbf122c8f	-0.5709924
14	0xbf06e1c4	-0.5268824
15	0x3f388526	0.7207817
16	0x3f4d1d88	0.80123186
17	0xbfb1df4a	-1.3896267
18	0x3f6fac7a	0.93622553
19	0x3f892c4c	1.0716643
20	0x3f70d94a	0.94081557
21	0x3fffc92b	1.9983267
22	0xbf94c805	-1.1623541
23	0x3ebb051e	0.36527342
24	0x3ea9105c	0.33020294
25	0x3f92ef77	1.1479329
26	0x3e21930e	0.15778753
27	0xbe45d144	-0.1931811
28	0xbe5281bc	-0.20557302
29	0xbedf557a	-0.436199
30	0xbeb1e313	-0.34743556
31	0x3f7e0941	0.9923287
32	0x3b863c68	0.0040965565
33	0xbe15c756	-0.14626822
34	0xbe2badb6	-0.16765484
35	0x3d86c9c6	0.06581454
36	0x3f827849	1.0192958
37	0x3ee8e102	0.45484167
38	0x3ea7c4a0	0.327672
39	0xbf4c45d7	-0.7979407

static_conti_emb.embedding.1.bias f4 [40]
0	0x3f8eba14	1.1150537
1	0x3f497933	0.7870056
2	0xbf184d0c	-0.59492564
3	0x3ee9be73	0.45653114
4	0xbcc0c1bf	-0.023529885
5	0x3e8d0275	0.27540937
6	0xbeac29db	-0.33625683
7	0x3f935d78	1.1512899
8	0xbf549d78	-0.8305278
9	0x3f7e687c	0.9937818
10	0x3e2d4748	0.16921723
11	0x3f53e427	0.8277001
12	0xbf21cf20	-0.6320667
13	0xbefd6e6f	-0.49498317
14	0xbf128fbb	-0.57250565
15	0x3fb3b226	1.4038742
16	0x3e8091ef	0.25111338
17	0xbf1a512e	-0.6028012
18	0x3e719110	0.23590493
19	0x3f68a3b5	0.908748
20	0x3f326f68	0.6970124
21	0x3f9c1f00	1.219696
22	0x3f142dca	0.5788237
23	0x3f320b51	0.6954852
24	0x3f82c449	1.0216151
25	0xbf51badd	-0.81925756
26	0x3f40dd02	0.7533723
27	0xbeb3dac2	-0.35127836
28	0x3f54447f	0.82917017
29	0x3e370373	0.1787241
30	0xbf37be90	-0.7177515
31	0x3f775985	0.9662097
32	0xbf047610	-0.5174265
33	0x3f62330d	0.8835915
34	0x3f00844a	0.5020186
35	0xbe8e6033	-0.2780777
36	0x3f08e0c4	0.53467965
37	0xbf1f1b3b	-0.62150925
38	0xbf85f37d	-1.0464932
39	0x3e9696de	0.29411978

future_emb.embedding.0.weight f4 [32, 40]
0	0x3f101333	0.56279296
1	0xbe8127ce	-0.2522568
2	0x3fb93dbe	1.4471967
3	0x3f7a736d	0.97832376
4	0xbfa8e26c	-1.3194098
5	0xbd91f8d7	-0.071275406
6	0x3e897d8a	0.2685359
7	0xbf32f50c	-0.6990516
8	0x3fcb2222	1.5869792
9	0x3e118b3a	0.14213267
10	0x3ec08acd	0.37605897
11	0xbf4aa800	-0.791626
12	0x402abc9f	2.6677625
13	0xbe0fae31	-0.14031292
14	0x3f710df9	0.94161946
15	0xbc4208a0	-0.011842877
16	0xbf050a9b	-0.5196931
17	0x3fed1c05	1.8524176
18	0x3feb13ab	1.8365377
19	0x4004be93	2.0741317
20	0xbf3cc055	-0.73730975
21	0xbf44c816	-0.76867807
22	0xbd51b6d3	-0.051199745
23	0x3fcc9d8b	1.5985578
24	0x3e595e49	0.21227373
25	0x3f8d9015	1.1059595
26	0x3fa7ee6b	1.3119634
27	0x3ed92da7	0.42417642
28	0xbefc0d75	-0.49229017
29	0x3fd4005b	1.6562608
30	0x3ed280f6	0.41114014
31	0xbe78b4c3	-0.24287705
32	0x3f5d0b2e	0.86345184
33	0xbfb97f5b	-1.4491991
34	0x3ea0e806	0.3142702
35	0xbf80ad3a	-1.0052865
36	0xbfabf939	-1.3435432
37	0x3fa2446c	1.2677131
38	0xbfa59854	-1.2937112
39	0xbf3dd039	-0.7414585
40	0xbee22c9b	-0.44174656
41	0x3f71fb75	0.9452432
42	0x3f3c4e6f	0.7355718
43	0xbfc1d482	-1.5142977
44	0xbe0e1bea	-0.13877836
45	0x3faa0a1e	1.3284338
46	0x3f0e719b	0.556421
47	0x3f470c3e	0.77753055
48	0x3e696479	0.22792234
49	0xbe783354	-0.2423833
50	0xbf8c18f4	-1.0945115
51	0x3f4bb87f	0.79578394
52	0xbe0e887f	-0.13919257
53	0x40357f5a	2.835898
54	0x3f7d7448	0.99005556
55	0xbef298c9	-0.4738219
56	0x3c4760a3	0.012169036
57	0x3f6f2468	0.93414927
58	0x3e415ccb	0.18883054
59	0x3fabdcaf	1.3426722
60	0xbfd0a808	-1.6301279
61	0x3f452c67	0.7702088
62	0x3f26a3ac	0.65093493
63	0xbea1f8b1	-0.3163505
64	0x3f9e1b56	1.2352092
65	0xbfbe87c3	-1.4885181
66	0xbfb4b225	-1.4116865
67	0xbff23603	-1.8922733
68	0x3f6182eb	0.8809039
69	0x3f01a06f	0.5063543
70	0xc00eb16f	-2.2295797
71	0x3dbf0755	0.0932757
72	0xbd36a8bf	-0.044594523
73	0x3f98b306	1.1929634
74	0x3e63577f	0.22201346
75	0x3f67e212	0.9057933
76	0x3f3ca94d	0.7369583
77	0xbd52cc2c	-0.051464245
78	0xbe3ea2b3	-0.18616752
79	0xbf3e87df	-0.7442607
80	0x3fef3aa3	1.868977
81	0x3fa613a3	1.2974743
82	0xbfa3128a	-1.2740033
83	0xbed8a5b2	-0.42313915
84	0x3f1fc116	0.62404
85	0x3fd908bc	1.695579
86	0x3f8725dc	1.0558429
87	0xbe83f36f	-0.25771663
88	0xbf364a4d	-0.71207124
89	0x3f072672	0.5279304
90	0x3fbe7950	1.4880772
91	0x3f1f4963	0.62221354
92	0x3d82b848	0.06382805
93	0x3f98fbfb	1.1951898
94	0x3f6a7855	0.9158986
95	0xbfae3f75	-1.3613116
96	0x3ed30d88	0.4122126
97	0x3edfbc65	0.4369842
98	0x3f8e8a1d	1.1135899
99	0x3ff177cb	1.8864683
100	0xc0143b48	-2.3161182
101	0xbf3d143d	-0.73859006
102	0x401d0fd1	2.4540904
103	0xbf28cb11	-0.65934855
104	0x3f1bdcbb	0.6088368
105	0xc00581ec	-2.0860548
106	0xbf0980e1	-0.5371228
107	0x3cc45cb3	0.023969984
108	0xbcb47cfe	-0.022032257
109	0x4032501e	2.78614
110	0xbfc3782b	-1.5271047
111	0xbf0f24d1	-0.5591555
112	0xbf09b712	-0.5379497
113	0x3cb423be	0.0219897
114	0xbfc29c31	-1.5203916
115	0x3ff17d62	1.8866389
116	0xbf87d5b7	-1.0612096
117	0xbf82f95f	-1.0232352
118	0x3e0d6afc	0.13810343
119	0x3ef2da6e	0.47432274
120	0x401c3c4f	2.441181
121	0xbed6253f	-0.41825292
122	0x3f2632e9	0.6492143
123	0x4041af34	3.0263186
124	0x3ed35623	0.41276655
125	0x3f051d19	0.51997524
126	0x3f88d10f	1.06888
127	0xbf5d76f6	-0.86509645
128	0xbe446fdf	-0.191833
129	0x3ee5f209	0.4491122
130	0x3eb36a06	0.35041827
131	0x3fb8fd19	1.4452239
132	0x3ff092a8	1.8794756
133	0x3fea9b15	1.8328577
134	0xbe9fa770	-0.31182432
135	0xbfe4ea61	-1.7884027
136	0xbe1d1870	-0.15341353
137	0x3fb30e57	1.3988751
138	0x3ecf65e3	0.4050742
139	0x3e2395e5	0.15975149
140	0xbf442912	-0.7662517
141	0x4003a1e7	2.0567567
142	0xc020c5d1	-2.5120738
143	0xbf09ce6e	-0.5383061
144	0x3ea96752	0.3308664
145	0xbf8fa583	-1.1222385
146	0xc001cafc	-2.0280142
147	0xbea8348e	-0.32852596
148	0xbeb8dd51	-0.3610635
149	0x3ea08fed	0.31359807
150	0x3fef0490	1.8673267
151	0x3eafcca5	0.3433582
152	0x3b805434	0.003916288
153	0x3f8b64a8	1.0890093
154	0xbf3e93e7	-0.7444443
155	0xbf1dda62	-0.6166135
156	0x3f0cf1ad	0.5505627
157	0xbe29b6b6	-0.16573605
158	0xbfb631d4	-1.4233956
159	0xbdced130	-0.10098493
160	0x3fd616f0	1.672575
161	0xbca5065f	-0.02014464
162	0x400ae76e	2.1703753
163	0xbe100854	-0.14065677
164	0xbf91313c	-1.134315
165	0x3edcd281	0.43129352
166	0xbfbc2310	-1.46982
167	0x3d578766	0.05261936
168	0xbef74bb7	-0.48299953
169	0x3f620b48	0.88298464
170	0xbf30c00a	-0.6904303
171	0xbf248586	-0.6426624
172	0x3f2c62ea	0.6733843
173	0xbeff3e19	-0.49852064
174	0x3f5da87b	0.86585206
175	0x3f2b8dcd	0.67013246
176	0xbe0580ba	-0.13037387
177	0x3f5ae0af	0.8549909
178	0x3fe3869d	1.7775456
179	0xbfe83255	-1.814036
180	0x3f107202	0.5642396
181	0x3f3d7ba4	0.74016786
182	0x3ff341e9	1.9004489
183	0x3e71c674	0.2361086
184	0x401daf6a	2.4638314
185	0xc0201351	-2.501179
186	0x3e2cf062	0.16888574
187	0xbea76f7c	-0.32702243
188	0x3fbf2769	1.4933902
189	0xbe274e63	-0.16338496
190	0x3ef3b6dc	0.47600448
191	0xc02014e3	-2.5012748
192	0xbe2afcc0	-0.16697979
193	0x3edc411b	0.43018422
194	0xbfa1d1de	-1.2642171
195	0xbf35ed44	-0.71065164
196	0x3fab3404	1.3375249
197	0xbfa2c942	-1.2717669
198	0xbf590c2f	-0.84784216
199	0x3fc28a95	1.5198542
200	0xbf0422b5	-0.5161546
201	0xbeb1ecc2	-0.34750944
202	0x3eebfc4f	0.46090934
203	0x3eee95fb	0.465988
204	0xc00d6c16	-2.209722
205	0xbe84b4c8	-0.25919175
206	0x3e44081a	0.19143716
207	0xbefebed0	-0.49754953
208	0xbe1cff9c	-0.15331882
209	0xbde1bf49	-0.11022813
210	0xbe95721a	-0.29188615
211	0xbe054b7c	-0.13017076
212	0xbeed0054	-0.46289313
213	0xbfb4c295	-1.4121882
214	0xbfbccc92	-1.474993
215	0xbf126909	-0.5719152
216	0xbdabd321	-0.08389879
217	0xc00c238a	-2.1896691
218	0xbe9d372c	-0.30706155
219	0x3fb2fd3b	1.398353
220	0xbf783073	-0.9694893
221	0xbf7d2f05	-0.9889987
222	0x3faa960b	1.332704
223	0xbf815f1b	-1.0107149
224	0xbf1aa9a2	-0.6041509
225	0x3e40116f	0.1875665
226	0x3fc0c027	1.505864
227	0xbf87e3e1	-1.0616418
228	0xbf8424f9	-1.0323783
229	0xbe1cc529	-0.15309586
230	0xbf81a139	-1.0127326
231	0x3f8920a4	1.0713086
232	0x3e515ce6	0.20445594
233	0xc017b041	-2.3701327
234	0x3f2e9532	0.68196404
235	0xbdcd98bb	-0.10038897
236	0x3ff179fa	1.8865349
237	0xbed689bf	-0.41901967
238	0xbfac87d8	-1.3478956
239	0x3eff1e1a	0.49827653
240	0xbf339fee	-0.7016591
241	0x3fe09994	1.7546868
242	0xc00f4f68	-2.2392216
243	0x3fd2534f	1.6431674
244	0x3f91090e	1.1330888
245	0x40030d8b	2.0477016
246	0xbdf16505	-0.11786846
247	0x3eab86db	0.33501324
248	0xc003f974	-2.0621004
249	0x3e7b12b0	0.24518847
250	0xc005b588	-2.0892048
251	0x3ea754d5	0.3268191
252	0x3fda4f38	1.7055426
253	0x3eef142a	0.4669507
254	0x3fa60dc6	1.2972953
255	0x3fbfe58f	1.4991931

future_emb.embedding.1.weight f4 [7, 40]
0	0xbd060e39	-0.032728408
1	0xc00d4193	-2.2071273
2	0x402ec3ce	2.730701
3	0x3d99d924	0.075121194
4	0xbc7f786f	-0.015592678
5	0x40368e74	2.8524446
6	0xbea1831e	-0.31545347
7	0x3fe20087	1.7656411
8	0x3fdc8e6c	1.7230964
9	0xbf97ec29	-1.1868945
10	0xbfe2207b	-1.7666162
11	0x3f378643	0.7168924
12	0xc022a4bd	-2.5413048
13	0xc00e5fd5	-2.2245991
14	0xbeeba2d4	-0.46022666
15	0xbf1af7b4	-0.60534215
16	0xbfbb833e	-1.4649427
17	0xc019ce6c	-2.403224
18	0x3f9372fc	1.1519465
19	0xbfcb9639	-1.5905219
20	0xbfff65cf	-1.9952945
21	0xc021625a	-2.521628
22	0x40108c78	2.2585735
23	0xbef825b1	-0.48466256
24	0xbe2dc3cf	-0.16969226
25	0x3eae8cff	0.34091946
26	0xbfe4b316	-1.7867153
27	0xc01bd4a0	-2.4348526
28	0xc03a8d71	-2.914883
29	0xc053261d	-3.2992013
30	0xbfaa37e4	-1.3298306
31	0xbfe6a7c6	-1.801995
32	0xbfe13a56	-1.7595928
33	0xbf9a5c14	-1.205935
34	0x3f5e5e61	0.8686276
35	0xbfcddb77	-1.60826
36	0x3f99a348	1.2002954
37	0x3f06aef7	0.52610725
38	0xc006321a	-2.096808
39	0xbfc3177e	-1.5241544
40	0x3ec40187	0.38282415
41	0x3daed1d9	0.08536119
42	0xbfced352	-1.615824
43	0x3f30fb5f	0.6913356
44	0xbea5f2d8	-0.32411838
45	0x3ee9458b	0.4556087
46	0x3fae34eb	1.3609899
47	0xbf91b2f0	-1.1382732
48	0xbf93145b	-1.1490587
49	0x4029b244	2.6515055
50	0x401f0ce6	2.4851623
51	0xbf28eb52	-0.6598407
52	0x4012e300	2.295105
53	0x3f4e0ebe	0.80491245
54	0xc024719d	-2.5694344
55	0x3d4b7856	0.04967531
56	0x3eb12f26	0.34606284
57	0x3f20f8c6	0.628796
58	0x3e409a54	0.18808872
59	0x3ee56312	0.44802147
60	0xbfb09c65	-1.3797728
61	0x3fa9cecc	1.3266234
62	0xc01113fd	-2.266845
63	0x3fae8f88	1.3637552
64	0xbf3cfb21	-0.7382069
65	0xbfcf755f	-1.6207694
66	0xbf5210ca	-0.8205687
67	0x3f41ab86	0.7565235
68	0x3e5d3b0b	0.21604554
69	0x40265f07	2.59955
70	0x3f945735	1.1589113
71	0x3fffa609	1.9972545
72	0x3f26e24a	0.6518904
73	0x3faea701	1.3644716
74	0x3e65978d	0.22421093
75	0x3f9a640c	1.2061782
76	0xbf972afb	-1.1809992
77	0xbf0cfcca	-0.55073225
78	0x3f4d03b1	0.8008376
79	0x3f8cc819	1.0998565
80	0x3e9181cd	0.28419343
81	0x3f9493e9	1.1607639
82	0xbf8f9581	-1.12175
83	0xbc6664c5	-0.014062111
84	0x3f22734a	0.6345717
85	0x3ded591b	0.11589261
86	0x3ea45df3	0.32102928
87	0x3e9867cc	0.2976669
88	0xbed2f7cf	-0.41204688
89	0x3f03d0a4	0.51490235
90	0xbf834d20	-1.0257912
91	0x3f06e1c5	0.52688247
92	0xbf9c0746	-1.218972
93	0xbe9e43ac	-0.30911005
94	0x3ef26532	0.4734283
95	0x3f051ebf	0.5200004
96	0x3e4be63b	0.19912045
97	0x3fbf9c65	1.4969603
98	0x3f4f7652	0.8103992
99	0x3d1a644d	0.03769331
100	0xbdf1cdae	-0.118068084
101	0x3f112946	0.56703603
102	0x3f6ac5af	0.9170789
103	0x3fdefc85	1.7420813
104	0x3e99fbf1	0.3007503
105	0x3e4de36a	0.20106283
106	0x402376f7	2.554136
107	0x3e71d8b1	0.23617817
108	0x3fc8f7a6	1.5700576
109	0x3f068bcf	0.5255708
110	0x3efe3ed4	0.4965731
111	0xbfe442c5	-1.7832876
112	0xbeff0052	-0.49804932
113	0xbf44e8b7	-0.76917595
114	0xbeb0aed2	-0.34508377
115	0xbf0a2253	-0.53958625
116	0x3f1820cb	0.5942504
117	0xbfc8ef79	-1.5698081
118	0x3f9c6900	1.2219543
119	0xbfd2f3b5	-1.6480623
120	0xbf2b8b62	-0.67009556
121	0x3e8b0d53	0.27158603
122	0xc0093624	-2.1439295
123	0xbf1c61dc	-0.6108682
124	0x3edfce73	0.43712196
125	0xbfedc5ae	-1.8575952
126	0x3e7aa8e2	0.24478486
127	0x3fc2a939	1.5207893
128	0xbf13744d	-0.57599336
129	0x4017676e	2.3656878
130	0xbd9bae1f	-0.0760157
131	0x3fa4ce5e	1.2875478
132	0xbdd4d647	-0.10392433
133	0x3fe66a58	1.8001204
134	0xbfafcced	-1.3734413
135	0xbece17d6	-0.4025256
136	0xbfc710f0	-1.5552044
137	0xbe7710e6	-0.2412754
138	0x3eda57f9	0.42645243
139	0x3eb09c45	0.34494224
140	0xbd9a7d8d	-0.07543478
141	0xbf80ab41	-1.0052263
142	0xbea934a8	-0.33047986
143	0xbe84c3d0	-0.25930643
144	0xbef1a021	-0.4719248
145	0x3f8b20a4	1.0869336
146	0x3ebd9d83	0.37034234
147	0xbfbf0f69	-1.4926578
148	0x3f7830fc	0.96949744
149	0xbf822286	-1.0166786
150	0x3fad69c6	1.3547904
151	0xbeacb177	-0.33729145
152	0x3f8509fa	1.039367
153	0xbebd1616	-0.36930913
154	0xbd8c8f6e	-0.068632945
155	0xbedb55d4	-0.4283892
156	0x3fdc9f49	1.723611
157	0xbf593922	-0.848528
158	0xbdf2ec1f	-0.11861443
159	0xbeeb6c72	-0.45981175
160	0xbf0d9af6	-0.55314577
161	0xbe7b5dab	-0.2454745
162	0x3ebdd51c	0.37076652
163	0xbe086ac4	-0.13321978
164	0xbf0f60fb	-0.56007355
165	0x3fdb2d8c	1.7123275
166	0x40053915	2.081609
167	0x3e6ba13e	0.23010728
168	0x3fbe88c3	1.4885486
169	0x3efec172	0.49756962
170	0xbf26c3d9	-0.6514259
171	0x3fc6d28b	1.5533003
172	0xbf5d8b70	-0.8654089
173	0xbfe938e4	-1.8220487
174	0xbe912e4b	-0.2835563
175	0xbf472ce5	-0.7780288
176	0xbf7451ff	-0.95437616
177	0x3ec38567	0.38187715
178	0xbe4bff44	-0.19921595
179	0x3f4aca6f	0.7921514
180	0x3f4f851b	0.8106248
181	0x3fa5a359	1.2940475
182	0x3f85ec5e	1.0462759
183	0xbf9f72f0	-1.2456951
184	0x3f2794d2	0.65461457
185	0xc02cbfdc	-2.6992102
186	0xc0043d02	-2.0662236
187	0xbf2161d2	-0.63039887
188	0xbd3a97c7	-0.045554902
189	0x3fd1f377	1.6402425
190	0xbeab5b85	-0.3346826
191	0x3ec945ce	0.3931107
192	0xbd449f89	-0.048003707
193	0xbf3ea074	-0.7446358
194	0x3f04d997	0.51894516
195	0xbd659766	-0.056052588
196	0x3f40bcc7	0.7528805
197	0xbec4ff42	-0.38475996
198	0x3fd6498a	1.6741192
199	0x3faf71b7	1.3706578
200	0xbf1f02bc	-0.6211355
201	0xbf911a05	-1.1336066
202	0xbeabe3ee	-0.33572334
203	0x3da46a7e	0.08028124
204	0x3e95fba3	0.29293546
205	0xbf273cf0	-0.6532736
206	0x3e31ccf6	0.17363343
207	0xbe85e7d6	-0.2615344
208	0xbf4e416c	-0.80568576
209	0xbf66563d	-0.8997534
210	0xbf8b1377	-1.0865315
211	0x3f2af4f3	0.6678001
212	0x3e841f90	0.2580533
213	0x3fbb8b17	1.4651822
214	0xbcec1eb5	-0.028823236
215	0xbdb2ace8	-0.087243855
216	0xbf5fff19	-0.87498623
217	0xbd8ef576	-0.06980412
218	0xbfefc84d	-1.8733002
219	0x3f3f915c	0.74831176
220	0x3fa75385	1.3072363
221	0xbf9dd507	-1.2330636
222	0x3f547cda	0.8300301
223	0xc02d9aee	-2.7125812
224	0xbf3550fd	-0.70826703
225	0x3e9f10bc	0.31067455
226	0xbe8ac46b	-0.2710298
227	0xbf6dd398	-0.9290099
228	0x3e9ec80e	0.31012005
229	0xbf7a7ff7	-0.9785151
230	0xbfa64aaa	-1.2991536
231	0x3e9a450e	0.3013081
232	0xbfa8e3bd	-1.31945
233	0xbfac102c	-1.3442435
234	0x3fd0822f	1.6289729
235	0x3f1eb6b4	0.6199753
236	0x3ffd1b63	1.9773983
237	0xbf489c5d	-0.7836359
238	0xc009bf1e	-2.1522899
239	0x3ea93b61	0.33053115
240	0xc01f1c67	-2.4861085
241	0x3fe3bca1	1.779194
242	0xbf5deb9a	-0.86687624
243	0xc017ed6a	-2.3738656
244	0x3ef126a5	0.47099796
245	0xc036e320	-2.8576126
246	0xbf9b4027	-1.2128953
247	0xbf38c78a	-0.7217947
248	0xbf5637f1	-0.8367911
249	0xbcea2eb5	-0.028586725
250	0x3f1dc556	0.61629236
251	0xbf8de572	-1.1085646
252	0x3f0f9b12	0.56095994
253	0x3e4da4d7	0.20082413
254	0x3fb145b0	1.3849392
255	0x3ef36151	0.47535184

future_emb.embedding.2.weight f4 [24, 40]
0	0xbf253975	-0.645408
1	0xbe244f63	-0.16045909
2	0x3ed3accb	0.41342768
3	0xbf2ce8ca	-0.6754271
4	0xbe2c7e45	-0.16845043
5	0x3e013d07	0.12620936
6	0xbe7880ae	-0.24267837
7	0xbf5ca71d	-0.86192495
8	0x3fee1404	1.8599858
9	0xc02d867a	-2.7113328
10	0xbe16a08b	-0.1470968
11	0x3e636372	0.22205904
12	0xbce5ce92	-0.028052602
13	0x3f47ca8c	0.78043437
14	0x3fc4bf35	1.5370852
15	0x3fbb03b8	1.461051
16	0xbee7ba73	-0.45259437
17	0x3f086734	0.53282475
18	0x3fed4945	1.8537985
19	0xbef1211c	-0.47095573
20	0x3f63797f	0.88857263
21	0xbe3865f5	-0.18007644
22	0xbf7ecd21	-0.9953175
23	0x3f21f9aa	0.6327158
24	0x3ef8272e	0.48467392
25	0x3fe19985	1.7624975
26	0x3f9a6a78	1.2063742
27	0x3f9e6fd0	1.2377872
28	0x3f2476b8	0.6424365
29	0xbfa6b41b	-1.3023714
30	0x3f1d7f83	0.6152269
31	0xbeb4a83b	-0.352846
32	0xbfc7dfd1	-1.5615178
33	0x3f551273	0.83231276
34	0x3f984739	1.1896735
35	0xbf060caf	-0.52363104
36	0x3fdf45d7	1.7443188
37	0x3dae25b1	0.08503283
38	0xbe99e78d	-0.30059472
39	0x40188703	2.3832405
40	0x3f1105f0	0.56649685
41	0xbf94a3a9	-1.1612445
42	0xbeec87a2	-0.4619723
43	0xbd4c8d97	-0.049939718
44	0xbe749603	-0.2388535
45	0x3dfa6b4d	0.12227497
46	0x3ed535e7	0.41642687
47	0x3d9358bf	0.07194661
48	0xbec976ef	-0.39348552
49	0xbfd3c276	-1.654372
50	0x3fb37532	1.402014
51	0xbf0fd3b9	-0.5618244
52	0xbf760bc9	-0.9611173
53	0xbebede40	-0.37278938
54	0x3f3d714f	0.7400102
55	0x4059784b	3.397967
56	0x3ef47191	0.47742894
57	0xbee986bf	-0.45610616
58	0x3f0487c2	0.5176965
59	0xbf863e2d	-1.0487725
60	0x3f5426f5	0.82871944
61	0x3e2b02ed	0.16700335
62	0xbf59dff3	-0.85107344
63	0xbf519b74	-0.8187783
64	0x3eee506f	0.4654574
65	0x3f660c6c	0.89862704
66	0xbece2bb8	-0.4026773
67	0xbe9f1c5a	-0.31076318
68	0xbed5ca47	-0.41755888
69	0xbf588afd	-0.8458708
70	0xbe81db71	-0.25362733
71	0x3f111692	0.56675065
72	0xc02fe2f9	-2.7482283
73	0x400f7edf	2.2421186
74	0x3f1478a0	0.5799656
75	0x3f65fbac	0.89837146
76	0x3fc5f237	1.5464543
77	0x3ed17c59	0.40915182
78	0x3fc3f189	1.5308086
79	0x3f431d6b	0.76216763
80	0xbf77f7f8	-0.96862745
81	0xbf58ad8e	-0.84639823
82	0xbf5f9618	-0.873384
83	0xbefbc801	-0.49176028
84	0x3d626181	0.05526877
85	0xbe3a82dd	-0.18213983
86	0x3fcd5982	1.6042941
87	0xbf88dbb9	-1.0692054
88	0x3e47a761	0.19497444
89	0xc008c80b	-2.1372097
90	0x3f7a0d60	0.9767666
91	0x3f8e1acc	1.1101928
92	0xbfdb2039	-1.7119209
93	0xbe85689d	-0.26056376
94	0x3f956524	1.1671491
95	0x3fe9ba24	1.8259931
96	0x3f8e8e8f	1.1137255
97	0x3fad4532	1.3536742
98	0x4045169c	3.079505
99	0xbf039fb2	-0.5141555
100	0x3f73a630	0.95175457
101	0x3f618a88	0.88102007
102	0xbd0bd5a1	-0.03413928
103	0x3f59d775	0.85094386
104	0x3f1c0789	0.60949
105	0x3d9ade95	0.075619854
106	0x3eb25e61	0.3483763
107	0x3fc171dc	1.5112872
108	0xbd177fc4	-0.03698708
109	0xbf43a518	-0.7642379
110	0x400650b9	2.098677
111	0x3fe44e90	1.7836475
112	0xbf533a6f	-0.8251104
113	0xbf1a7dc8	-0.60348177
114	0x4005d7e4	2.091302
115	0xbf689c5d	-0.9086359
116	0x401553f0	2.3332481
117	0x3fa242f5	1.2676684
118	0xbeaf79bf	-0.34272572
119	0x3f842871	1.0324842
120	0xbf769b3e	-0.9633063
121	0xbf2c5d82	-0.6733018
122	0xbf8d5290	-1.1040821
123	0x3e208084	0.15674025
124	0xbf2b0948	-0.6681104
125	0x3f618c1e	0.88104427
126	0x3ece78f3	0.40326652
127	0x3e1fdb44	0.15610987
128	0x3ff0ffd3	1.8828071
129	0xbfccd326	-1.6001937
130	0xbdfd2a09	-0.12361533
131	0xbf7fd358	-0.9993186
132	0x3f8da479	1.1065818
133	0x3faea31f	1.3643531
134	0xbc2052cc	-0.009785365
135	0x3f98c1b8	1.1934118
136	0x3ef250c7	0.47327253
137	0xbe43632c	-0.190808
138	0x40083056	2.1279502
139	0x3e2e15b6	0.1700047
140	0xbfdd74a7	-1.7301224
141	0xbf20d7c7	-0.6282925
142	0xbf307c44	-0.68939614
143	0x4005a9dd	2.0884926
144	0x3f829d1f	1.02042
145	0x3f708c02	0.93963635
146	0x403992ba	2.8995805
147	0x3fbc8d71	1.4730664
148	0xbf4251df	-0.75906175
149	0xbf0af227	-0.54275745
150	0x3fe149c2	1.7600634
151	0x4004ed12	2.0769696
152	0xbff05f35	-1.8779055
153	0xbff3f4ed	-1.905912
154	0x3f272b5f	0.65300554
155	0x3fa08938	1.2541876
156	0x3f15b89e	0.5848483
157	0xbe889907	-0.2667925
158	0x3d4d8a6c	0.050180838
159	0x3fc87525	1.566075
160	0xbf39c5b9	-0.72567326
161	0x3f3d8026	0.74023664
162	0xbf8bc76c	-1.0920234
163	0xc028a442	-2.6350255
164	0xc05b39bc	-3.4253988
165	0xbf1063c8	-0.56402254
166	0x3f8b3e40	1.0878372
167	0xbe44ca4d	-0.19217797
168	0xbf69e627	-0.9136681
169	0xc023b1fa	-2.5577378
170	0x3e210624	0.15724999
171	0x3f67a9e1	0.9049359
172	0x3f50b1ba	0.8152119
173	0x40195a2d	2.396129
174	0x3f2623bc	0.64898276
175	0x400b8f04	2.180604
176	0x3ea6d212	0.32582146
177	0xbf6535a1	-0.89534956
178	0x3fd5198c	1.6648421
179	0xbf9635f5	-1.1735216
180	0x3e6d8180	0.23193932
181	0xbe7f8f71	-0.24957062
182	0xbf9d3528	-1.2281847
183	0x3fd94f9a	1.6977417
184	0x403e42e3	2.9728324
185	0x3fc6f7b6	1.5544345
186	0x3f6cc005	0.924805
187	0x3f704689	0.9385763
188	0xbf59fc13	-0.8515026
189	0xbf0e5a2b	-0.55606335
190	0x3f3a0aa6	0.726725
191	0x3fb792c6	1.4341667
192	0x3f47bb72	0.78020394
193	0xbe28388c	-0.16427821
194	0x3de10c1e	0.10988639
195	0x3f90b6af	1.1305751
196	0x3fe94532	1.8224242
197	0xbecfddef	-0.4059901
198	0x3f196c79	0.5993114
199	0x3f07b7d8	0.530149
200	0x3f6fccf9	0.9367214
201	0x3e879a54	0.2648493
202	0xc0283aec	-2.6285963
203	0xc00a4257	-2.160299
204	0x3e80d1b7	0.2516
205	0x400375e5	2.0540707
206	0x3f639619	0.88900906
207	0xbdd51943	-0.10405209
208	0x3edf1dbe	0.4357738
209	0xc0013ea1	-2.0194476
210	0xbf496242	-0.78665555
211	0x3fb2012e	1.390661
212	0x3ca2d4bc	0.01987683
213	0x3fad6141	1.3545305
214	0x3f9d19b8	1.2273474
215	0x3ea50fe7	0.32238695
216	0x3f0823f8	0.53179884
217	0x3ee39e79	0.44456843
218	0x3f76a9e7	0.96353
219	0xc00e33f7	-2.2219217
220	0xbfb382b5	-1.4024264
221	0xbf9d2e44	-1.2279744
222	0xbf5965e0	-0.84921074
223	0x3fa0d9e8	1.25665
224	0x3e0f449f	0.1399102
225	0xbea351cc	-0.31898344
226	0x3e2d0b8c	0.16898936
227	0x404974c8	3.1477528
228	0xc035722f	-2.8350942
229	0xbfe38823	-1.7775921
230	0x3ddb221c	0.10699865
231	0x3fe38e57	1.7777814
232	0x3f443494	0.7664273
233	0x3f1d898c	0.61538005
234	0x4083a105	4.1134057
235	0xbffb3b7e	-1.962753
236	0x3f87b637	1.0602483
237	0x3f9bf223	1.2183269
238	0x3fb03e34	1.3768983
239	0x3f7a7c9a	0.97846377
240	0xbe418e98	-0.18902051
241	0x3fda13ea	1.7037327
242	0xbfc348a7	-1.5256547
243	0xbf2fc46f	-0.6865911
244	0xbf215403	-0.63018817
245	0x3d109929	0.035302315
246	0x3fdbdc7d	1.7176663
247	0x3d3750b1	0.044754688
248	0x3be58426	0.0070042787
249	0x3ea153f2	0.31509358
250	0x3f9c5c4f	1.221567
251	0xc0346494	-2.8186388
252	0xbfaec43f	-1.365364
253	0x403a2c38	2.908949
254	0x3f837878	1.0271139
255	0x40347741	2.8197787

future_emb.embedding.3.weight f4 [2, 40]
0	0xbf4e4576	-0.8057474
1	0x3fe70a06	1.8049934
2	0x3fb41442	1.4068682
3	0x3fcd19bd	1.602348
4	0xbe7aa3ea	-0.24476591
5	0x3f9546ff	1.1662291
6	0xbd916c11	-0.0710069
7	0xbf44f646	-0.76938283
8	0x3edae9c9	0.4275649
9	0xbf55b878	-0.834846
10	0x3f938fb7	1.1528233
11	0x3fd4e3f6	1.6632068
12	0xba6fc370	-0.0009146249
13	0xbf8d4b55	-1.1038615
14	0x3e817432	0.25283962
15	0xbfa082c5	-1.2539908
16	0xbfbc9ab2	-1.4734709
17	0xbfad8c36	-1.3558414
18	0x3f801ba4	1.0008435
19	0xbd905f56	-0.07049434
20	0x3d80ac93	0.06282916
21	0x3f99987f	1.1999663
22	0xbf90fe93	-1.132769
23	0xbe17e67d	-0.14834018
24	0x3f9fa0cd	1.2470948
25	0xbe4a7bee	-0.19773838
26	0xbd5e9c0c	-0.054348037
27	0xbfd9d5f5	-1.701842
28	0x401cda21	2.4508135
29	0x3f76b346	0.963673
30	0x3f865e7b	1.0497583
31	0x3e229471	0.15876938
32	0x3ec20066	0.3789093
33	0x3f3fb23a	0.7488133
34	0xbcf4c817	-0.029880567
35	0x3f9edd60	1.2411308
36	0x3f5017c0	0.8128624
37	0xbf70c86e	-0.9405583
38	0x3fc23144	1.5171285
39	0x3ea17562	0.31534868
40	0x3d565c99	0.0523344
41	0xbed2358f	-0.41056487
42	0xbe820cf4	-0.25400507
43	0x3eaaa58d	0.3332943
44	0xbed4cde1	-0.41563323
45	0xbd901996	-0.0703613
46	0xbd611adb	-0.054957252
47	0x3acf3828	0.0015809583
48	0xbe5328ea	-0.20621076
49	0x3f2d962c	0.6780727
50	0x3da02872	0.07820214
51	0x3fbe84b8	1.4884253
52	0x3f86a0ec	1.051786
53	0x3d7de57b	0.061986428
54	0xc00ffa32	-2.2496457
55	0xbddfa631	-0.1092037
56	0xbd1ed51b	-0.038777452
57	0x3ea75a54	0.32686102
58	0x3fa51c2f	1.2899226
59	0xbdbd33a7	-0.092383675
60	0xbfa833d0	-1.3140812
61	0xbcecb858	-0.028896496
62	0x3ebbb59b	0.3666199
63	0x3f70fd2a	0.941363
64	0xbdcebaa9	-0.10094196
65	0x3ba337ce	0.0049810177
66	0xbcbe4963	-0.023228353
67	0xbf8046ce	-1.0021608
68	0xbf4c731f	-0.7986316
69	0x3e2cefca	0.16888347
70	0xbca939bc	-0.020657413
71	0xbe6aa09f	-0.22912835
72	0x3f1d4084	0.6142657
73	0x3f038c63	0.5138609
74	0xbdf5b716	-0.119978115
75	0x3dd433ed	0.103614666
76	0x3f86c342	1.0528338
77	0xbe10a685	-0.14126022
78	0xbc3cc2e6	-0.011521077
79	0xbe4ab037	-0.19793783

category_emb.embedding.0.weight f4 [32, 40]
0	0xbf424147	-0.75880855
1	0xbf807f29	-1.0038806
2	0x3f2811a9	0.6565195
3	0x3f887a7d	1.066238
4	0x3e16a9f3	0.14713268
5	0x3f1a4bd2	0.6027194
6	0xbef34a5b	-0.47517666
7	0xbee0075e	-0.4375562
8	0x3f011395	0.50420505
9	0x3ee95e1a	0.45579606
10	0xbfdf5f28	-1.7450914
11	0xbf266858	-0.65002966
12	0x3df1c614	0.118053585
13	0xbf8d897b	-1.1057581
14	0xbfd01e49	-1.6259242
15	0xbf5bf284	-0.85916924
16	0x3ebb36ef	0.36565349
17	0xbedfc36f	-0.43703791
18	0xc01e804e	-2.476581
19	0xbf739606	-0.9515079
20	0x3d1c2521	0.038121346
21	0xbf80b88b	-1.0056318
22	0xbfc49df1	-1.53607
23	0x3f77cc40	0.96796036
24	0xbf181514	-0.5940716
25	0x3f0a5542	0.54036343
26	0xc0117afd	-2.2731316
27	0xbf8488ac	-1.0354209
28	0x3f7dcf21	0.9914418
29	0xbda04156	-0.07824962
30	0xbf8e99dc	-1.1140704
31	0x3d893465	0.066994466
32	0x3f39f34a	0.72636855
33	0xbf96dbd9	-1.1785842
34	0x3f84e9ea	1.0383885
35	0xbe99fe17	-0.30076668
36	0x3ec9e479	0.39432123
37	0xbf3c6e56	-0.7360586
38	0xc026d271	-2.6065943
39	0x3f4c8dca	0.7990385
40	0xbf0ea66e	-0.557227
41	0x3e072fff	0.13201903
42	0xbffdebb1	-1.9837552
43	0x3f8f7095	1.1206232
44	0xbfd8e36f	-1.6944407
45	0x3deaceb4	0.11465207
46	0x4027ff75	2.6249669
47	0xbe9f085a	-0.3106106
48	0x3f598a8f	0.8497705
49	0xbe5ff90d	-0.21872349
50	0x3eb6e150	0.35718775
51	0xbfbd1bdf	-1.477413
52	0x3f18ddeb	0.5971362
53	0x3eb84c07	0.35995504
54	0x3fd24c7a	1.6429589
55	0x3eb846d0	0.35991526
56	0xbfdea609	-1.739442
57	0x3e42a847	0.19009505
58	0x3f7cd2c1	0.98759085
59	0x3f963347	1.1734399
60	0xbfa69749	-1.3014919
61	0xbf17bf03	-0.59275836
62	0x3ecb9657	0.39763138
63	0x3be79a20	0.0070679337
64	0xbea87262	-0.32899767
65	0xbfad8542	-1.3556292
66	0x3f56620d	0.83743364
67	0xbf3af778	-0.7303386
68	0xbd573137	-0.05253717
69	0x40312460	2.7678452
70	0xbf464606	-0.774506
71	0x3e5d8618	0.21633184
72	0xbf2b2e66	-0.66867673
73	0xbf425be1	-0.75921446
74	0x3f1f8005	0.6230472
75	0xbf9b0196	-1.2109859
76	0x3fa49298	1.2857237
77	0xbea82f62	-0.3284865
78	0xbf6728a0	-0.90296364
79	0x3f60059d	0.87508565
80	0xbe4dcdf0	-0.2009809
81	0xbdc45b73	-0.09587755
82	0x3f855db6	1.0419223
83	0xbfcdf14f	-1.6089267
84	0xbfd28f0c	-1.6449904
85	0xbedc762f	-0.43058917
86	0x3fcd8abb	1.6057962
87	0xbd3a273f	-0.045447584
88	0x3fd7ab08	1.684907
89	0xbf9ffd2d	-1.2499138
90	0x3fefbcd9	1.8729507
91	0x3dcc11c5	0.09964327
92	0xbdc4307c	-0.0957956
93	0xbfba9bcd	-1.4578797
94	0x3ed1f91f	0.41010377
95	0xbf84eb92	-1.038439
96	0x3db42d7a	0.087977365
97	0xbf1ba812	-0.6080333
98	0xbe98b890	-0.2982831
99	0xbf5a524a	-0.85281813
100	0xbe53994b	-0.20663945
101	0x3ebc0d41	0.36728862
102	0xbf6ae168	-0.9175019
103	0x3fdad5c4	1.7096486
104	0x3f9fab3b	1.247413
105	0xbfcf0931	-1.617468
106	0x3e3b0d77	0.18266855
107	0xbf761de1	-0.9613934
108	0xbf759fd0	-0.9594698
109	0xbcf599c6	-0.029980551
110	0xbed5ec37	-0.4178178
111	0x3ebdec3b	0.37094292
112	0x3f9a1260	1.2036858
113	0xbf1ea1a5	-0.619654
114	0xbf82971d	-1.0202366
115	0xbf4483c5	-0.76763564
116	0xbfb9d7d8	-1.4518995
117	0x3f16bba1	0.5888005
118	0x3f2e1b83	0.6801073
119	0x3f83aa98	1.0286436
120	0xbe5ca50d	-0.21547337
121	0x3f1cbc48	0.61224794
122	0x3f4cf2a1	0.8005772
123	0xbf8f6d02	-1.1205142
124	0x3f25f200	0.6482239
125	0x3f7583da	0.95904315
126	0x3f874a48	1.0569544
127	0xbf85fb3a	-1.0467293
128	0x3fce394e	1.6111238
129	0x3c3daf4f	0.011577441
130	0xbe84d4d3	-0.25943622
131	0x3fe6d505	1.8033758
132	0xbf332e21	-0.6999226
133	0x3ff8e46a	1.9444706
134	0xbdf7879e	-0.12086414
135	0xbeb071c6	-0.34461802
136	0x3ea2185d	0.31659213
137	0x3ed65808	0.41864038
138	0x3ec2a1fd	0.38014212
139	0xbf2121df	-0.6294231
140	0x3f0fb955	0.5614217
141	0xbe9f3dd7	-0.31101868
142	0xbfd0b5f8	-1.6305532
143	0x3f13aec9	0.57688576
144	0xbeacff96	-0.33788747
145	0x3f28473b	0.6573369
146	0xbf983422	-1.189091
147	0xbfe25900	-1.7683411
148	0x3f18e54b	0.59724873
149	0xbe37199c	-0.17880863
150	0x4016280f	2.346195
151	0x3f92959c	1.1451907
152	0x3f705bfa	0.93890345
153	0xbfdac5c1	-1.70916
154	0x3e3f4cff	0.18681715
155	0xbf092245	-0.53567916
156	0x3f7e401b	0.9931657
157	0x3f4179b6	0.7557634
158	0x3c868726	0.016421866
159	0x402f30bd	2.7373497
160	0xbf96884f	-1.1760348
161	0xbfb84c00	-1.4398193
162	0x3f8ad1c2	1.0845263
163	0x3f93ca8d	1.1546189
164	0x3fa2e47e	1.272598
165	0xc0021c09	-2.0329611
166	0xbf9ded5d	-1.2338063
167	0xbf12b099	-0.57300717
168	0xbf3251f7	-0.6965632
169	0xc0271a01	-2.6109622
170	0xbe8da1ea	-0.27662593
171	0x3fde71ff	1.7378539
172	0x402c2297	2.6896112
173	0x3fe0d955	1.7566324
174	0xbc20b13a	-0.009807879
175	0xbf2bbb8d	-0.67083055
176	0xbc87d61d	-0.01658159
177	0xbf058b5c	-0.5216577
178	0x3fd9b627	1.7008713
179	0x3f85211d	1.040073
180	0x3f356113	0.7085125
181	0xbede48aa	-0.43414813
182	0x3f0ee659	0.5582023
183	0x3f8e50d2	1.1118414
184	0xbff6223b	-1.9229196
185	0x3fd19833	1.6374573
186	0x3e83ad36	0.25718087
187	0xbe95d292	-0.29262215
188	0x3fb00882	1.3752596
189	0x3fae8397	1.3633908
190	0xbf12b9fd	-0.57315046
191	0x3e7e4cec	0.24834031
192	0xbf039655	-0.51401263
193	0x3e840d57	0.25791427
194	0x3f9d0596	1.226733
195	0x3f07d969	0.53066117
196	0xbf9fe4b9	-1.2491676
197	0xbd4b206b	-0.049591463
198	0xbe9246a8	-0.2856953
199	0x3f198b11	0.59977823
200	0x3d16cafe	0.036814682
201	0x3e24a5d4	0.16078883
202	0xbe8ac8c7	-0.27106306
203	0xbf25cdd4	-0.64767194
204	0x3f87a0ec	1.0595984
205	0x3e082cea	0.13298383
206	0x3de8c6d5	0.11366049
207	0xbf4cc8db	-0.7999398
208	0x3ef33cfc	0.47507465
209	0x3d0cb8a7	0.034355786
210	0x40191d43	2.392411
211	0xbecca495	-0.39969316
212	0xbf8f0933	-1.1174682
213	0xbfcbdc0f	-1.5926532
214	0x3fbd701a	1.4799836
215	0x3f3f7fa1	0.7480412
216	0xbf0a9c2c	-0.5414455
217	0xbf0ac9ea	-0.54214346
218	0xbf657369	-0.89629227
219	0xbfa01d8a	-1.2509015
220	0xbd88e7a1	-0.06684805
221	0x3fee1851	1.8601171
222	0x3f49d281	0.7883683
223	0xbf2ef8e1	-0.6834851
224	0x400e9213	2.2276657
225	0x3df624e1	0.12018753
226	0xc0252cbe	-2.5808558
227	0x3eb8ac85	0.36069122
228	0xc0185131	-2.3799555
229	0xbfdc7442	-1.7222979
230	0xbe0c6a33	-0.13712387
231	0x3f97ba0d	1.1853653
232	0x3e9ce241	0.30641368
233	0x3ea052fe	0.31313318
234	0xbfedc36d	-1.8575264
235	0xbeaad949	-0.333689
236	0xbe3c6f02	-0.18401721
237	0x3e640248	0.22266495
238	0xbda20e4f	-0.079128854
239	0xbf9f674a	-1.2453396
240	0x3f7d5697	0.9896025
241	0x3fa145be	1.2599409
242	0x3f4492cd	0.767865
243	0x400455cf	2.0677373
244	0xbff6898b	-1.9260725
245	0xbf805c8f	-1.0028247
246	0xbf4c74eb	-0.798659
247	0xbf59a1b6	-0.85012376
248	0x3e85959e	0.2609071
249	0xbfe77243	-1.8081745
250	0x3f92fc77	1.1483296
251	0x3f66a3d7	0.9009375
252	0x3d5c4b62	0.05378283
253	0x3f191b79	0.59807545
254	0xbf6e45af	-0.9307508
255	0x3b979108	0.0046254434

category_emb.embedding.1.weight f4 [7, 40]
0	0x3f27c634	0.6553681
1	0x3f747ad4	0.9549992
2	0x3fa7a6e4	1.3097806
3	0x3f849d4a	1.0360501
4	0xbf21c596	-0.6319212
5	0xbf978803	-1.1838382
6	0x3ebd501c	0.3697518
7	0xbee49737	-0.44646618
8	0x3dd8c08d	0.10583601
9	0xbf16ae34	-0.5885956
10	0x3ffad093	1.9594902
11	0x3d9ae1be	0.07562588
12	0x3f450f81	0.7697678
13	0x3f4ccd08	0.8000035
14	0x3e3bbc1f	0.18333481
15	0x400d8909	2.211489
16	0x3f196aee	0.59928787
17	0x3dc4e51c	0.09614012
18	0xbe9c2c89	-0.30502728
19	0x3f9d1aa6	1.2273757
20	0x3f836bf7	1.0267323
21	0x3efdcce7	0.4957039
22	0x3dab012a	0.083498314
23	0x3f77a451	0.967351
24	0x3f5710d3	0.84010047
25	0xbef9c5eb	-0.48783812
26	0xbf049071	-0.517829
27	0xbf940d74	-1.1566606
28	0x3f033b59	0.5126243
29	0x3fe5b528	1.794591
30	0x3fbcc900	1.474884
31	0x3ebbbc94	0.3666731
32	0xbebe3172	-0.371471
33	0x3ec11dbb	0.37717995
34	0xbfa4ec4f	-1.2884616
35	0x3df67d4e	0.12035619
36	0x3e11af28	0.14226973
37	0x3f1bf6a7	0.60923237
38	0xbefed4cd	-0.4977173
39	0x3f3cee4c	0.7380111
40	0x3e2b2a8c	0.16715449
41	0xbfdad0b2	-1.7094939
42	0xbc2c18aa	-0.010503927
43	0xbf41590a	-0.7552649
44	0xbf853736	-1.0407474
45	0xbf948a46	-1.1604698
46	0x3fcf1588	1.6178446
47	0xbf2ee2b2	-0.6831466
48	0x3fb02188	1.3760233
49	0xc025a77d	-2.5883477
50	0x3e2b80a9	0.16748299
51	0xbda57aa0	-0.080800295
52	0x3e4f1df9	0.20226277
53	0x3e526b2f	0.205487
54	0x3f829b98	1.0203733
55	0xbf8d80de	-1.1054952
56	0xbf8da19a	-1.1064942
57	0x3f418c78	0.75604963
58	0x400d9a49	2.2125418
59	0xbed41040	-0.41418648
60	0x3c76c6bd	0.015062031
61	0x3fbf7268	1.4956789
62	0xbe92e890	-0.28693056
63	0xbe405fdc	-0.18786567
64	0x3ea166ef	0.31523845
65	0xbf9e91f4	-1.2388291
66	0x3f3291ab	0.6975352
67	0x3eb872af	0.36024997
68	0xbec24910	-0.37946367
69	0xbe2ece76	-0.17070946
70	0x3f51f2a3	0.8201086
71	0x3eab4e96	0.33458394
72	0x3d09b3ee	0.03361886
73	0xbff025a8	-1.8761492
74	0x3e402b38	0.18766487
75	0x3f241ca8	0.64106226
76	0xbfc9a271	-1.5752698
77	0xbe99f1ec	-0.30067384
78	0xbf28bdd9	-0.65914685
79	0x3f029af2	0.5101768
80	0x3e237270	0.15961623
81	0xbd9747ab	-0.073867165
82	0x3e428a65	0.18998106
83	0x3e95cc5f	0.29257485
84	0x3f82b132	1.0210326
85	0x3f815adb	1.0105852
86	0x3e3364bc	0.17518896
87	0x3f318a34	0.69351506
88	0xc0094a8b	-2.1451747
89	0xbfb43953	-1.4079994
90	0xbf03eba1	-0.51531416
91	0xc04ee409	-3.2326682
92	0x3cb3d398	0.021951482
93	0x3fcf8b48	1.621438
94	0xbe24d0cc	-0.16095275
95	0xbf1eea06	-0.6207584
96	0x3edc4fdc	0.43029678
97	0xbf011042	-0.5041543
98	0x3e4aef76	0.1981791
99	0x3d0e9b7a	0.034816243
100	0xbed72aee	-0.4202494
101	0xc03f4c0a	-2.989016
102	0xbebca19c	-0.36842048
103	0x3e735afa	0.23765174
104	0xbf6a82bf	-0.9160575
105	0x3f767f28	0.96287775
106	0x3ee6d382	0.45083243
107	0x3ee84f78	0.4537313
108	0xbfcd137b	-1.602157
109	0xbfe98756	-1.8244426
110	0xbfa7aac2	-1.3098986
111	0x3f7a417a	0.9775616
112	0xbc6c93b0	-0.014439508
113	0x3eebe1ed	0.46070805
114	0xbb99a5ab	-0.0046889386
115	0xbe57d333	-0.2107666
116	0xbe6241d2	-0.22095421
117	0x3f3097b4	0.6898148
118	0xbf0b1b35	-0.5433839
119	0xbf02f154	-0.5114949
120	0x3f44d073	0.7688057
121	0x3f682ce5	0.90693504
122	0x3e35970f	0.17733406
123	0x3f09c710	0.5381937
124	0xbf28269e	-0.65683925
125	0xbf5576d9	-0.8338447
126	0x39447756	0.00018736473
127	0xbf5335f9	-0.8250423
128	0x3c2ea5b0	0.01065962
129	0xbf811413	-1.0084251
130	0x3ebe83ec	0.37210023
131	0xbf10e41c	-0.5659807
132	0x3f10cf22	0.5656606
133	0x3fdace66	1.7094238
134	0x3f73c493	0.95221823
135	0xbdcb1146	-0.09915404
136	0x3facf475	1.3512102
137	0x3da12f6e	0.078703746
138	0x3f847d62	1.0350764
139	0x3e838843	0.25689897
140	0x3eeb29fb	0.45930466
141	0x3ebea277	0.37233326
142	0xbebb08c0	-0.36530113
143	0x3ea1663c	0.3152331
144	0x3e2c52f1	0.16828515
145	0x3fe80fa8	1.8129778
146	0xbfa64d04	-1.2992253
147	0xbfc37a8e	-1.5271776
148	0x3f3a74da	0.7283455
149	0xbd507dba	-0.050901152
150	0xbf321d99	-0.6957641
151	0xbf3a7b35	-0.7284425
152	0xbf1a929f	-0.60379976
153	0xbe0c9c5f	-0.13731526
154	0x3f2a190f	0.66444486
155	0xbf66e3b9	-0.9019123
156	0x3f57f04f	0.84351057
157	0xbedb77bf	-0.42864797
158	0xbfb5a96a	-1.4192326
159	0x3f77837c	0.96685004
160	0x3f822d7c	1.0170131
161	0x3e8e8466	0.27835387
162	0x3c24af30	0.010051534
163	0x3fae9ecb	1.364221
164	0xbf038e8c	-0.51389384
165	0xc0118466	-2.273706
166	0xbd1808df	-0.037117835
167	0xbf510a7d	-0.8165663
168	0x3fabc95a	1.3420823
169	0xbfe26993	-1.7688469
170	0x3fad2176	1.3525836
171	0x3fb6a4c9	1.4269038
172	0x3d292113	0.041291308
173	0x3f4dd081	0.80396277
174	0x3ee19f7c	0.4406699
175	0x3ee6ed7e	0.45103067
176	0x3dc96194	0.09833065
177	0xbd9fc9a4	-0.07802132
178	0x3e09fe3a	0.13475886
179	0x3fd235ac	1.6422629
180	0x3f81aa0c	1.0130019
181	0x3ed3c059	0.41357687
182	0xbf48d70b	-0.7845313
183	0x4011b532	2.2766843
184	0x3fb2288b	1.3918623
185	0x3e043554	0.12910968
186	0xbf3f965f	-0.74838823
187	0xbef3b9a8	-0.47602582
188	0x3f4dcf26	0.8039421
189	0x401e7400	2.47583
190	0x405b671e	3.4281688
191	0x3eaa74a5	0.33292118
192	0xbf8e6495	-1.1124445
193	0xbee169fd	-0.44026175
194	0xbf273ec5	-0.65330154
195	0xbd6e62e0	-0.058199763
196	0xbd34b88c	-0.04412131
197	0x3f8fb25f	1.122631
198	0xbed5c96f	-0.41755244
199	0x3ede5489	0.4342387
200	0x3e640907	0.22269069
201	0xbe40be87	-0.1882268
202	0xbe54f8dd	-0.20798059
203	0xbd6144ea	-0.054997362
204	0x3f23bb22	0.63957417
205	0x3fe68e09	1.8012096
206	0x3f7eddc6	0.9955715
207	0x3e5fe5a4	0.21864945
208	0xbeeebe68	-0.46629643
209	0xbc35512f	-0.011066719
210	0x3f0f41f4	0.5596001
211	0xbfe2fb1d	-1.7732884
212	0x3f76aa20	0.9635334
213	0xbe969ffd	-0.29418936
214	0x3f2c8eb5	0.67405254
215	0xbf429c83	-0.7602007
216	0xbf3fcbe6	-0.749205
217	0x3ed5571a	0.41668016
218	0x3e13185d	0.14364763
219	0xbfb03bdb	-1.3768266
220	0x3f9362d4	1.1514535
221	0x3ed3a448	0.41336274
222	0x3efadc9a	0.4899643
223	0xbfa2b06d	-1.2710091
224	0xbe9fda1c	-0.31221092
225	0x3f86976e	1.0514963
226	0x3e2ed011	0.17071559
227	0xbebc7f93	-0.3681608
228	0x3ecf932a	0.40541965
229	0x3e052614	0.13002807
230	0x3e792455	0.24330266
231	0x3f599fdd	0.85009557
232	0xbd5a20c5	-0.053253908
233	0xbe8154cd	-0.2526001
234	0x3ec62823	0.38702497
235	0xbdaaa6f9	-0.08332629
236	0x3f4f7f36	0.81053483
237	0xbfd661aa	-1.6748555
238	0xbf7acff2	-0.9797355
239	0xbcc7597e	-0.024334665
240	0x3facc6ec	1.3498206
241	0x3d9a2d42	0.075281635
242	0x402dcca9	2.7156165
243	0x3faeaf5f	1.3647269
244	0xbf06e2a0	-0.5268955
245	0xbfb7c563	-1.4357113
246	0xbeebab9c	-0.46029365
247	0x3ee87853	0.454043
248	0xbf220540	-0.6328926
249	0xc0100984	-2.2505808
250	0x3f63d9ed	0.89004403
251	0x3f36f1ab	0.71462506
252	0xbf985fe6	-1.1904266
253	0xbf7030d2	-0.93824494
254	0x3ea3dc20	0.3200388
255	0xbf284404	-0.65728784
